Results/SectionJ_SampleEfficiency_Ablation11/cidt_model_frac_100.pt (torch, 41637 bytes, 5 tensors)

net.0.weight f4 [128, 9]
-0.12497545 -0.13290901 0.005012661 -0.15233925 0.16728012 0.14764684 0.2762729 -0.01849695
-0.02548462 0.19334055 -0.33365002 0.08993973 0.2814498 -0.2898225 0.031808168 0.23465984
-0.13099532 0.04713549 -0.28178892 0.09940651 -0.23443703 0.0010353724 0.24196665 0.16341288
0.031736396 -0.00049235334 -0.09372359 0.11229531 -0.29708207 0.24341112 -0.1236947 -0.016687201
-0.02769183 0.2915437 0.21563685 -0.0581712 -0.28479093 0.037742693 -0.31213918 -0.22531678
0.078466244 0.3323668 0.29708296 0.06312723 -0.10236151 0.26771522 -0.2755127 0.034575574
-0.07972539 -0.009552232 0.08669387 0.18966393 0.101544656 -0.08753706 0.08711309 0.18507385
0.18480645 -0.28927746 -0.18650949 -0.14437957 0.09200269 0.10341564 -0.02163983 0.22335394
-0.22545011 0.05216261 -0.19229576 0.122300446 0.010347339 -0.27988425 0.14950354 0.07583874
0.2276971 0.053450376 0.016707398 -0.19879021 -0.2625287 -0.10269662 0.12543814 -0.26210636
-0.3266813 -0.12954113 0.24786918 0.15103747 0.2742768 0.049526874 -0.31169125 -0.13828051
-0.26253358 0.054711424 0.15223093 -0.17649436 -0.19091797 0.1654046 -0.3099 0.12104333
0.30034745 -0.34197697 -0.02907201 -0.11259419 -0.09408886 0.25656834 0.011492543 0.24808176
-0.32542235 0.2643042 0.092975944 0.14901024 0.034819 -0.18956865 0.3139234 -0.033529006
0.1603681 -0.06712689 0.14022738 0.061073143 -0.28076535 -0.23195489 -0.12819305 0.09493466
0.079729535 0.19829133 0.06630129 -0.32413536 -0.25775084 -0.26726428 -0.27628842 0.32414976
0.24444291 0.12921496 -0.22048642 0.24405043 -0.04651622 -0.28845984 0.2936055 -0.19541399
0.14907517 -0.23525281 0.14409548 0.27454633 0.13299394 -0.21494597 0.22474325 -0.14630164
0.11771097 -0.10196456 -0.13343538 -0.05846196 -0.28040904 0.18420853 -0.16148691 0.087685116
-0.1349481 -0.18750231 -0.006177774 -0.10168214 0.10821044 -0.1705051 -0.115698166 -0.22772343
-0.32826042 0.25806552 -0.047650374 -0.17817226 0.22823204 -0.10485936 0.03383829 -0.16728497
-0.012568465 0.124873966 0.21545245 -0.08333013 0.25978172 0.2154153 -0.20147936 -0.15448143
0.2156958 0.33694533 0.23775735 -0.09552228 -0.039157588 0.07538809 0.1884174 -0.11467828
-0.1806209 0.1999082 -0.10116142 -0.28734437 0.0023105652 0.2966159 -0.21067886 0.19145526
-0.23587434 -0.26389265 -0.050252944 0.13131858 0.12974416 0.19089676 -0.2940766 -0.08593198
0.08094204 0.09102315 -0.23420815 0.07071337 -0.02471601 -0.22321036 -0.22447807 0.2378274
0.17860924 0.3022326 0.11567243 0.1387893 0.053790186 0.11036811 0.070484035 0.21331136
-0.25707597 0.1337057 0.30037475 0.025886023 0.11266554 -0.03847993 0.3157262 -0.30519968
-0.1794468 -0.110265546 0.08583028 0.09545961 -0.05601629 -0.10350567 0.054434348 -0.2825643
0.041409284 0.18142769 0.31632206 -0.24548244 0.18325268 0.12875213 0.21237303 -0.09312177
-0.3288421 0.1264573 0.11145758 0.18738584 0.007861722 0.02705951 0.03112144 -0.3150798
0.051443703 -0.040936735 0.013618739 -0.11639761 0.27782938 -0.24791779 -0.25047696 0.05178696
00000000: 21f3 ffbd 4d19 08be 4041 a43b d2fe 1bbe
00000010: 7b4b 2b3e bc30 173e a473 8d3e ea86 97bc
00000020: 1fc5 d0bc 11fb 453e 2dd4 aabe 5232 b83d
00000030: 301a 903e 9d63 94be 4849 023d ab4a 703e
00000040: a323 06be 2511 413d a346 90be a495 cb3d
00000050: 4310 70be 55b5 873a 1bc6 773e b555 273e
00000060: 06fe 013d 4611 01ba 27f2 bfbd 15fb e53d
00000070: 241b 98be c440 793e a653 fdbd 99b3 88bc
00000080: fad9 e2bc 3745 953e e8cf 5c3e ed44 6ebd
00000090: 1ed0 91be 1598 1a3d b5d0 9fbe 71b9 66be
000000a0: e9b2 a03d fb2b aa3e 421b 983e d948 813d
000000b0: e9a2 d1bd f811 893e 0010 8dbe 1e9f 0d3d
000000c0: 1147 a3bd f780 1cbc 8e8c b13d 4337 423e
000000d0: a5f6 cf3d a146 b3bd 5968 b23d 0084 3d3e
000000e0: e73d 3d3e 2d1c 94be 58fc 3ebe 3dd8 13be
000000f0: e86b bc3d 94cb d33d 0346 b1bc e5b6 643e
00000100: 65dc 66be 76a8 553d 2ee9 44be a878 fa3d
00000110: e387 293c fd4c 8fbe 7517 193e 5751 9b3d
00000120: 6e29 693e c8ee 5a3d f4dd 883c a98f 4bbe
00000130: 296a 86be 9b52 d2bd db72 003e ce32 86be
00000140: c542 a7be 6ea6 04be 6bd1 7d3e 91a9 1a3e
00000150: 026e 8c3e b1dc 4a3d ff95 9fbe 6899 0dbe
00000160: cd6a 86be 1619 603d 6de2 1b3e f0ba 34be
00000170: 0080 43be d35f 293e 36ab 9ebe 91e5 f73d
00000180: 24c7 993e 9b17 afbe 6d28 eebc c897 e6bd
00000190: a9b1 c0bd ed5c 833e 384b 3c3c 2509 7e3e
000001a0: c29d a6be e152 873e 2c6a be3d 2496 183e
000001b0: 5e9e 0e3d 491e 42be 91ba a03e b655 09bd
000001c0: 8937 243e d379 89bd c497 0f3e d527 7a3d
000001d0: 7ac0 8fbe 9585 6dbe 0a45 03be 1a6d c23d
000001e0: 3d49 a33d e20c 4b3e f9c8 873d 12f5 a5be
000001f0: ebf7 83be ddd6 88be ad75 8dbe f5f6 a53e
00000200: 3e4f 7a3e ed50 043e 31c7 61be 5be8 793e
00000210: cb87 3ebd 02b1 93be 7653 963e 9b1a 48be
00000220: 29a7 183e 1de6 70be c48d 133e 5691 8c3e
00000230: 902f 083e cc1a 5cbe 1823 663e 19d0 15be
00000240: 7312 f13d ccd2 d0bd 49a3 08be cf75 6fbd
00000250: c691 8fbe 29a1 3c3e d35c 25be 4194 b33d
00000260: d62f 0abe 9b00 40be ed6e cabb ba3e d0bd
00000270: 6f9d dd3d e498 2ebe 29f3 ecbd 5530 69be
00000280: c011 a8be 2a21 843e 0a2d 43bd ca72 36be
00000290: a9b5 693e 81c0 d6bd 059a 0a3d c04c 2bbe
000002a0: f7eb 4dbc ecbd ff3d 919f 5c3e fda8 aabd
000002b0: 1c02 853e d495 5c3e 9b50 4ebe 6130 1ebe
000002c0: 5cdf 5c3e 1984 ac3e aa76 733e 2fa1 c3bd
000002d0: b563 20bd 1265 9a3d 7ef0 403e 72dc eabd
000002e0: aff4 38be bcb4 4c3e b82d cfbd cd1e 93be
000002f0: da6c 173b 0ade 973e 33bc 57be d90c 443e
00000300: 0b89 71be f01c 87be 08d6 4dbd 6178 063e
00000310: a7db 043e 717a 433e 3591 96be 1bfd afbd
00000320: f1c4 a53d 586a ba3d 43d4 6fbe 2cd2 903d
00000330: 3b79 cabc 4291 64be 94dd 65be 0789 733e
00000340: 57e5 363e 3bbe 9a3e abe5 ec3d c81e 0e3e
00000350: 1953 5c3d ad08 e23d ef59 903d 4b6e 5a3e
00000360: 769f 83be 26ea 083e b8ca 993e ed0e d43c
00000370: 31bd e63d 229d 1dbd dda6 a13e 2243 9cbe
00000380: e7c0 37be e7d2 e1bd c9c7 af3d 5480 c33d
00000390: 5671 65bd c8fa d3bd 8df6 5e3d 45ac 90be
000003a0: c89c 293d 2ec8 393e f7f4 a13e c05f 7bbe
000003b0: 97a6 3b3e 99d7 033e 5178 593e a0b6 bebd
000003c0: fe5d a8be 067e 013e df43 e43d 13e2 3f3e
000003d0: 74ce 003c e8ab dd3c 64f2 fe3c 2452 a1be
000003e0: a2b6 523d 47ad 27bd 2221 5f3c df61 eebd
000003f0: a73f 8e3e 29de 7dbe 843e 80be 901e 543d

net.0.bias f4 [128]
0.023200467 0.34128842 0.17631587 0.1348775 -0.23257232 0.18138729 0.31267098 -0.032650854
-0.27988118 -0.16885033 0.2811696 -0.12035766 -0.28600326 -0.08279349 0.24329384 0.12982576
-0.2333304 -0.034741867 0.27677736 0.09284675 -0.21197204 0.21499252 -0.33460596 0.11450856
0.11198725 0.15386422 -0.16860597 -0.053018626 0.14303395 0.33125877 0.32540426 0.30918097
0.17763835 -0.16124174 0.2567416 -0.13157144 0.060000088 0.2880861 0.16794004 0.07859398
0.22935854 0.1391193 0.22115497 -0.07006697 -0.2334813 0.049462304 -0.32136646 0.060405143
-0.19167827 -0.08733369 0.27822152 -0.07037764 0.015165769 -0.309161 -0.08870133 -0.34211138
0.18840842 -0.18773666 -0.1323954 0.22007276 0.28302118 -0.17596334 -0.21726185 -0.027535962
0.14705127 -0.027317792 -0.11747515 -0.29859534 -0.24949364 0.10676462 -0.27389666 -0.16194364
0.12128714 -0.21122436 -0.26222742 -0.24041948 0.29703668 0.08168636 -0.34492418 0.0040545464
-0.2881434 -0.25795996 -0.023825021 -0.26136583 0.03196107 -0.014020225 -0.1280147 0.32783672
0.20358668 -0.04396068 -0.21338178 -0.05353843 -0.25417757 0.24454337 -0.23844561 0.2617874
0.029831693 0.038062558 -0.1569318 0.29352695 -0.199448 0.27542087 0.24658017 -0.0122776115
-0.07068566 -0.15276504 0.119850874 -0.30100578 0.29861805 -0.22419702 0.1650809 -0.33355355
0.1299272 -0.28706914 0.030347617 -0.21611433 -0.31409696 0.021704553 -0.042571854 0.29058743
-0.051855784 0.23854186 -0.060838208 -0.04388012 0.00031257735 0.30203357 -0.10732182 -0.055867612
00000000: e80e be3c 5bbd ae3e 268c 343e 541d 0a3e
00000010: 7027 6ebe 97bd 393e 6916 a03e e7bc 05bd
00000020: 964c 8fbe 1ae7 2cbe 76f5 8f3e 147e f6bd
00000030: 056f 92be a28f a9bd 0522 793e 0bf1 043e
00000040: 2aee 6ebe 7d4d 0ebd c3b5 8d3e 7026 be3d
00000050: 330f 59be 0027 5c3e 7951 abbe 7783 ea3d
00000060: 9259 e53d 958e 1d3e 0ba7 2cbe 0f2a 59bd
00000070: 7e77 123e c09a a93e 639b a63e f84c 9e3e
00000080: d4e6 353e 8e1c 25be a373 833e aaba 06be
00000090: a7c2 753d 0580 933e 79f8 2b3e e1f5 a03d
000000a0: f7dc 6a3e 4a75 0e3e 7376 623e 467f 8fbd
000000b0: b915 6fbe fc98 4a3d 258a a4be 626b 773d
000000c0: 4f47 44be 01dc b2bd 0d73 8e3e 2722 90bd
000000d0: d879 783c 5a4a 9ebe 0ba9 b5bd 3929 afbe
000000e0: 23ee 403e 0a3e 40be a992 07be c15a 613e
000000f0: 27e8 903e bc2f 34be e479 5ebe 1993 e1bc
00000100: 9c94 163e 90c9 dfbc d096 f0bd 7de1 98be
00000110: 437b 7fbe 69a7 da3d 2f3c 8cbe 8ed4 25be
00000120: 6465 f83d 334b 58be ac42 86be 8630 76be
00000130: 3115 983e 2e4b a73d e799 b0be 00dc 843b
00000140: 8887 93be 5413 84be b12c c3bc bed1 85be
00000150: 9ce9 023d 16b5 65bc 4916 03be 37da a73e
00000160: 0779 503e 1d10 34bd c180 5abe 1d4b 5bbd
00000170: 9023 82be 9469 7a3e 162b 74be 0009 863e
00000180: 9861 f43c 7ce7 1b3d bbb2 20be 2a49 963e
00000190: 193c 4cbe f703 8d3e 837f 7c3e 0928 49bc
000001a0: a5c3 90bd 706e 1cbe 6074 f53d 6e1d 9abe
000001b0: 77e4 983e e793 65be f80a 293e 88c7 aabe
000001c0: a30b 053e bafa 92be 919b f83c 134d 5dbe
000001d0: 51d1 a0be bfcd b13c d35f 2ebd e0c7 943e
000001e0: bb66 54bd 5144 743e 7c31 79bd a4bb 33bd
000001f0: 6ce1 a339 25a4 9a3e 8bcb dbbd 70d5 64bd

net.2.weight f4 [64, 128]
0.01953663 0.09722178 0.05144272 0.031215776 0.07117674 0.088440396 0.055357367 0.06667083
-0.03700918 -0.04152644 0.097732715 0.0038318934 0.0056210854 -0.000731739 0.08170211 -0.059294906
-0.010670873 0.018877586 0.08586206 0.08847218 0.043016024 0.09540309 -0.045571998 0.097369514
0.05065054 -0.07145604 -0.014632918 0.04279616 -0.071029425 0.086514644 0.03270486 -0.0050753253
-0.056661695 0.09514573 -0.048353296 0.012259398 0.07020941 -0.07415052 -0.042137653 -0.0416642
0.05722516 0.016817797 0.08200856 0.032945234 -0.0037631134 0.053993016 0.049896702 0.05758436
0.03674789 0.0039414437 0.06571723 -0.032201342 -0.003236072 -0.022387944 -0.013811715 -0.022802226
0.049457468 -0.066724 0.048709307 -0.07284101 -0.046751503 -0.057427157 0.09551609 0.097408526
-0.036736153 -0.025983512 0.024986355 -0.06419242 0.09257397 -0.005451418 0.050247993 0.09108241
0.079730935 -0.045570288 -0.010912685 0.06731472 0.0680071 -0.06634507 -0.07262988 0.021473952
0.03315647 0.028915709 0.0031721257 0.092434675 0.054968175 0.073891975 -0.06751596 -0.061324995
-0.010239054 -0.03897506 -0.040246278 0.016172344 0.058791406 0.06996617 0.008925422 -0.064326085
-0.023443446 -0.075885355 -0.02075277 -0.04328453 -0.0337538 0.0015623603 0.042665266 -0.038179643
-0.0037406443 -0.041140236 0.055538077 0.08670748 0.08988709 -0.0038910045 0.08340938 0.009604618
0.023638075 0.03446856 -0.024769194 0.015323793 0.033312224 0.0965908 0.011442919 0.05982757
0.030044515 0.04091323 0.033611175 0.031022638 0.04701433 -0.05199424 0.03812464 0.04634185
0.03193224 -0.082072176 0.057422098 -0.058505192 -0.030302107 -0.010170979 -0.0058744443 0.036099225
0.044944637 0.07328252 0.008120815 -0.00761065 -0.011413203 0.0023079806 -0.046915367 -0.041757163
0.07289574 0.05850219 -0.009437431 -0.062989175 -0.054319985 -0.06931047 -0.045310035 -0.05415929
0.06447638 -0.062308624 0.037049837 -0.07552303 -0.030927436 -0.039024685 -0.06475965 -0.009420368
0.04729198 0.04626812 0.046090577 -0.002433289 -0.09809916 -0.052501876 0.053740185 -0.058495726
0.028413674 -0.03839077 -0.060664337 -0.007350345 -0.070958786 0.061178688 -0.0729217 -0.052228175
0.021437418 -0.057953756 -0.09580166 -0.05173577 -0.014214073 0.058995016 -0.03832485 -0.060436513
-0.09628094 -0.06738054 -0.07880375 -0.06524928 -0.028184969 0.04442454 -0.005677286 0.037568673
0.070453994 -0.03841824 0.060765374 -0.058100343 -0.038242277 0.06336332 -0.079271354 -0.055333395
0.05667032 0.05549507 -0.008772507 -0.07666871 0.048295192 -0.0050662435 -0.058151875 -0.04092759
-0.023890028 0.02547839 -0.020872127 0.055512365 -0.08103709 -0.07737047 -0.06281736 -0.08262058
-0.0006806113 -0.058288284 -0.04688384 0.0058062365 -0.036341082 -0.02711246 -0.078087226 0.039852306
0.027315315 -0.06738868 -0.06595999 -0.07112383 -0.052625343 -0.08111341 0.058953255 -0.023633955
-0.09822894 0.06086573 -0.044103686 -0.073425494 -0.0018502309 0.029077826 -0.04204018 0.027113011
0.0730108 0.0016658551 0.050996803 0.055676024 0.06813208 0.024703512 -0.0729615 0.054255076
-0.04004733 0.03492944 0.06584474 0.052835677 -0.031946853 -0.074031495 -0.055886805 0.002731874
00000000: 480b a03c 361c c73d 9ab5 523d 3ab8 ff3c
00000010: 1cc5 913d 3d20 b53d 68be 623d b78a 883d
00000020: f096 17bd a117 2abd 1728 c83d 8120 7b3b
00000030: 1531 b83b 2cd2 3fba 7053 a73d 37df 72bd
00000040: e3d4 2ebc 2ba5 9a3c 73d8 af3d e730 b53d
00000050: 9231 303d b262 c33d b4a9 3abd ab69 c73d
00000060: f176 4f3d 8b57 92bd e8be 6fbc 074b 2f3d
00000070: e077 91bd 972e b13d 88f5 053d ea4e a6bb
00000080: 1816 68bd c4db c23d 1b0e 46bd a4db 483c
00000090: f3c9 8f3d 3adc 97bd 8898 2cbd 15a8 2abd
000000a0: ee64 6a3d 7ac5 893c 1bf4 a73d 95f1 063d
000000b0: 919e 76bb c827 5d3d 7c60 4c3d 94dd 6b3d
000000c0: f584 163d 3a27 813b c196 863d 8ee5 03bd
000000d0: 4714 54bb ec66 b7bc 884a 62bc bccb babc
000000e0: ea93 4a3d 98a6 88bd 6983 473d ab2d 95bd
000000f0: 817e 3fbd bd38 6bbd f19d c33d 1f7e c73d
00000100: a678 16bd 60db d4bc 2fb0 cc3c 5177 83bd
00000110: 6c97 bd3d cfa1 b2bb d7d0 4d3d 6a89 ba3d
00000120: f949 a33d e9a7 3abd 1ecb 32bc 4ddc 893d
00000130: 4e47 8b3d eddf 87bd f9be 94bd 24ea af3c
00000140: 14cf 073d a3e0 ec3c 70e3 4f3b 644e bd3d
00000150: 4f26 613d ad54 973d cf45 8abd eb2f 7bbd
00000160: b5c1 27bc 50a4 1fbd 48d9 24bd dd7b 843c
00000170: 42cf 703d 6c4a 8f3d ef3b 123c 65bd 83bd
00000180: 780c c0bc c869 9bbd b701 aabc 1f4b 31bd
00000190: 6d41 0abd 1dc8 cc3a c6c1 2e3d 4262 1cbd
000001a0: 9925 75bb aa82 28bd e57b 633d b193 b13d
000001b0: b916 b83d 3900 7fbb 89d2 aa3d b05c 1d3c
000001c0: a3a4 c13c e82e 0d3d c4e8 cabc a510 7b3c
000001d0: 6672 083d 66d1 c53d 157b 3b3c c10d 753d
000001e0: ea1f f63c a294 273d dfab 093d 3023 fe3c
000001f0: 1992 403d eaf7 54bd 9528 1c3d f4d0 3d3d
00000200: 61cb 023d 7515 a8bd 6f33 6b3d 24a3 6fbd
00000210: 203c f8bc 2ea4 26bc 697e c0bb c8dc 133d
00000220: de17 383d 2515 963d 2b0d 053c c262 f9bb
00000230: 71fe 3abc 7d41 173b 542a 40bd 8f09 2bbd
00000240: 5d4a 953d fe9f 6f3d 749f 1abc 7800 81bd
00000250: a27e 5ebd a6f2 8dbd 0497 39bd 22d6 5dbd
00000260: 310c 843d 5437 7fbd 92c1 173d d1ab 9abd
00000270: 895b fdbc 59d8 1fbd b5a0 84bd e357 1abc
00000280: 3cb5 413d a483 3d3d 79c9 3c3d d177 1fbb
00000290: 36e8 c8bd 350c 57bd ab1e 5c3d 3799 6fbd
000002a0: cbc3 e83c a43f 1dbd 2b7b 78bd 2adb f0bb
000002b0: d752 91bd 8196 7a3d f957 95bd 36ed 55bd
000002c0: 869d af3c eb60 6dbd a933 c4bd e3e8 53bd
000002d0: 25e2 68bc c2a4 713d 85fa 1cbd 478c 77bd
000002e0: f12e c5bd cffe 89bd dc63 a1bd 6aa1 85bd
000002f0: 2ae4 e6bc 82f6 353d 8708 babb 9ce1 193d
00000300: 2f4a 903d 725c 1dbd 1de5 783d a0fa 6dbd
00000310: efa3 1cbd a1c4 813d 0559 a2bd 45a5 62bd
00000320: 231f 683d cc4e 633d 90ba 0fbc 7c04 9dbd
00000330: 2ed1 453d bb02 a6bb a930 6ebd b0a3 27bd
00000340: 05b5 c3bc 0eb8 d03c 06fc aabc ef60 633d
00000350: c6f6 a5bd 6974 9ebd 63a6 80bd fb34 a9bd
00000360: 0d6b 32ba b2bf 6ebd 4509 40bd 3e42 be3b
00000370: 63da 14bd f31a debc 32ec 9fbd 2c3c 233d
00000380: 5ec4 df3c 1403 8abd 0816 87bd 5fa9 91bd
00000390: ac8d 57bd ca1e a6bd f878 713d ff9b c1bc
000003a0: 412c c9bd 584e 793d 11a6 34bd 1b60 96bd
000003b0: 7283 f2ba 9f34 ee3c 5332 2cbd 1b1c de3c
000003c0: b086 953d d258 da3a 06e2 503d 8b0c 643d
000003d0: d588 8b3d 055f ca3c d76c 95bd 923a 5e3d
000003e0: ab08 24bd 2c12 0f3d 9bd9 863d 396a 583d
000003f0: b4da 02bd d39d 97bd 90e9 64bd 3d09 333b

net.2.bias f4 [64]
-0.06231018 0.07026708 -0.017230082 -0.07508612 -0.06988997 -0.03232333 -0.071830794 0.07492411
-0.03664634 0.03117715 0.06313614 0.014955299 -0.035397504 0.027819151 0.08029227 -0.10010321
-0.041281354 0.07197577 -0.057972543 0.052013647 0.045894038 -0.006562684 -0.0484227 0.0026114865
-0.06936266 -0.021623943 -0.08884243 0.01002537 -0.09490214 -0.04617948 0.06604153 -0.0142142605
0.02916889 0.04717912 -0.09772302 0.0722782 -0.06812736 -0.04777865 -0.041514803 0.049420573
0.06147445 -0.06603859 0.018414024 -0.012825953 -0.070028044 0.043173376 -0.042684898 0.009551419
-0.035473846 0.051083617 -0.06749905 0.0061590285 -0.055190034 0.029615916 -0.037158776 0.009500277
-0.07957401 0.08583103 -0.040539276 -0.025112836 -0.044045974 -0.07893709 0.054223035 0.021386413
00000000: f638 7fbd 30e8 8f3d 1a26 8dbc c0c6 99bd
00000010: 7922 8fbd 7865 04bd 061c 93bd d071 993d
00000020: 791a 16bd 3967 ff3c 854d 813d 1207 753c
00000030: f9fc 10bd fde4 e33c 4670 a43d e902 cdbd
00000040: a316 29bd 0868 933d 9e74 6dbd 430c 553d
00000050: 63fb 3b3d c90b d7bb e256 46bd 7925 2b3b
00000060: 030e 8ebd b224 b1bc 05f3 b5bd 7341 243c
00000070: 0e5c c2bd b226 3dbd c840 873d eee2 68bc
00000080: 99f3 ee3c e53e 413d 0223 c8bd 9806 943d
00000090: 5b86 8bbd 8cb3 43bd 6d0b 2abd 3a6d 4a3d
000000a0: a2cc 7b3d 3e3f 87bd 02d9 963c f223 52bc
000000b0: dd6a 8fbd 91d6 303d 5cd6 2ebd 8e7d 1c3c
000000c0: 064d 11bd 0e3d 513d f13c 8abd add1 c93b
000000d0: f20e 62bd 149d f23c cd33 18bd 0da7 1b3c
000000e0: b3f7 a2bd 2ec8 af3d 830c 26bd 6fb9 cdbc
000000f0: 8d69 34bd c5a9 a1bd f918 5e3d 8f32 af3c

net.4.weight f4 [1, 64]
0.08653982 -0.0059873494 -0.10363335 -0.0004264239 0.0619754 0.09931645 0.09813636 0.06690897
0.035050374 0.12941857 0.10044491 0.079264514 -0.057808746 0.12372377 0.110055305 -0.0040565324
0.02500535 0.012824576 0.0858561 -0.02420623 0.05627369 0.09838598 0.12979642 0.090955116
-0.037067097 0.051455777 -0.067045726 -0.035268653 -0.108352885 0.05995188 -0.013777516 0.03319444
0.059281826 0.1286499 -0.019848581 -0.09611141 0.0506328 -0.052536715 -0.07367297 -0.0113526415
-0.108565085 -0.06306281 0.12919615 0.12686336 -0.07916118 -0.067766756 0.08863485 -0.100967124
0.0044006584 -0.07886675 -0.056124467 -0.07301452 0.06740134 0.055583593 0.044748325 -0.024232568
-0.024578873 0.07570131 -0.072091304 0.05941048 -0.098904565 -0.097593166 0.055243712 -0.08665229
00000000: ca3b b13d 8731 c4bb b93d d4bd a691 dfb9
00000010: ebd9 7d3d 6c66 cb3d b7fb c83d 9207 893d
00000020: fb90 0f3d 4d86 043e 10b6 cd3d 6f55 a23d
00000030: ddc8 6cbd e362 fd3d ad64 e13d a9ec 84bb
00000040: 05d8 cc3c 2c1e 523c 53d5 af3d 254c c6bc
00000050: 3e7f 663d 977e c93d 5ae9 043e ad46 ba3d
00000060: abd3 17bd 4bc3 523d 454f 89bd dd75 10bd
00000070: 1ee8 ddbd 1a90 753d 17bb 61bc e5f6 073d
00000080: 80d1 723d cdbc 033e 7e99 a2bc 0fd6 c4bd
00000090: 5764 4f3d bd30 57bd dbe1 96bd 6e00 3abc
000000a0: 5f57 debd 1327 81bd ff4b 043e 78e8 013e
000000b0: 421f a2bd 4cc9 8abd 3086 b53d dac7 cebd
000000c0: 6633 903b e484 a1bd c5e2 65bd a388 95bd
000000d0: b709 8a3d 9fab 633d 054a 373d 6183 c6bc
000000e0: a259 c9bc 4a09 9b3d 9ba4 93bd 6758 733d
000000f0: 7a8e cabd edde c7bd 3b47 623d c176 b1bd
