Results/SectionJ_SampleEfficiency_Ablation11/cidt_model_frac_10.pt (torch, 41625 bytes, 5 tensors)

net.0.weight f4 [128, 9]
000000 61 cf 2f bc b8 c5 ab 3e 3f 2d 90 3d c6 48 a0 be
       -0.010730595 0.33549285 0.0703988 -0.31305522
000010 2e 43 53 3e 44 4b 26 be dd d9 9f be db 75 9e be
       0.20631096 -0.16239649 -0.31220904 -0.30949292
000020 68 63 25 be 68 0f 93 be de 60 6e be 8d 42 d4 bc
       -0.16151202 -0.28722692 -0.2327914 -0.02591064
000030 72 78 59 3c aa 39 d8 bd a9 b3 75 be 1d bb 87 be
       0.013273345 -0.105578735 -0.23994316 -0.26509944
000040 66 39 25 be 30 81 90 be a3 89 ec 3d 43 f3 8b 3e
       -0.16135177 -0.28223562 0.115496896 0.2733403
000050 04 55 94 3e 5c 1c 60 be 28 1a 22 3e c4 dd 30 3e
       0.28971112 -0.21885818 0.1583029 0.17272097
000060 89 c7 94 bd 38 11 0e be e7 49 e5 3d 27 12 2c bd
       -0.07264621 -0.13873756 0.111957364 -0.0420095
000070 81 df 5e 3e 5f ef d7 3d 46 24 81 bd b1 5e 96 3b
       0.21764947 0.10543703 -0.06305747 0.004588925
000080 db 7a a2 3e d6 cc aa 3d 10 91 1e bd 7b 2c 41 be
       0.31734356 0.083398506 -0.03871256 -0.18864624
000090 c5 7d 85 be 5a 29 ac bc 75 50 81 be ad e4 e4 3d
       -0.26072517 -0.021015812 -0.25256696 0.11176429
0000a0 4a b5 07 3e 7b 33 c4 bc a4 11 47 be 5e db 96 be
       0.1325275 -0.023950329 -0.19440323 -0.2946424
0000b0 15 7a 96 3e e7 ce 9b 3e b2 bf 07 be ab 94 18 3c
       0.29390016 0.3043129 -0.1325672 0.009312789
0000c0 80 88 04 3d a9 90 ed 3d 17 1e 85 be e6 96 5d 3e
       0.03235674 0.11599857 -0.2599952 0.21639594
0000d0 6c de 83 3e 3e d9 d2 3d 54 52 80 be 18 1e 9b bd
       0.25755632 0.10295342 -0.2506281 -0.07574099
0000e0 0c 08 aa bd 13 70 20 be 95 62 5f 3e b1 0d 80 bc
       -0.08302316 -0.15667753 0.2181495 -0.015631529
0000f0 65 df 12 be 25 cf 58 be ed 53 51 be a9 51 a5 3e
       -0.14343031 -0.2117277 -0.20442171 0.32288864
000100 b4 c6 2f 3e d0 de 53 be 53 aa 9c bd 71 a8 58 be
       0.17165643 -0.20690465 -0.07649674 -0.21158005
000110 2a c2 f8 bd e5 e2 76 be f9 de 5a be 99 b1 52 3e
       -0.12146409 -0.24109991 -0.2137412 0.2057556
000120 61 d4 32 3e 71 62 d5 3c d2 54 8d 3e b7 53 a9 be
       0.17463829 0.026047917 0.27603775 -0.33071682
000130 54 da 0c 3d 96 6f a8 3d 80 6f 15 bc 08 da 8e 3c
       0.0343879 0.08224408 -0.009120822 0.01743795
000140 f1 e5 97 be b1 0e 20 3d 5b 71 68 3e 77 50 24 3e
       -0.2966762 0.03907651 0.22699492 0.1604632
000150 10 44 5c be 1d b8 1b 3d 1d f3 17 be 8f ab 86 3e
       -0.21510339 0.03801738 -0.14838834 0.26302764
000160 4d 74 15 3e 54 47 b1 3d 11 7a 33 be b0 0b ab 3d
       0.14595146 0.08656183 -0.17527033 0.083518386
000170 b2 ab 72 3e 60 a4 80 3e d2 92 fa bc ce 14 73 3e
       0.23698309 0.25125408 -0.030587588 0.23738405
000180 b0 5d be bd 48 ca 8e be ce 7e 64 3d dd 27 36 3e
       -0.09295213 -0.27888703 0.055784993 0.17788644
000190 5c 39 53 be d0 df 9e 3e 42 16 0f 3d 86 18 90 3e
       -0.2062735 0.3103013 0.034933336 0.2814371
0001a0 5c ab 8c be 90 26 9f be 6f b0 f0 3d 28 63 92 3e
       -0.27474487 -0.31084108 0.11752402 0.28591275
0001b0 bc ed b7 bc e0 ab 99 bd 1a ba 4b be c4 31 93 3c
       -0.022452228 -0.07503486 -0.19895211 0.017968066
0001c0 3d f6 5e 3e 1e 88 dc bd f5 6a 12 bc a8 c3 16 3e
       0.2177362 -0.1076815 -0.008936633 0.14723074
0001d0 1f 70 c7 bd 3b fd 95 bd 19 f8 b7 3c db 50 90 3e
       -0.09738182 -0.073236905 0.02245717 0.28186688
0001e0 db 5b a4 bd 87 ea 1f be 45 4f a5 3d bf cb 82 3e
       -0.080253325 -0.15616809 0.0807176 0.2554607
0001f0 99 f6 8b 3e 82 8f 45 be 70 c1 84 be 15 73 bb 3d
       0.27336577 -0.19293025 -0.2592883 0.091528095
000200 74 2d 73 3d 32 72 9c 3e 04 4d c1 bd b7 5a 88 be
       0.05936952 0.30555874 -0.09438518 -0.2663171
000210 09 4d 66 3e 73 51 06 bd 38 e3 d0 bd 69 dc 00 3e
       0.22490324 -0.03279252 -0.101995885 0.1258408
000220 7b 1a 88 be ab fe be bd ef 0d 6c 3e 1f f8 1d be
       -0.26582703 -0.09325918 0.2305219 -0.15426682
000230 01 6a 9f 3c 13 38 85 3e 31 0c 80 3e 88 6d 99 be
       0.019459726 0.26019344 0.250093 -0.29966378
000240 da 9a 1c 3e 02 72 54 3b f0 7d 85 be 65 2c 8c be
       0.15293446 0.0032416587 -0.26072645 -0.2737762
000250 93 3a 5a 3e 84 17 73 be ac 94 44 3e 7f c6 7d be
       0.21311407 -0.23739439 0.19197339 -0.24782752
000260 66 61 b9 3d 4b 6a 33 3e c5 32 22 bd 54 5c 29 3d
       0.090517804 0.17521016 -0.0395992 0.041347817
000270 18 d5 fd 3d 41 0f 65 be 12 5b b1 bd 68 ca 9c be
       0.1239416 -0.223691 -0.086599484 -0.30623174
000280 23 05 4a 3e 66 96 9e be 53 eb 85 3e c2 76 42 bc
       0.19728522 -0.3097412 0.261561 -0.011869134
000290 16 50 bc bc 61 1e 84 be 2f 51 7a 3e af 31 1b be
       -0.022987407 -0.25804427 0.24445032 -0.15155672
0002a0 3e 7e 76 be 54 16 39 be 2d 71 a0 3e e6 8c 76 be
       -0.24071595 -0.18074924 0.31336346 -0.24077186
0002b0 8a f4 0c 3e 61 46 3e be 7b af 37 be 36 d4 8b be
       0.13765159 -0.18581535 -0.17938034 -0.27310342
0002c0 1d c0 00 be 7f e0 8a 3d f0 50 59 be 9c b0 65 3e
       -0.12573285 0.067811005 -0.21222281 0.22430652
0002d0 33 8d bd bd c9 e0 87 3e 6c 77 84 be cb 98 ff 3d
       -0.09255447 0.26538685 -0.25872362 0.12480315
0002e0 1c 92 16 be a4 2f 74 3d 67 3a 54 bd e0 16 1f be
       -0.14704174 0.059615746 -0.05181351 -0.1553607
0002f0 79 a5 05 3e e9 76 f9 bc ab 14 82 3e 68 e0 3c 3e
       0.13051404 -0.030452209 0.25406393 0.18444979
000300 bf 19 8a be 1c da 3f 3d 61 8e bb bd e3 8e 44 be
       -0.26972768 0.046838865 -0.09158016 -0.19195132
000310 f7 aa 96 bd cf d0 1a be be a2 99 3e b5 37 9f be
       -0.07356828 -0.15118717 0.30006975 -0.3109719
000320 6d 46 90 be db 95 a4 be 66 40 87 3e 37 e2 93 3e
       -0.2817873 -0.3214558 0.2641632 0.28883526
000330 2c ae 95 3e 66 ca 11 be 96 67 67 3e 6c f5 b1 bd
       0.29234445 -0.14237365 0.22598109 -0.08689389
000340 fc aa 7d be c6 2f 05 be 6a 67 06 bd 5b 78 a8 3e
       -0.24772257 -0.13006505 -0.032813467 0.32904324
000350 b0 4a 56 be 1b eb 8f be 4b 8a a6 3e d0 6a 2f 3e
       -0.20926929 -0.2810906 0.32527384 0.1713059
000360 0c 27 f6 3d a9 fc 16 3e 65 c3 10 be 13 c3 81 be
       0.12019166 0.1474482 -0.14137037 -0.25344142
000370 0d 3a 0c be b1 e3 05 be 0e 2d 05 3e f6 0c c9 bd
       -0.1369402 -0.13075139 0.13005468 -0.09816925
000380 55 99 63 3c 0f ff 56 3e b0 f4 88 3e 16 ca 3d bb
       0.013891538 0.20995735 0.26749182 -0.0028959564
000390 96 fd 77 3e f2 06 00 3e 1c 64 21 3e d5 76 a6 bc
       0.24217829 0.1250265 0.15760845 -0.020320335
0003a0 7b 1f 96 3d 6b 04 fc bc 15 97 29 bd e4 e7 38 be
       0.07330223 -0.030763825 -0.04140385 -0.18057209
0003b0 c3 2f 46 be cc 81 c1 bc 1d 2b 98 3e a8 f9 0d 3e
       -0.19354157 -0.023621462 0.29720393 0.13864768
0003c0 43 30 a5 3e f6 f8 24 3e c3 68 67 be d5 56 15 be
       0.32263383 0.16110596 -0.22598557 -0.14583905
0003d0 d6 cc 3f bd 56 68 9c be c6 3f 35 3c 51 4e 56 3e
       -0.046826206 -0.30548352 0.011062568 0.20928313
0003e0 9b 1d 39 be e7 c2 71 be 04 a9 ff bd 8e e8 bc bd
       -0.180777 -0.23609506 -0.12483409 -0.09224044
0003f0 7b e6 6e be 07 8e be bd 54 04 9e be 24 1a 99 3e
       -0.23330109 -0.09304433 -0.30862677 0.29902756

net.0.bias f4 [128]
000000 aa d0 57 bd 81 ef 51 be a4 96 f8 3d b8 76 08 3e
       -0.052689232 -0.2050152 0.121381074 0.13326538
000010 87 b6 00 be ed 27 89 3e 22 2f 46 be a9 7d 65 be
       -0.12569629 0.26788273 -0.19353917 -0.22411217
000020 a7 83 63 3e 32 91 9a 3d 2d 55 0b bd 77 89 88 3d
       0.2221819 0.07547225 -0.034016777 0.06666844
000030 58 e3 75 3e 76 e3 98 3e 6e 22 32 3d a9 ab 40 3e
       0.24012506 0.2986104 0.043489866 0.18815483
000040 df c8 47 3e b8 50 7a 3e 29 c0 e5 bc 36 59 8a bd
       0.1951022 0.24444854 -0.02804573 -0.06755297
000050 b7 09 2e bd d7 32 4a 3b c9 3b 6d 3e 46 cf d6 3d
       -0.042489734 0.0030853057 0.23167337 0.10488753
000060 85 43 57 3e 33 ec 16 3e a3 f7 8d 3d 98 84 87 3e
       0.2102185 0.1473854 0.069319986 0.26468349
000070 bd 34 10 bd b6 17 01 bd ca bf 6e 3c ad 8f 9b be
       -0.035206545 -0.031516753 0.014572093 -0.30383053
000080 19 4b 14 3e ea c7 9c 3e ad 41 f7 bd 97 f3 1d be
       0.14481772 0.30621272 -0.120730735 -0.15424953
000090 27 6c 03 3d d5 ac 73 bc d0 5d 8d be e2 5a 83 be
       0.032085564 -0.014872749 -0.27610636 -0.25655276
0000a0 02 74 76 3d 6f 9e 95 3e 08 3f 9d bd da 2e 98 3d
       0.060169227 0.29222438 -0.07678038 0.07430811
0000b0 20 ef 90 3e 09 10 d5 3b 5d 21 34 3e ca e7 81 be
       0.28307438 0.0065021557 0.17590852 -0.25372154
0000c0 f8 c3 a0 3e 8c 9f 1f be 24 4f 3b 3e 57 03 18 3e
       0.31399512 -0.15588206 0.18291909 0.14845024
0000d0 96 cf 45 bc 11 30 90 3e bc 88 95 3e 58 ff 13 bd
       -0.012073418 0.28161672 0.29205883 -0.036132187
0000e0 55 5d bb bd 9b 96 31 3d ff 9f 70 3e bd 7a 9f 3e
       -0.09148661 0.04335652 0.23498534 0.3114833
0000f0 45 fe d2 bd 2a 4c 96 3d 3e 3b a5 be 7e d9 e5 bd
       -0.10302404 0.07338746 -0.3227176 -0.11223124
000100 18 f9 48 be e0 8d 04 3d 94 75 06 3e cb e1 59 3e
       -0.19626272 0.032361865 0.1313079 0.2127754
000110 4a 50 61 be 44 9e 56 be 7f b7 14 3e 5e 1a 54 3e
       -0.22003284 -0.20958811 0.14523123 0.20713183
000120 5a fb 21 be 9e 9c 12 be 0d 2b 2e bc 8b 30 18 bc
       -0.1581854 -0.14317557 -0.010630381 -0.009288917
000130 07 97 d5 3d 4a 99 98 be d0 33 c5 bd 5a 7a 24 3e
       0.10429197 -0.2980445 -0.09629023 0.16062298
000140 43 25 a3 bd 66 a5 a6 3e 84 50 ae 3d 52 1b 15 bd
       -0.079660915 0.32548064 0.08511451 -0.036403008
000150 13 b0 7a bd 46 5c b4 3c 5c a9 07 be 36 e0 34 bd
       -0.061203074 0.022016656 -0.13248199 -0.044159137
000160 78 b4 6f be f0 de 9d be 49 06 8b be c6 30 1a be
       -0.23408687 -0.3083415 -0.27153233 -0.15057668
000170 b1 fd 21 3e a8 01 d2 bc 2c 97 59 be 97 c3 72 3e
       0.15819432 -0.025635555 -0.21249074 0.23707424
000180 3a 11 e3 3d 34 3f 9e bd e9 c0 ae 3e a9 5e 06 3e
       0.1108727 -0.07726899 0.34131554 0.13122047
000190 42 a8 a9 3e 85 31 90 3e d0 91 82 3e 84 09 71 be
       0.33136183 0.2816278 0.2550187 -0.23538786
0001a0 88 78 63 3e bc 58 ae 3e fa d9 2a be 79 91 5c 3d
       0.22213948 0.34052074 -0.16684714 0.05384967
0001b0 c8 6b dc 3d b9 40 0f bd c9 63 6c 3e 3c f7 d5 3d
       0.10762745 -0.034973834 0.2308494 0.10447547
0001c0 a5 06 07 bb 65 27 20 3e 67 d0 fb bc e3 de 12 be
       -0.0020603326 0.15640028 -0.030739022 -0.14342837
0001d0 35 fe 66 bb c8 a0 f3 3d 8a 63 85 3d e2 0e 46 3e
       -0.0035246734 0.11895901 0.06513126 0.19341615
0001e0 71 7a 78 3c 8a 90 b7 bc 6b 6a 35 bd 6b 40 7f bd
       0.015165911 -0.022407789 -0.04429094 -0.062317293
0001f0 e4 c1 4e 3e 22 be 10 3e dc 03 44 bb 6a 5a 97 3d
       0.20191151 0.1413503 -0.0029909527 0.07390292

net.2.weight f4 [64, 128]
000000 3d 8a 82 3d 02 4a 91 bd 01 3b 95 bd fe a8 da 3a
       0.06374023 -0.07094194 -0.07286645 0.0016682444
000010 21 06 f4 bb a2 38 6b bd 28 d6 42 3d 60 b1 6c 3d
       -0.0074470197 -0.057427056 0.047567517 0.057786345
000020 d1 54 b3 bd 73 40 9c bd 4e 49 83 bd 6b 21 b3 3b
       -0.08756412 -0.0762948 -0.06410466 0.00546663
000030 88 4c 1e 3d 85 25 78 3d ed f3 4a 3d e4 0b bc bc
       0.038647205 0.060582656 0.049549032 -0.022954889
000040 41 85 bb bd e3 0e 55 bc a6 9b 62 3d 3e f4 34 3d
       -0.091562755 -0.013004038 0.05532422 0.04417824
000050 cb 53 fc 3c 52 0e b0 3b ee 88 5c 3d cf 0f f5 3c
       0.030801674 0.005372801 0.053841524 0.029914765
000060 6e 7e 22 bd a3 ba 9b bd 8f d0 9e 3c b4 15 67 3c
       -0.039671354 -0.076039575 0.019386558 0.0141042955
000070 f0 b8 7c b7 83 aa b0 bd 41 2f ff 3c 70 69 95 bc
       -1.506343e-05 -0.086262725 0.031150462 -0.018238753
000080 23 41 bf bd 50 00 7f bd 17 50 0a bd d9 bd 93 3d
       -0.09338596 -0.062256157 -0.033767786 0.07213945
000090 f3 1c 35 bd 15 5a 2b bd 0b 0f 01 3d ce b6 11 3d
       -0.04421706 -0.041833956 0.031508487 0.035574727
0000a0 c3 e7 03 3b bf ca 7d 3d 24 df 8c bd da 1c 6e bc
       0.0020127154 0.061960932 -0.06878498 -0.014533246
0000b0 fa 68 8c bc 1d fc 93 bd aa 88 c9 bd 69 3f 8b 3d
       -0.0171399 -0.07225821 -0.0984052 0.06799204
0000c0 d7 11 95 3d 5d 27 40 bd 3e dc 58 bd fb 7d 46 3d
       0.07278793 -0.04691254 -0.052944414 0.048459988
0000d0 2e 4b 47 bd d2 0a 94 3d bc 13 0f bd 11 fb 47 bd
       -0.04865568 0.07228626 -0.03493093 -0.04882342
0000e0 62 7d 93 bd 2e 53 ca bd 44 7e ac bd 80 8d a5 ba
       -0.07201649 -0.098791465 -0.08422521 -0.0012630671
0000f0 73 b9 0a bd b7 d4 1d 3d 50 0e d4 bc 86 7e f4 bc
       -0.033868264 0.03853294 -0.025885731 -0.029845487
000100 33 2f c6 3c f1 23 a5 bd 14 28 43 bd dc 80 05 bd
       0.024192428 -0.08063496 -0.047645643 -0.032593593
000110 46 b2 10 3b ab 7d 69 3c 01 63 91 bc 02 b3 ce bd
       0.0022078915 0.014251153 -0.017747404 -0.10092737
000120 13 e4 71 3d c4 5b 42 3d b6 8c 2a 3d 9c ff 81 bd
       0.0590554 0.047450796 0.0416381 -0.06347582
000130 67 c6 01 3d 38 3a bb 3c c5 19 51 bd e5 10 99 bd
       0.03168335 0.02285491 -0.051049966 -0.074739255
000140 d7 87 5e bd bb 7b 89 bd 38 2c 9f bd 55 99 bc bc
       -0.054328766 -0.06713053 -0.07772106 -0.023022333
000150 3f 33 ba 3c 41 84 d8 bb 24 99 8c bd 2c a2 80 3d
       0.022729514 -0.006607563 -0.06865147 0.06280932
000160 c8 a6 ca bd 72 d7 f6 bc c9 69 1b bd 37 e2 1a 3d
       -0.09895092 -0.03013203 -0.03794268 0.03781339
000170 e1 66 9e bd 93 82 31 bd 64 1c 11 bd 46 f1 7a 3d
       -0.07734466 -0.043337416 -0.035427466 0.061265253
000180 28 0b 6f 3c 1a 3e 6d bd 94 dc e6 bc f6 0d 80 3c
       0.014590062 -0.057920553 -0.028181352 0.015631657
000190 06 d4 8c bc 80 c3 8c bc 86 c6 87 bd 2f a1 e0 bb
       -0.017190944 -0.017183065 -0.06629662 -0.006855152
0001a0 b5 e0 f6 3c d1 14 42 3d 98 b3 6a bd ab 43 02 bd
       0.030136446 0.047383133 -0.05730018 -0.031802814
0001b0 d5 04 81 3d 7c f5 a5 bd 3d 28 df 3c cc 2c 7e 3c
       0.0629975 -0.08103463 0.027240867 0.01551361
0001c0 38 80 6a 3c a6 81 92 bd 29 99 d9 ba f1 f7 c0 bd
       0.014312796 -0.07153635 -0.0016601431 -0.09422291
0001d0 a7 c4 22 3d 81 9f 19 bc 77 39 3d bd e9 30 45 bd
       0.039738324 -0.009376408 -0.04619738 -0.048142347
0001e0 50 b8 e8 bb 7d 5c 66 bc 01 d9 22 3d 77 df ce 3c
       -0.00710205 -0.014060137 0.039757732 0.02525304
0001f0 4e 1a d0 bd 5f 98 9e bd 66 5c 85 3d de e4 3b bd
       -0.10161267 -0.07743906 0.06511764 -0.04587256
000200 07 1c b3 bd a7 85 51 3d 4f 74 58 bd ce 30 9f bd
       -0.0874558 0.05115285 -0.052845296 -0.07772981
000210 3e 68 4b 3d fd be 7b 3c c1 c9 43 3d bf 70 8d bd
       0.04965996 0.015365359 0.04779983 -0.0690627
000220 7a 46 11 3d 74 b8 a4 3d d0 6f b7 3c 09 ab ad bc
       0.035467602 0.08042994 0.022392184 -0.02119972
000230 99 56 cd 3c 38 b7 af 3d 16 b9 9a bd cd 78 ad 3d
       0.025065707 0.08579868 -0.075548336 0.084703065
000240 28 e1 9b bc f0 cf 8a bd b8 59 68 3c 48 21 87 3d
       -0.019028261 -0.06777942 0.014181547 0.06598145
000250 d8 4a 25 bd 18 15 03 bd 84 af f7 3b d4 da 40 bd
       -0.04035458 -0.03200254 0.007558765 -0.04708369
000260 b2 93 ad 3d 01 7c 14 bd a2 d1 34 bd d6 0e a9 bd
       0.08475436 -0.03625107 -0.044145234 -0.08254783
000270 a1 ef a5 bd b3 47 a0 bd 78 c0 bb bd 38 71 9b bb
       -0.08102346 -0.078261755 -0.0916757 -0.0047437213
000280 2a 6b 01 bc 00 ff db 3b ab c9 87 bc 01 b1 28 3c
       -0.007899085 0.006713748 -0.016575655 0.010296107
000290 a4 f2 72 bd e1 e1 78 3d af 84 9a 3d be 10 87 3d
       -0.05931343 0.06076229 0.07544839 0.0659499
0002a0 85 37 8c bd 6b 4e 35 bb f5 14 8a bd 07 57 6f 3d
       -0.06846527 -0.002766515 -0.067422785 0.058432605
0002b0 2a 11 29 bd 6d 8b 96 3d 9b 28 b4 bd f6 a9 e3 bb
       -0.041276135 0.07350812 -0.087968074 -0.006947751
0002c0 5c 74 82 3d ff c4 12 3c 38 dd b1 bd cb 05 91 3d
       0.0636985 0.0089581 -0.08684772 0.07081183
0002d0 47 c1 5a bd f3 da a0 bb 1a 78 80 3c 48 16 4e 3d
       -0.05340698 -0.0049089133 0.015682269 0.050314218
0002e0 d7 eb fc bc ec bd a8 bb 7d b4 a5 3d f5 20 6f 3c
       -0.030874176 -0.0051495936 0.08091066 0.01459526
0002f0 a7 26 4d bd 1f c1 78 3d 44 51 8f bc 64 96 1c 3d
       -0.05008569 0.06073105 -0.017494805 0.03822936
000300 01 30 48 3d a6 d1 e4 3c 02 90 1a 3d d6 f3 37 3d
       0.048873905 0.027932 0.037734993 0.044910274
000310 bc e1 96 3d c7 72 a4 bd b0 dd 8f 3d f5 1f a5 3d
       0.07367274 -0.080297045 0.070247054 0.08062736
000320 bb 09 65 3d 26 b4 9e 3d f3 8d bd ba 37 f1 06 3d
       0.055917483 0.07749204 -0.001446186 0.032944884
000330 ec 31 a2 3c ea 1a 99 3d db 7e 9b 3c e9 1f b7 bc
       0.019799195 0.074758366 0.018981388 -0.022354083
000340 70 87 d0 3c a5 b7 a5 3d 65 3a 80 bd e5 c9 e7 bb
       0.025455207 0.08091668 -0.06261138 -0.0070736283
000350 d3 98 dc bc 58 81 a3 3d 0e d9 a2 bd ec 67 04 3d
       -0.026928341 0.07983655 -0.07951556 0.03232567
000360 bc c1 5a bc 50 5e 9f bc 13 c6 3b 3c 00 1e c0 3c
       -0.013351854 -0.019454151 0.011460799 0.023451805
000370 eb bf 77 3d 7c a3 37 3c 20 e7 9a bd 27 68 85 3d
       0.06048576 0.011208411 -0.07563615 0.06514006
000380 fd 47 12 bd a5 b5 6c 3c de 93 a3 bc a9 eb 0c bd
       -0.035713185 0.014447604 -0.01996797 -0.03440443
000390 5b ff 88 bc 9d b5 52 bd 70 46 a3 bd c5 bc 79 3d
       -0.016723325 -0.05144273 -0.07972419 0.06097104
0003a0 f7 87 98 bd 8d cc 94 bd 00 d9 b5 bd 47 cb 14 3d
       -0.07447808 -0.072655775 -0.0887928 0.036326673
0003b0 68 40 bd 3c 51 37 af 3d 5b fe 2c 3d 2c ba a0 3d
       0.023102 0.08555473 0.04223476 0.078480095
0003c0 7a ee 4b bd f1 47 73 3d 4e 73 59 bc cd 7b bb 3b
       -0.049787976 0.05939478 -0.01327212 0.0057215453
0003d0 85 21 63 bd 05 d0 78 bd ca ea 0b 3c 8e 49 23 bd
       -0.05545189 -0.060745258 0.008539865 -0.03986507
0003e0 d8 7c 84 3d 61 42 82 3d 71 c9 5d 3b ba 9e 59 3d
       0.064691246 0.06360317 0.0033841992 0.05312989
0003f0 5f e9 a8 3c 2f eb 9a 3d bf d1 93 bd fb d0 58 3d
       0.020619093 0.07564389 -0.0721774 0.052933674

net.2.bias f4 [64]
000000 6f 57 fc bc aa 9e 69 3d 88 d6 25 3d c7 08 ab bd
       -0.03080341 0.05703608 0.040487796 -0.083512835
000010 56 62 9a bb 41 57 c9 3c 9d 69 3f 3d 5d 29 b2 3d
       -0.0047114296 0.024577739 0.04673158 0.08699296
000020 cd b6 34 3d ef 58 97 3c 68 a1 05 3d 4c 35 c2 bd
       0.044119645 0.018475024 0.032624632 -0.09482822
000030 f3 71 99 bc 00 a9 93 3c 71 f8 27 bc 43 42 76 3d
       -0.018731093 0.018024921 -0.010252104 0.060121786
000040 7e aa c0 bd 6d fa b1 bd 98 69 35 bd 09 5f 2b bd
       -0.09407519 -0.08690343 -0.044290155 -0.04183868
000050 11 4c c1 bc 5b 7b 4c bd f4 92 1c bd 44 9a e1 3c
       -0.023595842 -0.04992233 -0.038226083 0.02753938
000060 da 02 ee ba 9d 7d e8 3b b9 08 e2 bb 75 de 4b bd
       -0.0018158809 0.0070950524 -0.0068980125 -0.0497727
000070 42 cc 89 bc 51 e0 4f bd 1a 13 9c bd 6b 97 87 3d
       -0.01682103 -0.050751034 -0.07620831 0.066206776
000080 8c 39 c1 3d 0b cf dc 3c b1 a3 2f 3c 05 39 fc bc
       0.09434804 0.026954195 0.010720179 -0.030788908
000090 87 32 76 bd ca 44 8d bd 06 38 ab bd b2 6b 52 bd
       -0.06010678 -0.06897886 -0.08360295 -0.051372238
0000a0 86 80 0d bd 2f 3a 5a bd 0f 2a 56 bd 4c 5a fa 3c
       -0.034546398 -0.053278144 -0.052286204 0.030560635
0000b0 d2 e1 a8 bd c9 2a 69 bd ac fc c3 bd 84 b3 b7 bd
       -0.08246197 -0.05692557 -0.09569678 -0.08969787
0000c0 cb e8 16 3d d6 f3 b0 3d bd 50 8e bd 4b b2 7b bc
       0.036843102 0.08640258 -0.06948993 -0.015362333
0000d0 52 66 be 3d f0 65 8c bd e7 f5 69 3c 93 89 1f bd
       0.0929686 -0.068553805 0.014279819 -0.03894956
0000e0 0c c1 b3 bd d3 5f bd 3d ca 04 df 3b 83 6e 36 3d
       -0.08777055 0.09246793 0.006805991 0.044538986
0000f0 ba 24 5f bd c4 ce eb 3c da cb ad bc f1 29 bc bb
       -0.054478385 0.028785117 -0.021215368 -0.0057423045

net.4.weight f4 [1, 64]
000000 1b f7 ec bc 34 79 03 3c c0 27 c3 3d f6 65 cd bc
       -0.028926423 0.008024503 0.09529066 -0.025073033
000010 06 e0 c3 bc 94 24 e3 bd fb 0e 13 3d e9 1a ea 3d
       -0.023910534 -0.11090961 0.03590296 0.11430914
000020 8d 4a 84 bc b9 66 9c bd 8f 13 88 3d b7 3c d0 bd
       -0.01614883 -0.0763678 0.066443555 -0.101678304
000030 ef 98 f3 3d 05 a2 32 bb 65 54 a7 3d 6c 52 77 3d
       0.11894404 -0.0027257216 0.08170394 0.060381338
000040 37 db d2 3b cc 49 6d bd 6a 83 32 39 4d 9e 79 3d
       0.006434824 -0.057931706 0.00017024358 0.060941983
000050 54 2d 26 bc 2a a6 d7 b9 63 b4 09 3d 85 3b ab 3d
       -0.010142643 -0.00041131797 0.033619296 0.08360962
000060 8f 33 e4 3d 02 11 e5 bd ed 99 f5 3d 97 10 f7 3c
       0.111426465 -0.111848846 0.1199225 0.030159278
000070 f1 49 d6 3d 9f 09 6a bd 3b 8d d8 bd 05 a4 d8 bd
       0.10463322 -0.05713808 -0.105738126 -0.10578159
000080 2a 0c 28 3d 32 df 76 bc ca 3a 54 3d 78 5c da 3d
       0.041027226 -0.015067862 0.051813878 0.10662168
000090 fb 03 7d 3d 14 1c dc 3d 7d 80 17 bd 68 91 06 3e
       0.061771374 0.10747543 -0.03698777 0.13141406
0000a0 d0 2f 57 3d 51 3b 16 bd 40 8c 64 3d f4 3a 30 bd
       0.052535832 -0.036677662 0.055797815 -0.043024972
0000b0 5e 9e 51 bd 35 7a 23 3d 22 0a 6e bd 2e ac 8f bd
       -0.05117642 0.039911468 -0.058115132 -0.070152625
0000c0 8e 00 b2 3d d8 48 b0 3d 52 29 1a 3d b7 94 b1 3c
       0.08691512 0.08607644 0.037637062 0.021677358
0000d0 81 cb c2 3d d0 02 43 3d f5 d2 fb 3d ce 0f 8c bd
       0.095114715 0.047610104 0.12296096 -0.06838952
0000e0 e2 94 5a bd 6e ee 70 3d 1b a3 69 3d 2b 00 7e 3d
       -0.053364642 0.058821134 0.057040315 0.06201188
0000f0 bc d4 62 bd 17 88 37 3d 97 a8 05 3e 2b a3 ca bd
       -0.05537866 0.04480752 0.13052593 -0.09894403
