Results/SectionJ_SampleEfficiency_Ablation11/cidt_model_frac_50.pt (torch, 41625 bytes, 5 tensors)

net.0.weight f4 [128, 9]
00000000: 66f5 c0bc 25bf 2c3e 007d bdbd 9b32 04be
00000010: 0e5f 8f3e 5245 103e 681c 89be 1fe5 fc3d
00000020: 13ae f2bd 17ae a93e 3b9c 6ebe f718 dfbd
00000030: 92ea 2b3e 96fc e6bd 6ab6 86be e3a9 973e
00000040: 03f1 0ebe 9bc6 a7bd 1b27 f8bd f450 413e
00000050: 8316 ec3d ddf3 8e3e 2fa0 31bd eb1a 7dbe
00000060: 9c10 a03e 76fe 833e 2e34 193e df55 77bd
00000070: 8ff1 6ebe 8427 383d 3dcb 673e 8105 8e3d
00000080: b33e 6b3e 3002 733b 1805 48be 482a 6dbe
00000090: 11d7 3bbd 8a47 cdbd d3cd a8bd f76c f43d
000000a0: c2c9 e93d 1bdb 433e 2f91 afbd dbb1 2f3c
000000b0: fb0b 663e 8c14 433e 9cd4 88bd c2b4 65bd
000000c0: 38b9 8ebe f590 8fbe d24a 90bd d737 2d3e
000000d0: 2138 453e 0bf5 363e 880d 55be 9c4d 2d3e
000000e0: 1c75 013e d750 60be 3518 5bbe 5d89 8a3e
000000f0: ef76 653e 99cd 6ebe 15c3 38be cba6 14be
00000100: 9046 1bbe 5b43 053e 0c3e df3d 0808 07be
00000110: 9397 f9bc ae89 673e 94b8 a43d 53cd da3d
00000120: 9d6d 043e 09b3 b8bd 36ed 0e3e 7289 8dbe
00000130: d3ed 7dbe f2d7 9e3e 3043 463d fbc9 ae3d
00000140: 8bfd 90bd 2f85 27be c143 9c3e 0d2a 253e
00000150: 4d00 6d3e 689e 8abe 4ab9 93be 94e2 493e
00000160: 1bfd bcbd 3ff2 5ebd 142e 8c3e a244 5d3e
00000170: bfd6 8d3e 7fa5 19be f0d8 2a3e e02b e0bd
00000180: eae3 253e cc94 acbe e530 a73e 7895 45be
00000190: 02c3 033e 68c4 923c 8596 8cbd 8707 953e
000001a0: 4227 953d 9a82 ff3d b705 0ebe ea36 fe3d
000001b0: e535 8d3d d795 323c a744 57be 4419 313e
000001c0: ffe2 ed3d 2a51 85be 5d21 f3bd 67ef 94be
000001d0: 1619 85be bec9 83be 9aa1 953e 5909 f4bd
000001e0: 2c7f 483d a17f 85be fe1a 573e f086 743e
000001f0: 32d7 963b 4754 f23c 9856 86be 8da1 8dbd
00000200: 83a5 b3bc 4942 a7be b2f2 d93d de21 7dbe
00000210: bd5e 863e 2826 81be 1294 a2be a9a7 463d
00000220: c79b 493b 3a7c 94be 0251 133d b616 303e
00000230: f66b a1bd 086c 82be 8f6d 283e f391 2dbe
00000240: 78ab 8abe 1df0 363e 8252 1b3e 1d93 74bd
00000250: 9035 47be 4c63 a8bd 5f34 57be b64c 773e
00000260: caf0 0d3e 2e82 a7bd 9da1 8fbe 29b0 48bc
00000270: 5a41 a3be d1da 73bd cba1 6bbe b9f2 f23b
00000280: b55f 31be 6bf9 933e 909d 2abd 8813 7f3e
00000290: 877a 44be fe8c 8ebe 99cb a03e 078f 6fbe
000002a0: 1d2c 9c3d 834c 28be 72a1 8a3e bb6f ccbd
000002b0: 8cf5 6d3e d14d 76be ad02 4f3e f72e ebbd
000002c0: a4fc 713d 9520 8b3e 0e1f 6b3c 5778 27be
000002d0: 1a74 853e 05e1 96be 5256 ffbd 4109 76be
000002e0: 42d3 74be 5cbd 0bbe 7e3e 573d 761b f8bc
000002f0: 4e96 3dbd b52f 373e c68c 943e a607 443e
00000300: c0ec 1ebe 1b75 9b3e e75a 6dbe ab48 953d
00000310: 05db c63d a7a4 e63d 682d 963e e730 06be
00000320: 9429 e2bd d199 91be 6a32 5ebe 9be2 303d
00000330: 4e34 a23e 358d cabc c37f 0f3e d8aa d73d
00000340: a160 50be 0173 233a 65bf debb e58b 5a3e
00000350: b2b4 16bd 6f59 193e 8302 2a3e c594 083e
00000360: 1e8f 87be ed70 66be 3d02 9e3e fe4e 87be
00000370: 7a23 943e 6c93 abbe cc9e e0bc c8d3 bfbd
00000380: 7e25 97be 571c f83c f300 4c3e c28c 793e
00000390: 81cc 783e 5b4e 933e 2e70 7e3d dadd e3bd
000003a0: 5e86 b1bd 9d76 43be 20fa 35be 09be 833d
000003b0: 0f64 093e ca2c e5bd 9db1 41be bc1e 873d
000003c0: 47d8 b53d fe34 38be a701 803e 5e0e 6ebc
000003d0: 207e 4f3e 3a0e a13d f13f 1c3b cec8 76be
000003e0: f64a 0e3e 71cb 9a3e 45c5 843e 7ae6 1fbd
000003f0: a7f8 83be d848 cc3d e5be 9fbe 3682 b53c
-0.023554515 0.16869791 -0.092523575 -0.1290993 0.28002208 0.14088944 -0.26779485 0.12348389
-0.11849608 0.33140633 -0.23301785 -0.108934335 0.167887 -0.11278646 -0.26311046 0.296218
-0.13959126 -0.08192178 -0.12116834 0.18878537 0.11527731 0.27920428 -0.043365654 -0.247173
0.31262672 0.25780076 0.14961311 -0.060384627 -0.23334335 0.04495956 0.22636123 0.069346435
0.22973137 0.0037080161 -0.19533193 -0.2316066 -0.0458594 -0.100234106 -0.08242383 0.11934846
0.114154354 0.19126551 -0.085726134 0.010723556 0.22465508 0.19050807 -0.06681177 -0.056080587
-0.27875686 -0.2804028 -0.07045521 0.16915832 0.19259693 0.17866914 -0.20805943 0.16924137
0.1264233 -0.21905838 -0.21395953 0.27057925 0.22408651 -0.23320617 -0.18043168 -0.14516751
-0.15163636 0.13013975 0.109005064 -0.13186657 -0.030467784 0.22611114 0.08043018 0.10683694
0.12932439 -0.09018523 0.13957676 -0.27643925 -0.24797754 0.31024128 0.04840392 0.085346185
-0.070796095 -0.163594 0.30520442 0.16129322 0.23144646 -0.2707398 -0.28852302 0.19715339
-0.092279635 -0.054430243 0.27378905 0.21608213 0.277029 -0.15004538 0.16684318 -0.109458685
0.16200224 -0.33707273 0.3265449 -0.19295299 0.12867358 0.01791592 -0.06864647 0.29107305
0.072828785 0.12476082 -0.13869368 0.12412818 0.06895045 0.010899982 -0.21022283 0.17294794
0.11615562 -0.26038486 -0.11871598 -0.290889 -0.25995702 -0.25739855 0.29224855 -0.119158454
0.048949406 -0.26073936 0.2100639 0.238796 0.00460329 0.029581202 -0.2623794 -0.06915579
-0.021929508 -0.3266776 0.106419936 -0.2471995 0.26244155 -0.25224423 -0.31753594 0.048499737
0.0030763017 -0.29001027 0.035965927 0.17196164 -0.0788192 -0.25473046 0.16448043 -0.16950206
-0.27083945 0.17865033 0.15168193 -0.05971061 -0.19454026 -0.082220644 -0.21016072 0.24150357
0.13861385 -0.08179127 -0.2805299 -0.012249031 -0.31885797 -0.05953485 -0.23010938 0.0074141887
-0.17321666 0.28901228 -0.04165417 0.24909794 -0.19187365 -0.27841944 0.31405333 -0.23394404
0.076256014 -0.16435437 0.27076298 -0.099822484 0.232382 -0.24053122 0.20215864 -0.11483567
0.059078828 0.27173296 0.014350666 -0.163545 0.2606514 -0.2946855 -0.12467636 -0.24026968
-0.23908713 -0.13646454 0.05254983 -0.030286532 -0.04628592 0.17889293 0.29013652 0.19143543
-0.1552 0.30362782 -0.23179208 0.07289251 0.097097434 0.11261874 0.29331517 -0.13104592
-0.11043087 -0.28437665 -0.21698919 0.043184858 0.3168053 -0.024725536 0.14013581 0.10530633
-0.20349361 0.00062350935 -0.0067977183 0.21342428 -0.03679342 0.14975522 0.1660252 0.13338001
-0.26476377 -0.22504015 0.30861083 -0.26427454 0.28933316 -0.3351091 -0.02741947 -0.09366566
-0.29520792 0.030286951 0.19922237 0.24370101 0.24296762 0.28770718 0.0621187 -0.11126299
-0.08668207 -0.19088216 -0.17771196 0.06432731 0.13417076 -0.111901835 -0.1891541 0.06597659
0.08879142 -0.17988965 0.2500126 -0.014529793 0.20262957 0.078640416 0.0023841823 -0.24100038
0.13895783 0.30233338 0.25931755 -0.03903816 -0.25775644 0.09974831 -0.31200328 0.022156816

net.0.bias f4 [128]
00000000: c073 4a3d f260 143e 7e5d 87be b3df 833e
00000010: b45a 393e 07e0 933e 0f9c ba3d dd2f 32be
00000020: 2699 71be 8c45 bc3d bda6 9ebe 8489 2dbd
00000030: 4744 bd3d bef0 cb3d 4e74 0cbe be2c 993d
00000040: 1863 213e 13df 493d 2c33 62be c908 26be
00000050: 5dec 52be d130 8abd f011 7bbd c5d1 5bbe
00000060: 6fdd 683e 733f 81be fe9d 00be 92a1 243e
00000070: ba2f cb3b ae32 d1bd 24be 7f3d d2e7 083e
00000080: c044 823d 96f8 a4be 23a7 9abe cd4a 163d
00000090: 6c10 f43d 50c3 9c3e 8287 183e 6cde a3bd
000000a0: 6073 87bd ba89 edbd 43e1 163c 9006 ec3d
000000b0: 1788 383a ce66 77be 53d9 a1be f599 a33e
000000c0: 4519 57bd e592 89be f6da 953d 60cc 53be
000000d0: 61d1 813e a81b 863e 7812 dabd 5514 77be
000000e0: f708 93bd f91b 9a3e b461 95be 48e3 6f3e
000000f0: e0ea 613e d20c 29be 4eb0 5d3e 33a9 b0bd
00000100: c0ba 6dbd cc14 373e fb41 31be 901d c83c
00000110: 656c 1bbe b49c 8a3e 098e 943e 1c2c 56be
00000120: 9d19 90bb 8ba3 d1bd 88a3 b73d 4d61 083e
00000130: bd00 1abe 5c75 d53d 89bc 8c3e 9d47 5dbd
00000140: b9a7 8ebd abc8 6abe cf31 6dbd 7acf 34bd
00000150: a35a 393e 0950 b93d e0e2 173e bc84 4d3e
00000160: 45ec 203c 056d c03c c6d8 6dbd f262 88be
00000170: 38f9 a4be e8f5 96bd 093e d33d f69a 2cbe
00000180: 26a6 76be 7e4b e6bd 51b5 3fbc 1b9f e2bd
00000190: 8fee 0c3e 157b 9f3e 7127 ff3d 8ad1 85bd
000001a0: 6643 383e 579b 883e 1b7a d03d 6169 8d3e
000001b0: 9be6 c73c 511f 09be dd9e ea3d 11db 313e
000001c0: 8f1b 17be 1ecb 7dbd b471 7fbe 6d75 893e
000001d0: b2a1 4fbd 58a0 413e a9b7 1ebd 1d08 1a3e
000001e0: 6813 72be dec8 3e3e 5e4b 9b3d 1664 9bbe
000001f0: ca41 57bd 917e b2bd 68c9 f53d 838e 9e3e
0.049426794 0.14490107 -0.26438516 0.25756606 0.18101007 0.28881857 0.09111797 -0.17401071
-0.23593578 0.091929525 -0.30986586 -0.042367473 0.092415385 0.09958027 -0.13716242 0.07479237
0.15760458 0.049285006 -0.22089833 -0.16214289 -0.20597978 -0.06747592 -0.061296403 -0.2146674
0.2274072 -0.2524372 -0.12560269 0.16077259 0.006200758 -0.102147445 0.06243719 0.13369682
0.06360769 -0.32220906 -0.3020564 0.03669243 0.11917195 0.30617762 0.14895442 -0.08001408
-0.06613803 -0.11598535 0.00920898 0.11524689 0.0007039322 -0.2416031 -0.31611118 0.31953397
-0.052514333 -0.26869884 0.07317154 -0.20683432 0.25355056 0.26192975 -0.10648054 -0.2412885
-0.07179444 0.30099466 -0.29176104 0.23426545 0.22062254 -0.16508797 0.21649286 -0.08626022
-0.058039427 0.17879027 -0.17310326 0.024428159 -0.15178068 0.2707268 0.29014614 -0.20915264
-0.0043975846 -0.102362715 0.08966738 0.13318367 -0.15039344 0.10422775 0.2748759 -0.054023374
-0.06965584 -0.22928111 -0.05790883 -0.044143178 0.18100981 0.090484686 0.1483264 0.20070165
0.009821956 0.023489485 -0.05806806 -0.2663799 -0.3222139 -0.07371122 0.10314567 -0.16855988
-0.24086818 -0.11244868 -0.011700944 -0.11065503 0.13762878 0.31148592 0.12458695 -0.06534107
0.1799446 0.26681015 0.1017954 0.2761946 0.024401953 -0.13390853 0.11456082 0.17368723
-0.14756607 -0.061961286 -0.24945718 0.268474 -0.050691314 0.18908823 -0.03874937 0.15042157
-0.23640215 0.18631312 0.075827345 -0.30349797 -0.052552976 -0.08715547 0.12001306 0.30968103

net.2.weight f4 [64, 128]
00000000: 273b 85bc 5260 a8bc 35db 553d 1ecb 9dbc
00000010: 21e0 843b 15ea 883c d532 3fbd 5154 b0bd
00000020: f506 8f3d f90d e43c f5d8 dcbc edaf 12bd
00000030: ae95 043d c6ba 4dbd 7687 3a3d 3374 5d3d
00000040: 2fbf 9bbd 9e03 3bbc 20bf b4bd 83d6 213c
00000050: 291d 7cbd 9d2b 8dbd 045c c4bd c0f6 5d3d
00000060: a309 85bd daf2 343d b433 cb3c 1116 8b3d
00000070: 0697 6f3d b7e4 9b3b 7c84 74bd acc6 5e3d
00000080: 304c 6c3c 4902 393b 2279 d7bc 9e3f 613d
00000090: 956c 3d3d 2e18 8dbd 820d 87bd 48bf 53bd
000000a0: 5c4c 76bc 7491 40bd 11a4 853d f233 84bd
000000b0: bcaf 28bd 52cb 843d ddeb b9bb 92e0 44bc
000000c0: dfdf f8bc 4991 c2bc b0b8 37bd b9bd 2dbd
000000d0: c5af 793d 6912 b8bb e5b7 4e3d 35d3 8ebc
000000e0: ff13 bebd 3e56 1f3d f87e 7c3c 7c3f 933d
000000f0: 1098 3a3d 9698 073d 220a c53c e3ff 943c
00000100: 051c e43c eff5 afbd 3bcd 183d 14e3 343d
00000110: 804d 7e3d db8d 24bd 6243 87bc a764 8bbd
00000120: 3780 893d bcf2 07bc f822 ff3c aa83 803b
00000130: 447b 893d 9898 e93b 4c8f 5a3d 2db3 913d
00000140: e6b0 b93c dbe9 ec3c 3498 743d 4a65 4fbc
00000150: 9cf2 0b3d 33f7 51bd 9224 a2bc c7aa a0bd
00000160: fd60 95bd ca61 60bd c2ab 533d 5dc5 90bc
00000170: 3263 663d 5575 d63c 110c cebd 8fb3 8d3d
00000180: f2d7 7fbd 98d8 acbd 1749 afbd abfb 913d
00000190: 8c41 a4bd b558 a1bc 3d58 4a3c 5a24 8ebd
000001a0: dc0f bdbd d17f fb39 92b5 5bbd 731b a1bd
000001b0: 2bd0 473d 28c7 8d3c 484d 45bd b1f5 17bc
000001c0: 4e38 b4bc 29b7 29bd 72f4 95bd b228 83bd
000001d0: f48b e8bc 294a c4bc f8d2 6e3d 70ca 863d
000001e0: 7ef2 913c 20fa 00bd 797b 03bd d002 c6bd
000001f0: 7db8 873d d698 a7bd 4f18 d0bd abeb 123d
00000200: d061 66bd 1a5b 29bd 7757 c8bb 4331 963c
00000210: 1334 bb3b 6748 adbd cb47 853d 47f2 323d
00000220: f492 9fbd 65bd 30b9 6f63 75bd 2427 dd3c
00000230: 38a6 9dbd 55e0 1bbd 3e33 acbd bba8 573d
00000240: a8eb a1bd 04de 16bd 7917 a7bd 14a9 6039
00000250: b1c8 493d 23b7 2dbd f0e6 11bd f61f 493d
00000260: 938e 233d 8186 8e3c 777b adbc 07e2 88bd
00000270: e82a 163c feb7 273d 42f7 94bc 5cfc 863d
00000280: 48f0 1cbd 527e 0abd 3e8e 8d3d 7996 d03c
00000290: d8c4 9abd 6080 5bbd acea 54bd 88d4 963c
000002a0: 97e1 6e3d 7bb7 68bc 1298 fdbc adfa 57bd
000002b0: 93a6 483d 9190 bf3c 5ca7 06bc 73ae 843d
000002c0: dad3 233d de75 963d 3e4e a8bd f809 633d
000002d0: 7140 923d 9929 333c 55b2 a9bd 85f8 96bd
000002e0: 951f b2bd b1a8 10bd d73b 80bc e8fa 34bd
000002f0: 0cc2 c5bd 9f45 fbbc fd3d 033d c817 7a3d
00000300: fc7d b73c 6a62 b9bd 805f d9bc 85af bdbd
00000310: 32f5 4f3d c2f0 3c3c 6ac6 1f3d 9fb5 a7bc
00000320: f89b afbd de7f 7fbd 88f0 a1bc 1bfc 43bd
00000330: b8db 97bd dc12 8b3d 0657 82bc d771 5fbc
00000340: 5f00 413c 7c88 0d3d 5b3f bb3c 0a46 13bd
00000350: 0689 adbd d06b 94bd 331c 5f3d d7b0 27bd
00000360: 3171 93bd cc1b bdbd b5b8 d33c 8118 7bbd
00000370: ce87 4dbd 75a6 1ebd 34d8 a9bd 0b25 a0bd
00000380: 1fc9 ccba e663 90bd 457c 7fbd 659f 20bd
00000390: fde0 b7bc 6a23 bebd 3e9c 5fbd 2385 0ebd
000003a0: 82e7 a0bd ccda a03d e921 493c 64ee 98bc
000003b0: 8c14 04bd 61e7 903d de7f f43c 90b4 a3bd
000003c0: 2138 babc 24d7 073a e768 5b3d 278c bdbd
000003d0: a757 6fbc 5956 d3bb 45c5 9b3a 6b1e 3b3c
000003e0: 6d3e 4abc e9c5 50bc 9ba7 eebc 5370 18bc
000003f0: 1057 063d edc8 a03d 7564 a1bd aa06 c9bc
-0.016263558 -0.020553742 0.052211005 -0.019261893 0.0040550386 0.016713182 -0.046679337 -0.08609832
0.06983749 0.027838694 -0.026958922 -0.035812307 0.03236931 -0.05022695 0.045539342 0.054065894
-0.07604825 -0.011414437 -0.08825517 0.009877804 -0.061551247 -0.06893084 -0.09587863 0.054190397
-0.06495979 0.044176914 0.024804927 0.06791318 0.058493637 0.0047574895 -0.05969666 0.054388687
0.014422461 0.0028230122 -0.026302878 0.05499231 0.04624613 -0.068893775 -0.06594373 -0.051696092
-0.015032854 -0.047013715 0.06525434 -0.0645522 -0.04118322 0.06484093 -0.005673869 -0.012016432
-0.030380188 -0.023750918 -0.044853866 -0.04241726 0.060958643 -0.005617429 0.050468344 -0.017434696
-0.09281158 0.038900606 0.015411131 0.07189843 0.045555174 0.0331045 0.024052683 0.018188423
0.027845392 -0.0859183 0.037305098 0.04416187 0.06208563 -0.040174346 -0.016511623 -0.06806307
0.06713908 -0.0082976185 0.031144604 0.0039219456 0.06712964 0.0071287863 0.053359315 0.07114253
0.02266736 0.028920105 0.059715465 -0.012658427 0.034166917 -0.05126114 -0.019792829 -0.07845073
-0.0729389 -0.05478076 0.051677473 -0.017672235 0.056246944 0.026178995 -0.10060895 0.06919014
-0.0624618 -0.084397495 -0.08558863 0.0712808 -0.080203146 -0.01969562 0.012350139 -0.06940527
-0.092315406 0.0004796968 -0.053639956 -0.07866564 0.04878251 0.01730688 -0.048169404 -0.009274886
-0.021999504 -0.04143444 -0.07322015 -0.064042464 -0.028387047 -0.023961144 0.058306664 0.06581581
0.017815825 -0.031488538 -0.032100175 -0.09668505 0.06626985 -0.08183448 -0.101608865 0.03586928
-0.056245625 -0.041346647 -0.0061139422 0.018334037 0.005712995 -0.08461075 0.06507834 0.043688085
-0.07791701 -0.00016855223 -0.05990928 0.026996203 -0.07697719 -0.038055737 -0.08408211 0.05265115
-0.07906276 -0.036832824 -0.08158774 0.00021425291 0.04926366 -0.04241098 -0.03562063 0.049102746
0.03993089 0.01739812 -0.021177037 -0.06683736 0.009165503 0.040946953 -0.018184308 0.065911025
-0.038315088 -0.033811875 0.06911896 0.025462376 -0.07557076 -0.053589225 -0.051981613 0.01841189
0.058320608 -0.014203901 -0.030956302 -0.052729297 0.048986983 0.023384364 -0.0082186125 0.06478586
0.03999696 0.073467 -0.082180485 0.05542943 0.071411975 0.010935211 -0.08285967 -0.0737162
-0.0869743 -0.035317127 -0.015653534 -0.044184595 -0.09656152 -0.030672846 0.03204154 0.061057836
0.022398941 -0.09051974 -0.026534796 -0.09261993 0.050770946 0.0115320105 0.03900758 -0.020472346
-0.085746706 -0.062377803 -0.019768015 -0.04784785 -0.07414955 0.067907065 -0.015910637 -0.013637981
0.011779874 0.03455399 0.022857359 -0.035955466 -0.08473401 -0.07247126 0.054470252 -0.040940132
-0.07199324 -0.092338175 0.025844911 -0.061302666 -0.05017834 -0.038732965 -0.082931906 -0.078195654
-0.0015623904 -0.07050304 -0.062374372 -0.03921451 -0.02244615 -0.092840984 -0.054592364 -0.034794938
-0.078566566 0.07854232 0.012276151 -0.018668361 -0.032246158 0.07075382 0.029846128 -0.07993424
-0.022731842 0.00051819 0.05356684 -0.092552476 -0.0146083 -0.0064495024 0.0011884352 0.011420826
-0.012343985 -0.012742498 -0.029132655 -0.009304124 0.032797873 0.078508236 -0.07880489 -0.02453931

net.2.bias f4 [64]
00000000: bdf2 b4bd a7ea 9a3d 2cfc 4ebd 2e1b 60bd
00000010: 55d9 91bd 1e4f 823d 3e87 2ebd 8f24 903d
00000020: d831 613d 597c fabc 318b d63c 2ca0 0f3c
00000030: 54e5 9b3c 0f4b 93bd 694e 393d a98c 6c3d
00000040: de43 aebc aea3 163d 47f0 603d f9df 763d
00000050: e15e bc3d 722c ccbc 1641 e2bb 0da4 7a3b
00000060: ac44 f93b 8510 003d 70d0 f63c cc62 1bbd
00000070: fc50 293c 44e1 48bb 6fa9 ff3c 7d6b 75bd
00000080: 8dfb 323d e76f 25bd ac85 853d 0b42 723d
00000090: cc62 763d e9f9 b3bd c6c0 223d eeee 26bd
000000a0: e27f 7fbd f673 b7bc 6e34 9dbd 3994 edbb
000000b0: 35fd 843d b9e0 9c3d 1e06 d33c fd9d e6bc
000000c0: 4907 fe3b 4eb2 8dbd 9b01 1e3d 0d6b a8bd
000000d0: e3f7 a03b 118a 56bd 5efe cd3c c75a 913c
000000e0: 41aa b2bb 3dc5 043d 7a51 56bd 8a49 08bd
000000f0: 73ac ccbc 285b 893d 2ae1 143d 02e0 133d
-0.08835361 0.07564288 -0.05053346 -0.05471342 -0.07121531 0.06362747 -0.042609446 0.07038223
0.054979175 -0.030576872 0.026189419 0.008766215 0.01903025 -0.07192051 0.045240793 0.05775133
-0.021272596 0.03677719 0.054916646 0.06027219 0.09197784 -0.024923537 -0.0069047315 0.0038244755
0.0076070633 0.031265754 0.030128688 -0.037936017 0.01033425 -0.0030651847 0.031208722 -0.059916962
0.04369693 -0.04038992 0.065196365 0.059145015 0.060152814 -0.08787901 0.039734624 -0.040755205
-0.062377818 -0.022394162 -0.07676016 -0.0072503355 0.06493608 0.0766005 0.025759753 -0.028151507
0.0077523333 -0.069187745 0.03857575 -0.08223543 0.004912363 -0.052377764 0.025145706 0.017743481
-0.0054524248 0.032414664 -0.052323796 -0.033273257 -0.024984574 0.0670684 0.036347546 0.036102302

net.4.weight f4 [1, 64]
00000000: 12a8 b4bd 3b51 a8bd 7669 b33c 9865 983d
00000010: 230e 5abd e050 e23d e8cd 92bd 9caa dabd
00000020: a1f6 bd3d ad6c d73d 90a0 083e 010f 27bd
00000030: 36fa 823d 14ab d93c 4e0d 65bd 9d84 023c
00000040: da0c 483d 70bf 943d 61d7 7b3d bfd1 cf3d
00000050: f3f6 bd3d f8c1 e03d 31a3 0ebd 2bfe dabd
00000060: dd31 9d3d 8873 81bd d94b 22bd ecec 7ebc
00000070: 25a3 74bd d545 953d 1cb1 c43c ec37 e43d
00000080: 51b9 7bbd 7f05 ae3c 2629 f13b 6001 ef3d
00000090: 0f57 d5bc e51c ed3b 63c5 c2bc 418c 093e
000000a0: 9881 993d 9bfc 803b 24ff c73c 1330 eb3b
000000b0: 7101 6dbd 218c b23d c207 22bd ff64 ae3d
000000c0: f498 a1bc ba4b 4bbd 48a4 3dbd c65b 8abc
000000d0: 7b97 ffbc 2a80 88bd 11b6 abbd 6b61 babc
000000e0: 5c09 39bd f7bc e03d b68e 52bb e017 b93d
000000f0: ebbc c9bd b400 afbc f01a d8bd 13d0 cbbd
-0.08821119 -0.082186185 0.021900874 0.074412525 -0.053236138 0.11050582 -0.0716818 -0.106770724
0.09275556 0.10518775 0.133425 -0.040785793 0.0639538 0.026570834 -0.05592089 0.007966188
0.04884038 0.07263076 0.0614847 0.10147428 0.092756175 0.109744966 -0.0348236 -0.1069301
0.07675526 -0.06320864 -0.039623115 -0.015559416 -0.0597259 0.0728871 0.024010234 0.11143479
-0.06145603 0.021242855 0.0073596416 0.11670184 -0.02604249 0.0072361105 -0.023775762 0.13432409
0.07495421 0.003936363 0.024413653 0.0071773618 -0.057862703 0.08718134 -0.03955818 0.08515357
-0.019726254 -0.049632765 -0.04629925 -0.016889464 -0.031200161 -0.0666507 -0.08384336 -0.02275153
-0.04517494 0.10973542 -0.003212852 0.09037757 -0.09850486 -0.02136264 -0.10552013 -0.099517964
