Results/SectionJ_SampleEfficiency_Ablation11/cidt_model_frac_25.pt (torch, 41625 bytes, 5 tensors)

net.0.weight f4 [128, 9]
0.1048403 0.29435897 -0.08383442 -0.22804895 0.29200488 0.058962237 -0.25610095 -0.060737517
0.08797826 0.046159793 0.13311094 -0.21983226 -0.024155185 -0.15077065 -0.13133428 0.27445495
0.1210958 0.13490622 0.09769625 0.077052124 -0.19506317 0.30344412 -0.27882338 -0.022397572
-0.1447845 0.18181688 0.17437002 0.10812696 -0.06699196 -0.2179855 0.12582752 0.08971849
-0.1608524 -0.3134298 -0.020866001 0.27923694 -0.25241688 -0.27753204 0.021674732 0.006317068
0.15777688 0.13174643 0.07469174 -0.17128578 0.14449275 -0.20516357 0.16533077 0.2997657
0.18945095 0.27059028 -0.03942008 -0.20969959 0.301307 -0.24515632 0.07499351 -0.033092212
-0.16556111 0.12981798 -0.14121264 0.05930606 0.3331192 -0.2659169 -0.2541524 0.2576184
0.20297194 -0.16639437 0.2684502 0.08924947 0.12173234 -0.30316263 0.16107167 -0.091769286
0.16480345 -0.1847876 -0.26526678 -0.041107412 -0.015563438 0.06389462 -0.09089335 -0.17446513
0.33483112 -0.24138172 -0.0887076 0.23792404 0.23310061 0.23393208 0.3034846 -0.055733886
0.083042674 0.024457397 0.25427443 0.21775442 0.24060066 -0.13298994 0.3301178 -0.18851371
0.07367597 -0.33906254 -0.21247809 -0.007241202 0.12013297 0.2947673 -0.16893859 0.085410915
-0.17583053 0.14369535 0.26711375 -0.09548141 0.14430274 0.30133963 -0.05047372 0.0029396594
-0.29083964 0.09327471 0.028063653 0.21254759 0.03990008 0.30863768 -0.090469085 -0.25863215
-0.30510047 0.27377397 -0.20240118 0.20557237 0.1772118 -0.32934263 0.30060259 0.2023599
0.13719437 0.019619334 0.27395064 -0.06085561 0.22446501 0.21296173 -0.07733733 0.30323827
-0.025684074 -0.14335993 0.27303392 -0.0051685357 0.0026643798 0.002901481 -0.2828817 0.20377168
0.27415207 -0.2127767 -0.070126176 0.08218098 -0.07216684 0.24130265 0.2715549 -0.22052239
-0.23601533 0.24487583 0.21485643 0.13695563 0.2506217 0.2686861 -0.040395685 -0.3452566
0.091428295 0.31065512 0.28807044 0.055780616 -0.00022562484 -0.17098865 0.040828038 -0.15846363
-0.11660073 -0.24314764 -0.10802608 -0.30155817 0.31110018 0.076281525 -0.1599392 -0.030633008
-0.17430712 -0.18977188 -0.25562367 0.18430877 -0.024713952 -0.18962052 0.1203342 0.112957425
-0.13039534 -0.27769038 0.21716554 0.094426915 0.05724821 0.1570752 -0.25145742 0.10454124
-0.13219668 -0.10297318 0.28357133 0.033164565 0.088282056 -0.05077587 -0.06675936 0.3092265
-0.26923993 -0.10981486 0.023614325 -0.21388039 -0.19527513 -0.10363014 -0.18926972 -0.13323715
0.17385152 -0.014412771 0.25413162 0.09198715 -0.06688873 0.1722797 0.023644798 0.15846501
-0.27361807 0.031010726 -0.068202645 -0.17271136 0.17942296 -0.030830901 -0.21112242 0.041843627
0.27051488 -0.26179314 -0.28526905 0.097998515 0.2868719 -0.062753625 -0.1322314 0.25981936
0.008946225 -0.12172445 0.31619856 -0.115413345 -0.06875557 0.26825857 -0.05758521 -0.27546936
-0.32939997 0.13320065 0.06590781 -0.031526484 -0.16970298 -0.07296061 0.20655459 0.045205563
-0.20594539 -0.19717607 -0.3087868 0.25622988 -0.038971428 -0.20348959 -0.033216834 0.0875358
00000000: 83b6 d63d 38b6 963e 61b1 abbd aa85 69be
00000010: aa81 953e 6382 713d aa1f 83be e7c7 78bd
00000020: f22d b43d 0d12 3d3d 3c4e 083e b51b 61be
00000030: 18e1 c5bc 9f63 1abe 7e7c 06be 5c85 8c3e
00000040: 1301 f83d db24 0a3e f914 c83d 81cd 9d3d
00000050: a4be 47be 075d 9b3e f0c1 8ebe 1d7b b7bc
00000060: 6342 14be 342e 3a3e 0e8e 323e ab71 dd3d
00000070: 1533 89bd 9737 5fbe eed8 003e 54be b73d
00000080: 7eb6 24be df79 a0be 2def aabc 25f8 8e3e
00000090: c93c 81be ae18 8ebe 358f b13c 68ff ce3b
000000a0: 4390 213e 89e8 063e fcf7 983d 8a65 2fbe
000000b0: e8f5 133e 6616 52be 784c 293e e47a 993e
000000c0: 6eff 413e cf8a 8a3e f376 21bd 7dbb 56be
000000d0: e944 9a3e 420a 7bbe 3396 993d b38b 07bd
000000e0: da88 29be 01ef 043e 0c9a 10be e9ea 723d
000000f0: 9a8e aa3e 4326 88be 4320 82be 8fe6 833e
00000100: e0d7 4f3e 4963 2abe 4e72 893e 6dc8 b63d
00000110: ce4e f93d 2238 9bbe f9ef 243e 89f1 bbbd
00000120: 3cc2 283e f638 3dbe 0cd1 87be 3f60 28bd
00000130: cafd 7ebc 2fdb 823d 4b26 babd fda6 32be
00000140: fc6e ab3e c52c 77be 55ac b5bd 5ca2 733e
00000150: edb1 6e3e e48b 6f3e 5562 9b3e 3749 64bd
00000160: 4712 aa3d e15a c83c 4230 823e 04fb 5e3e
00000170: 0560 763e 842e 08be 3305 a93e bd09 41be
00000180: 6de3 963d 9b99 adbe db93 59be 9b47 edbb
00000190: 4608 f63d bdeb 963e 3dfe 2cbe ebeb ae3d
000001a0: eb0c 34be e024 133e 22c3 883e c28b c3bd
000001b0: 19c4 133e 3049 9a3e 88bd 4ebd 4da7 403b
000001c0: efe8 94be d006 bf3d bfe5 e53c 13a6 593e
000001d0: 446e 233d c205 9e3e db47 b9bd 6f6b 84be
000001e0: 2136 9cbe 1a2c 8c3e 4142 4fbe 9081 523e
000001f0: 0377 353e 999f a8be 95e8 993e 6f37 4f3e
00000200: ae7c 0c3e bab8 a03c 4243 8c3e bb43 79bd
00000210: 28da 653e a412 5a3e 0963 9ebd 0c42 9b3e
00000220: 6867 d2bc f2cc 12be 1acb 8b3e d25c a9bb
00000230: e09c 2e3b c626 3e3b dfd5 90be 86a9 503e
00000240: a95d 8c3e 23e2 59be 509e 8fbd 804e a83d
00000250: 35cc 93bd 0b18 773e 3e09 8b3e 9fd0 61be
00000260: 01ae 71be bbc0 7a3e 5303 5c3e 193e 0c3e
00000270: 7d51 803e 3991 893e f275 25bd 79c5 b0be
00000280: c23e bb3d 300e 9f3e f87d 933e 377a 643d
00000290: b595 6cb9 a617 2fbe 4d3b 273d 4a44 22be
000002a0: 5dcc eebd b2fb 78be c73c ddbd d565 9abe
000002b0: 8648 9f3e 7d39 9c3d 1ac7 23be 13f2 fabc
000002c0: 917d 32be 8f53 42be 1be1 82be 70bb 3c3e
000002d0: ea74 cabc e22b 42be c771 f63d 3956 e73d
000002e0: 5b86 05be 6f2d 8ebe a560 5e3e e662 c13d
000002f0: 197d 6a3d 52d8 203e 07bf 80be b819 d63d
00000300: 915e 07be 9ae3 d2bd 4330 913e 91d7 073d
00000310: 39cd b43d 5cfa 4fbd 22b9 88bd f052 9e3e
00000320: d1d9 89be 9de6 e0bd d472 c13c 7603 5bbe
00000330: 34f6 47be 0a3c d4bd eccf 41be 526f 08be
00000340: 2206 323e 8b23 6cbc 8a1d 823e c263 bc3d
00000350: f5fc 88bd 176a 303e bcb2 c13c a744 223e
00000360: ab17 8cbe 350a fe3c d4ad 8bbd 3fdb 30be
00000370: a7ba 373e 1691 fcbc 7a30 58be 3964 2b3d
00000380: ed80 8a3e c009 86be c90e 92be 72b3 c83d
00000390: e0e0 923e f984 80bd ab67 07be 0b07 853e
000003a0: 3093 123c ab4a f9bd c7e4 a13e d55d ecbd
000003b0: b8cf 8cbd 3059 893e 78de 6bbd 520a 8dbe
000003c0: 1da7 a8be c065 083e adfa 863d ea21 01bd
000003d0: 9ec6 2dbe 5f6c 95bd 0c83 533e 7829 393d
000003e0: 59e3 52be 86e8 49be 4e19 9ebe 9030 833e
000003f0: 81a0 1fbd 935f 50be 600e 08bd f845 b33d

net.0.bias f4 [128]
0.17685233 0.30137902 0.16234912 -0.33082905 0.24607289 -0.08399736 0.2721363 -0.22706005
-0.062196374 0.0073200944 -0.029975215 0.22640145 -0.15195301 0.015612072 0.0141999265 0.07899652
0.113189906 0.16267143 -0.23375337 0.08755618 0.15020579 -0.0017445886 -0.033235673 0.31558892
-0.071333654 -0.12064473 -0.26842627 0.16450308 -0.12843762 -0.022693837 -0.14515662 -0.12732618
0.34312108 0.17475866 -0.17431825 -0.12465149 0.123900704 0.18722759 -0.004289601 -0.0008805632
-0.0061036563 0.27963907 -0.24237053 0.30874214 0.3078984 -0.33991617 -0.11794468 0.32869065
0.24758264 -0.033290103 0.12190394 -0.19801109 -0.23912463 -0.049257785 0.054852217 0.27283442
0.018369792 -0.087503254 0.1042891 0.08471253 -0.15717873 0.082635455 0.10651826 -0.12326638
-0.233832 0.2202141 0.023854231 -0.071823016 -0.24789986 0.24606267 0.20664771 -0.32654527
0.23604442 0.29383785 0.23396574 -0.015965287 -0.076900646 -0.144896 -0.18201894 0.03663636
-0.30995077 -0.07247278 0.02627625 -0.11248377 0.13507491 -0.0061472207 -0.021680437 -0.19796644
-0.278177 -0.30748865 0.11379939 0.020753557 0.17084765 -0.24683763 -0.30038244 -0.32885084
0.27253208 -0.28740293 0.2101042 -0.12390837 0.3366997 -0.12131713 -0.057482187 -0.28871167
0.008467644 0.2519381 -0.2411932 0.2458807 0.15300639 0.21580599 0.24813177 0.07982287
0.19341421 0.095424406 -0.056158647 -0.20291932 -0.13616337 0.13110559 0.11908929 0.2235307
-0.03177097 0.2964029 0.18733855 -0.29733047 0.17020911 -0.03609797 -0.17630374 -0.16832565
00000000: c718 353e 5a4e 9a3e d93e 263e 6d62 a9be
00000010: 88fa 7b3e cf06 acbd 7355 8b3e 6e82 68be
00000020: a0c1 7ebd 67dd ef3b 958e f5bc c8d5 673e
00000030: 9299 1bbe c7c9 7f3c cfa6 683c edc8 a13d
00000040: 1cd0 e73d 5793 263e 0b5d 6fbe a850 b33d
00000050: 8ccf 193e aeaa e4ba 2122 08bd df94 a13e
00000060: 6117 92bd 9614 f7bd 2b6f 89be 7f73 283e
00000070: 2785 03be 6de8 b9bc f0a3 14be cb61 02be
00000080: 91ad af3e eff3 323e 7c80 32be 4849 ffbd
00000090: a7bf fd3d 97b8 3f3e c88f 8cbb 99d5 66ba
000000a0: 2e01 c8bb da2c 8f3e fb2f 78be 7313 9e3e
000000b0: dca4 9d3e 7e09 aebe fb8c f1bd 244a a83e
000000c0: 4e86 7d3e 345b 08bd c6a8 f93d 6bc3 4abe
000000d0: 16dd 74be 88c2 49bd b8ac 603d f4b0 8b3e
000000e0: 3f7c 963c e834 b3bd 8695 d53d c37d ad3d
000000f0: 76f3 20be c73c a93d 3f26 da3d 1573 fcbd
00000100: a871 6fbe ce7f 613e f369 c33c f217 93bd
00000110: 76d9 7dbe daf7 7b3e 759b 533e f130 a7be
00000120: a1b5 713e ea71 963e b794 6f3e a2c9 82bc
00000130: 167e 9dbd 9e5f 14be 2c63 3abe 0210 163d
00000140: deb1 9ebe 9c6c 94bd 4a41 d73c e45d e6bd
00000150: 1451 0a3e a06e c9bb 2c9b b1bc b7b7 4abe
00000160: 376d 8ebe 276f 9dbe a80f e93d 5d03 aa3c
00000170: b0f2 2e3e 01c3 7cbe bacb 99be 235f a8be
00000180: 5389 8b3e 7a26 93be 8e25 573e acc3 fdbd
00000190: e763 ac3e 1e75 f8bd 7172 6bbd 04d2 93be
000001a0: e0bb 0a3c 08fe 803e 5afb 76be 26c8 7b3e
000001b0: b5ad 1c3e 3ffc 5c3e 4116 7e3e 2c7a a33d
000001c0: 600e 463e df6d c33d 9c06 66bd 15ca 4fbe
000001d0: 696e 0bbe 8b40 063e 16e5 f33d 3be5 643e
000001e0: 4722 02bd 1fc2 973e add5 3f3e b33b 98be
000001f0: 4c4b 2e3e 77db 13bd f888 34be 8f5d 2cbe

net.2.weight f4 [64, 128]
-0.094439566 0.02225058 0.060478922 0.066955976 -0.06696716 -0.075195864 -0.02163141 -0.027987286
0.05085923 -0.06294618 -0.005501328 0.06982642 0.007151267 -0.09544257 0.051194824 0.024723409
-0.0016849146 -0.037973724 0.0088468315 -0.056930207 -0.07945322 -0.09774356 0.040430855 0.017543137
0.043687437 -0.08154757 0.021411724 -0.050763488 0.050692733 -0.027185833 0.01223623 0.038106777
-0.10033564 -0.097732075 -0.042287193 -0.07143752 -0.04199065 -0.059571777 0.06029333 -0.02717445
0.07157082 -0.036576997 -0.022211147 -0.058956128 -0.021266326 0.023579402 -0.08162122 0.048000854
-0.048275445 0.036556803 -0.020153144 -0.02460498 -0.023932757 0.060226396 0.03856613 -0.059533916
0.06475857 -0.0014832361 -0.10102721 0.00964688 0.0482225 -0.04655703 -0.018928334 -0.08524692
-0.02902146 0.030729702 -0.040164154 -0.061519682 0.04380967 -0.08211353 0.047836684 -0.053535055
-0.022206543 -0.07117666 -0.097535744 -0.0007728886 -0.031534765 -0.038646825 0.010596541 0.051510204
-0.03508498 -0.055445164 0.008835478 -0.03313627 0.019342534 -0.095564276 -0.05914755 -0.10203113
0.0595685 0.052913293 0.008952195 0.050388124 -0.0048419 -0.037801497 -0.09773354 -0.062502295
-0.010719217 0.03680245 0.038426254 -0.09777766 -0.054875765 0.02874601 0.06919623 0.058305643
-0.02050758 0.06272389 0.030123966 0.060930725 -0.08262204 -0.059181795 0.05620902 -0.028792946
-0.059202034 -0.015578249 -0.026194971 0.029707484 -0.039428726 -0.093747064 0.045045804 -0.07601989
0.018343665 -0.015708875 0.015198319 -0.040913217 0.07354779 0.019817663 -0.04363892 -0.043627273
0.008113142 0.0030971759 0.04823548 0.063042395 -0.064909056 0.044568505 -0.002356079 -0.05698279
-0.07432683 0.08976779 0.07013267 0.05073946 0.061730146 0.006607173 0.033916093 0.0060814563
0.037421305 -0.032190654 0.06976844 -0.05702523 -0.06587423 0.0910524 -0.052163832 0.050918072
0.06720386 0.039057374 0.02332297 0.06332328 0.025011718 0.012228363 -0.03306325 0.050347827
0.079139255 -0.021570215 -0.061496746 0.04722102 -0.05231578 -0.005952854 0.050828643 0.041660283
0.08831105 0.06927816 -0.0550442 0.009413884 -0.05448446 -0.018971367 0.047458444 0.029182611
0.030671863 -0.02546681 0.07458802 0.0127188545 0.083074614 0.07120701 0.034578945 0.06911154
-0.050730187 0.034334503 0.101664044 0.09242445 -0.0033551718 -0.060768507 0.06946132 0.046843622
-0.06331557 0.054459974 0.050138924 -0.0058013494 -0.008048095 -0.05431118 -0.02665184 0.034301184
0.038562298 0.0512252 0.035284385 -0.015923075 -0.024063822 0.0920294 0.02429628 0.06630932
-0.017537791 0.042501897 -0.0648634 -0.008245554 0.000910891 0.023760445 -0.010916989 0.06130092
-0.00022618378 0.08226562 -0.0030161275 -0.03455708 -0.058584284 0.014644387 -0.0023882 0.10066065
0.04173024 0.056965172 -0.029716512 -0.0032174059 0.03510463 -0.037167106 -0.048776194 0.01654234
0.050674755 -0.018395074 0.017245475 0.025412602 0.07626004 0.047936793 0.09063115 -0.041272383
0.0509988 -0.022978865 -0.026977323 -0.03126138 -0.004514175 0.03139992 0.04385198 0.006926083
0.06183018 -0.03078059 0.09300025 -0.05925618 -0.023685291 0.10042937 -0.02929671 -0.0011394984
00000000: 8869 c1bd d946 b63c bfb8 773d 3720 893d
00000010: 1426 89bd 4a00 9abd 5b34 b1bc 9845 e5bc
00000020: c551 503d ede9 80bd 7c44 b4bb 2701 8f3d
00000030: 2d55 ea3b 6577 c3bd aab1 513d bf88 ca3c
00000040: 5ad8 dcba 568a 1bbd 4df2 103c a62f 69bd
00000050: 5fb8 a2bd c72d c8bd d39a 253d a0b6 8f3c
00000060: 99f1 323d 6a02 a7bd a467 af3c 60ed 4fbd
00000070: 2fa3 4f3d d3b4 debc 787a 483c da15 1c3d
00000080: c67c cdbd c127 c8bd 5635 2dbd d64d 92bd
00000090: 63fe 2bbd 8901 74bd 24f6 763d f49c debc
000000a0: b993 923d c3d1 15bd 27f4 b5bc fb7b 71bd
000000b0: b836 aebc 9729 c13c 0729 a7bd 8b9c 443d
000000c0: 79bc 45bd 96bc 153d 3518 a5bc 6290 c9bc
000000d0: a10e c4bc f4af 763d 85f7 1d3d d6d9 73bd
000000e0: 24a0 843d 2569 c2ba 5be7 cebd f30d 1e3c
000000f0: f584 453d 96b2 3ebd 980f 9bbc f095 aebd
00000100: 6abe edbc dbbc fb3c 2b83 24bd 10fc 7bbd
00000110: c571 333d 232b a8bd 66f0 433d 9347 5bbd
00000120: 7fea b5bc 12c5 91bd d2c0 c7bd ad9b 4aba
00000130: 992a 01bd 224c 1ebd 1d9d 2d3c 5dfc 523d
00000140: 45b5 0fbd 781a 63bd aec2 103c e6b9 07bd
00000150: 3c74 9e3c 34b7 c3bd b444 72bd b2f5 d0bd
00000160: 19fe 733d 9cbb 583d 3aac 123c c763 4e3d
00000170: cda8 9ebb bed5 1abd 8628 c8bd 3401 80bd
00000180: a89f 2fbc 2abe 163d d964 1d3d a73f c8bd
00000190: 69c5 60bd c17c eb3c c1b6 8d3d e6d1 6e3d
000001a0: 83ff a7bc 6275 803d 89c6 f63c 7f92 793d
000001b0: be35 a9bd 9c68 72bd 6e3b 663d 2fdf ebbc
000001c0: d57d 72bd e93b 7fbc d696 d6bc 1c5d f33c
000001d0: 0480 21bd 76fe bfbd f381 383d 51b0 9bbd
000001e0: 7445 963c e6af 80bc 5f02 793c 9e94 27bd
000001f0: 39a0 963d a758 a23c b9be 32bd 83b2 32bd
00000200: fcec 043c fdf9 4a3b 9192 453d 5f1c 813d
00000210: 0aef 84bd 778d 363d 7268 1abb c966 69bd
00000220: aa38 98bd 2dd8 b73d b8a1 8f3d 2ed4 4f3d
00000230: c0d8 7c3d fc80 d83b 9aeb 0a3d f446 c73b
00000240: 1547 193d 59da 03bd c2e2 8e3d 4a93 69bd
00000250: 11e9 86bd ae79 ba3d bea9 55bd 788f 503d
00000260: 2da2 893d a0fa 1f3d d00f bf3c a3af 813d
00000270: 60e5 cc3c 7959 483c 556d 07bd 8639 4e3d
00000280: c313 a23d 05b4 b0bc 03e4 7bbd d46a 413d
00000290: 1249 56bd 2910 c3bb b231 503d f9a3 2a3d
000002a0: 6cdc b43d b5e1 8d3d 0776 61bd b13c 1a3c
000002b0: 192b 5fbd d769 9bbc c963 423d 5f10 ef3c
000002c0: 8f43 fb3c c69f d0bc 9bc1 983d be62 503c
000002d0: 0623 aa3d fbd4 913d a7a2 0d3d 5a8a 8d3d
000002e0: 75ca 4fbd 56a2 0c3d 3d35 d03d 0849 bd3d
000002f0: 71e2 5bbb 66e8 78bd bd41 8e3d 19df 3f3d
00000300: 98ab 81bd 6c11 5f3d 795e 4d3d 3f19 bebb
00000310: 28dc 03bc 6675 5ebd f654 dabc 667f 0c3d
00000320: 80f3 1d3d 84d1 513d 5c86 103d 1c71 82bc
00000330: 7e21 c5bc e979 bc3d fe08 c73c 2ecd 873d
00000340: 6aab 8fbc 7816 2e3d 1ad7 84bd 5c18 07bc
00000350: dcc8 6e3a 44a5 c23c 2cdd 32bc ac16 7b3d
00000360: bf2b 6db9 e17a a83d 39aa 45bb ba8b 0dbd
00000370: 13f6 6fbd 03ef 6f3c 5983 1cbb 2c27 ce3d
00000380: 54ed 2a3d 5054 693d 0b70 f3bc 1ddb 52bb
00000390: dfc9 0f3d 893c 18bd 8cc9 47bd cd83 873c
000003a0: 5590 4f3d 44b1 96bc 6246 8d3c 172e d03c
000003b0: 392e 9c3d 5f59 443d d39c b93d 3b0d 29bd
000003c0: 1ee4 503d 2c3e bcbc 8cff dcbc ef0b 00bd
000003d0: a5eb 93bb 349d 003d 229e 333d 32f4 e23b
000003e0: a541 7d3d 9327 fcbc ea76 be3d 9cb6 72bd
000003f0: a807 c2bc eaad cd3d a7ff efbc 395b 95ba

net.2.bias f4 [64]
-0.019802265 -0.06627312 -0.04540805 -0.10135958 0.0498804 0.06966837 0.03615202 -0.040272
-0.040415794 -0.011515623 0.00031200526 0.028168429 0.060807377 -0.075712055 -0.008607347 -0.037725855
0.084900744 -0.021897217 0.020414336 -0.054180235 -0.0349423 -0.0964511 0.006236943 -0.012747662
0.035354555 0.015655564 -0.0055203442 -0.07095691 -0.038104333 -0.011404932 0.091926016 0.017326787
0.053646892 0.07145457 -0.07083518 -0.07604764 -0.012582889 -0.046940386 -0.0049804077 0.026200889
0.019740373 0.017292242 0.09974333 0.049990296 -0.022011403 -0.06657421 0.03859736 -0.04760514
-0.047293376 -0.0067684413 0.053148724 -0.02726024 0.09394402 0.009769562 0.02429432 0.023112912
-0.0021829791 0.030790944 -0.05628323 -0.010763812 0.018341986 0.0066380636 0.08425107 -0.042373776
00000000: 5c38 a2bc 34ba 87bd cbfd 39bd 9d95 cfbd
00000010: 644f 4c3d 4aae 8e3d 2414 143d 41f4 24bd
00000020: 088b 25bd 06ac 3cbc a394 a339 7ac1 e63c
00000030: 2811 793d ec0e 9bbd d405 0dbc 6d86 1abd
00000040: 71e0 ad3d cb61 b3bc f73b a73c 18ec 5dbd
00000050: a81f 0fbd 2888 c5bd 455f cc3b 92db 50bc
00000060: f0cf 103d 1940 803c 01e4 b4bb db51 91bd
00000070: 4a13 1cbd c0db 3abc b543 bc3d e8f0 8d3c
00000080: d8bc 5b3d c656 923d 0912 91bd ddbe 9bbd
00000090: 7628 4ebc 9044 40bd b032 a3bb 3fa3 d63c
000000a0: 90b6 a13c 76a8 8d3c 3b46 cc3d a0c2 4c3d
000000b0: 4251 b4bc 0f58 88bd 4418 1e3d 9bfd 42bd
000000c0: b3b6 41bd cdc9 ddbb 7ab2 593d de50 dfbc
000000d0: b965 c03d 8310 203c e204 c73c 4a57 bd3c
000000e0: 5010 0fbb 4a3d fc3c 3f89 66bd b35a 30bc
000000f0: ef41 963c 1d84 d93b d38b ac3d 2090 2dbd

net.4.weight f4 [1, 64]
-0.10391559 0.036334757 0.047528736 -0.015826328 0.040576383 0.09186023 -0.06466002 0.003358684
0.044815227 -0.0983234 -0.1057894 0.0082882475 -0.08713679 -0.016186502 0.04738532 0.037417345
0.086981915 0.05579304 0.10504742 0.135465 -0.051642377 -0.02946717 -0.022718195 -0.062879466
0.07111406 -0.044677865 -0.019463547 -0.027067352 -0.04593192 -0.027079472 0.0939983 0.001719531
0.086963356 -0.03566533 0.008206259 0.0045095063 -0.08700172 -0.0093736155 -0.034382686 0.08795077
-0.11174718 -0.076952934 0.08242921 0.007735412 -0.043086745 -0.012690977 0.052982643 -0.045652583
-0.060031146 -0.09209549 -0.065182135 -0.0011908994 0.039143402 0.09220564 0.072530895 0.041466538
0.057001624 -0.07797249 -0.06886128 -0.08197164 0.13506155 -0.076221064 0.046267763 0.03614439
00000000: b2d1 d4bd c1d3 143d 7ead 423d 37a6 81bc
00000010: 6c33 263d 3721 bc3d 796c 84bd 5e1d 5c3b
00000020: 2c90 373d c75d c9bd 1da8 d8bd 6ecb 073c
00000030: c674 b2bd 8e99 84bc 1c17 423d ee42 193d
00000040: 9323 b23d 3e87 643d 1a23 d73d 56b7 0a3e
00000050: f586 53bd 2265 f1bc 821b babc f3c6 80bd
00000060: 40a4 913d 2300 37bd 0472 9fbc 5abc ddbc
00000070: 1c23 3cbd c5d5 ddbc 2e82 c03d e361 e13a
00000080: d819 b23d cf15 12bd 8c73 063c 7bc4 933b
00000090: f52d b2bd cb93 19bc dcd4 0cbd 891f b43d
000000a0: b5db e4bd 8099 9dbd a5d0 a83d 5779 fd3b
000000b0: ba7b 30bd d1ed 4fbc 5404 593d 34fe 3abd
000000c0: 38e3 75bd 8f9c bcbd 367e 85bd f417 9cba
000000d0: d554 203d 50d6 bc3d 148b 943d d1d8 293d
000000e0: 897a 693d 0ab0 9fbd 2507 8dbd bfe0 a7bd
000000f0: 934d 0a3e ca19 9cbd 4483 3d3d 240c 143d
