Results/SectionE_GroupDRO_WorstGroup_Risk/group_dro_coarse.pt (torch, 41601 bytes, 5 tensors)

net.0.weight f4 [128, 9]
0.2584669 0.27944973 -0.09601181 0.31873333 -0.047337197 0.06048932 -0.1756974 0.21254358
0.302328 -0.2298017 0.29835045 0.058197968 0.22871928 0.063758686 0.1438508 -0.03153166
0.25008467 0.06342005 -0.15868643 0.074831136 -0.15996513 -0.0144784665 -0.14115424 0.22074497
-0.27677593 -0.16490175 -0.09189309 -0.21227558 0.027511919 -0.33776137 0.30622125 -0.28268912
0.27337176 0.034997474 -0.12073661 0.22045735 0.037456185 0.2499156 0.04781141 -0.10511983
0.07764424 -0.096905395 0.13173553 0.29250824 0.17616442 -0.13896362 0.16576326 0.075248644
0.18045339 -0.20615749 -0.3370807 -0.1317548 -0.2686053 0.2828979 0.07559611 0.13932203
0.11453294 0.0018299103 0.25107092 -0.221048 0.03483462 -0.21091445 0.11417845 -0.09086071
0.07645382 -0.0543056 0.29282278 -0.20316932 -0.20707098 -0.21046963 0.3119453 0.12061718
0.32531273 -0.29372206 -0.33885133 -0.26768577 -0.22894648 0.1558562 0.13175753 0.2936244
-0.18337344 -0.20318767 0.15566123 -0.13852243 0.18737528 -0.06294985 0.17660466 -0.2544481
-0.16109833 0.08606339 0.05375416 -0.08365473 0.18479165 0.20643327 -0.22400734 -0.16147713
0.29591492 -0.10115956 -0.11770126 -0.30659926 -0.1852411 0.07073726 -0.05958906 -0.2234202
0.03169956 -0.20408037 -0.2717786 -0.19819434 -0.29316 -0.22282337 0.32230943 0.07564851
0.102551945 -0.3094042 -0.2232343 -0.12586369 0.039752454 -0.27905118 -0.1265086 -0.18903247
0.014255351 -0.11480798 -0.045991924 -0.21094893 -0.21200457 -0.18071213 -0.11076326 -0.27683908
0.27941972 -0.04591645 0.2861184 0.1300625 -0.28502533 0.22057354 -0.10836477 -0.1274603
-0.2617152 -0.31599033 0.07948508 -0.08728397 0.11222987 -0.25635475 0.23135862 -0.22838739
-0.05768307 0.068665564 0.18650858 0.27441555 0.31662783 -0.27915812 0.104819976 -0.16066477
-0.023110978 -0.26296145 0.2884838 -0.26169965 0.18938689 0.13429865 0.12613933 -0.19624355
0.3177147 0.09023393 0.028767135 -0.31176317 0.15979025 -0.07187718 -0.16403666 0.2975336
0.07644831 -0.18387407 -0.16615452 -0.028885655 0.1880597 -0.09130143 -0.17206381 -0.12355286
-0.25456104 0.12974223 0.24298002 -0.29873925 0.06931194 0.17663749 0.07393384 -0.13220465
0.1858809 0.17840815 0.14280696 -0.06712871 -0.07307982 0.022347428 -0.042916354 -0.08164903
0.19646133 0.2701694 -0.01684592 -0.05779182 -0.011775352 -0.009099897 0.08844019 0.06565443
-0.28648478 -0.099395216 0.26651827 0.13407485 -0.032697417 -0.20258388 -0.20239788 -0.283063
-0.090285756 0.094327666 0.19616969 0.13814497 -0.2795091 -0.18822719 -0.03604866 0.31160825
0.044267602 -0.10934133 0.1609109 -0.12555708 -0.23015675 0.2621441 -0.16169941 -0.09522084
-0.3413178 0.2185467 0.25423828 0.11212494 -0.20094672 -0.33419722 -0.28130668 0.26705652
0.1681153 0.28629535 0.14323674 0.076901495 0.01896264 -0.26121625 -0.28957114 -0.3239261
0.15818898 -0.17070192 -0.072592996 -0.17574415 -0.07444396 -0.21873175 -0.20221409 0.094948195
-0.08131444 0.18958944 -0.08845073 -0.22807314 -0.058267508 -0.14747342 -0.09080937 -0.29690948
00000000: c655 843e 0914 8f3e d7a1 c4bd 0431 a33e
00000010: a6e4 41bd a6c3 773d 05ea 33be 06a5 593e
00000020: bcca 9a3e 2351 6bbe 64c1 983e fe60 6e3d
00000030: 6335 6a3e ea93 823d a04d 133e 5827 01bd
00000040: 190b 803e 5fe2 813d b27e 22be 1141 993d
00000050: e6cd 23be 1737 6dbc bd8a 10be f80a 623e
00000060: 93b5 8dbe 01dc 28be 7232 bcbd c55e 59be
00000070: ad60 e13c 0fef acbe 08c9 9c3e a1bc 90be
00000080: 62f7 8b3e 8359 0f3d c144 f7bd 92bf 613e
00000090: a86b 193d e0e9 7f3e e6d5 433d 1149 d7bd
000000a0: f103 9f3d 5676 c6bd aee5 063e a4c3 953e
000000b0: 7264 343e 7b4c 0ebe d8bd 293e f61b 9a3d
000000c0: c6c8 383e f31a 53be d795 acbe bbea 06be
000000d0: a286 89be fed7 903e 22d2 9a3d 6faa 0e3e
000000e0: 3f90 ea3d 9ad9 ef3a 5e8c 803e 685a 62be
000000f0: bfae 0e3d f5f9 57be 64d6 e93d 2e15 babd
00000100: d293 9c3d 8c6f 5ebd deec 953e 9e0b 50be
00000110: 6a0a 54be 5a85 57be 4bb7 9f3e 2406 f73d
00000120: 648f a63e bd62 96be ec7d adbe 1c0e 89be
00000130: f270 6abe c598 1f3e 72eb 063e f055 963e
00000140: 3fc6 3bbe 6e10 50be a865 1f3e d3d8 0dbe
00000150: 4edf 3f3e daeb 80bd dad7 343e 0547 82be
00000160: f6f6 24be 0142 b03d 522d 5c3d 2c53 abbd
00000170: 063a 3d3e 3e63 533e 2e62 65be 435a 25be
00000180: 2982 973e be2c cfbd 5c0d f1bd 94fa 9cbe
00000190: d8af 3dbe b2de 903d a813 74bd 44c8 64be
000001a0: 66d7 013d 72fa 50be 9126 8bbe 75f3 4abe
000001b0: 1119 96be cf2b 64be be05 a53e 9bed 9a3d
000001c0: c106 d23d 3a6a 9ebe 8897 64be 69e2 00be
000001d0: 78d3 223d ccdf 8ebe 788b 01be ba91 41be
000001e0: 478f 693c 7220 ebbd 0762 3cbd ff02 58be
000001f0: ba17 59be 9a0c 39be d9d7 e2bd dabd 8dbe
00000200: 1a10 8f3e e312 3cbd 1c7e 923e 1b2f 053e
00000210: d7ee 91be 08de 613e 59ee ddbd f484 02be
00000220: 89ff 85be 7cc9 a1be 13c9 a23d f0c1 b2bd
00000230: c6d8 e53d ee40 83be 46e9 6c3e 62de 69be
00000240: 1545 6cbd 88a0 8c3d 1bfc 3e3e 3280 8c3e
00000250: 0b1d a23e d0ed 8ebe dbab d63d 4e85 24be
00000260: 3c53 bdbc e2a2 86be 26b4 933e 7ffd 85be
00000270: a3ee 413e 9685 093e ab2a 013e 12f4 48be
00000280: 80ab a23e 91cc b83d 0ea9 eb3c 6c9f 9fbe
00000290: 0ea0 233e 5834 93bd 3af9 27be 5356 983e
000002a0: ee90 9c3d 7c49 3cbe 6924 2abe 9ca1 ecbc
000002b0: b992 403e 3efc babd 7f31 30be 4809 fdbd
000002c0: d355 82be 26db 043e c1cf 783e 5af4 98be
000002d0: 6bf3 8d3d 75e0 343e a06a 973d a860 07be
000002e0: 9057 3e3e a0b0 363e fd3b 123e c77a 89bd
000002f0: dfaa 95bd f411 b73c 0fc9 2fbd 9b37 a7bd
00000300: 292d 493e a553 8a3e 7400 8abc 1eb7 6cbd
00000310: 68ed 40bc bc17 15bc 2120 b53d d475 863d
00000320: 22ae 92be b88f cbbd 1575 883e eb4a 093e
00000330: baed 05bd 2672 4fbe 6441 4fbe a2ed 90be
00000340: bde7 b8bd dd2e c13d b5e0 483e e075 0d3e
00000350: d11b 8fbe a1be 40be c2a7 13bd 1e8b 9f3e
00000360: f251 353d 59ee dfbd d4c5 243e 0992 00be
00000370: 36ae 6bbe c037 863e 8894 25be 2503 c3bd
00000380: 35c1 aebe b5ca 5f3e 852b 823e c3a1 e53d
00000390: fac4 4dbe e61b abbe 6e07 90be a2bb 883e
000003a0: 6b26 2c3e 4e95 923e a7ac 123e 887e 9d3d
000003b0: 8a57 9b3c 23be 85be ab42 94be a4d9 a5be
000003c0: 4bfc 213e 7ccc 2ebe a3ab 94bd 46f6 33be
000003d0: 1376 98bd 37fb 5fbe 3611 4fbe 3374 c23d
000003e0: 2f88 a6bd bc23 423e a825 b5bd 018c 69be
000003f0: e9a9 6ebd 4603 17be 43fa b9bd 8504 98be

net.0.bias f4 [128]
0.11366094 0.053512014 -0.18588892 0.06385924 0.3050625 0.23602045 -0.2749865 0.3171696
0.03930027 0.13898836 0.2441364 0.27116224 -0.25869194 0.27592552 -0.22041517 0.008739083
-0.21983738 -0.058822054 -0.0008059702 -0.055950835 -0.03966934 0.010145353 0.32229814 0.17824472
0.19989818 0.1430891 0.27234903 -0.030956646 0.012539461 0.05337695 -0.30266538 -0.25697178
0.054733332 -0.1220077 -0.022109823 -0.063857846 0.06693106 0.20152187 -0.1265466 0.25731215
0.2788128 -0.24865453 -0.27217922 -0.2584948 -0.19788887 -0.14554219 -0.011325976 -0.07089213
-0.15805642 -0.11440824 -0.13339125 0.3395887 -0.11077655 -0.24004915 0.12520348 -0.03234666
0.2679203 0.22318697 0.2900958 -0.23107715 0.22873017 0.27814698 -0.15701075 0.31899565
0.26232043 0.017643673 0.17067339 -0.12937295 -0.30703995 0.0885647 0.11411926 -0.23556854
0.14594625 -0.29339483 0.27147752 0.33642858 0.1036947 -0.22446345 0.1768879 0.044949822
0.10549746 0.12113799 0.26699758 -0.15782002 -0.090030074 0.08520213 0.027101068 0.28296858
-0.1618347 -0.029325867 0.07589655 -0.1072626 0.20828477 0.048650008 -0.29944748 -0.022664791
-0.15682761 0.04630924 -0.042008933 -0.34557837 -0.07773006 -0.01917669 -0.08602925 0.29039
-0.086914994 0.21172364 0.094987705 -0.2704418 0.07591178 0.26004374 -0.23112626 -0.21249464
0.3252614 0.25295228 -0.17482786 0.21409085 -0.02960904 -0.31578103 0.006163741 0.089906245
-0.108988985 0.13188869 -0.27282476 0.21636364 0.29693392 0.19591977 0.04236512 0.09274413
00000000: 11c7 e83d 6a2f 5b3d aa59 3ebe a2c8 823d
00000010: 2731 9c3e 58af 713e 08cb 8cbe 0e64 a23e
00000020: 52f9 203d f752 0e3e e4fe 793e c7d5 8a3e
00000030: 4573 84be 1c46 8d3e 84b4 61be 5f2e 0f3c
00000040: 0d1d 61be 65ef 70bd bf47 53ba b42c 65bd
00000050: 517c 22bd b238 263c 4304 a53e c985 363e
00000060: 1cb2 4c3e f385 123e 5571 8b3e cb98 fdbc
00000070: 5072 4d3c caa1 5a3d f5f6 9abe ce91 83be
00000080: 0f30 603d 2cdf f9bd a91f b5bc e7c7 82bd
00000090: 2713 893d c05b 4e3e 6f95 01be 6bbe 833e
000000a0: 8dc0 8e3e 4b9f 7ebe 135b 8bbe 6e59 84be
000000b0: 61a3 4abe 0309 15be 9690 39bc e52f 91bd
000000c0: 8bd9 21be de4e eabd b797 08be 92de ad3e
000000d0: d1de e2bd 72cf 75be 5735 003e ee7d 04bd
000000e0: d92c 893e 208b 643e 7087 943e 7d9f 6cbe
000000f0: 3e38 6a3e 4869 8e3e 6dc7 20be 6653 a33e
00000100: dd4e 863e 7789 903c 01c5 2e3e 587a 04be
00000110: 5734 9dbe 6961 b53d 5cb7 e93d e138 71be
00000120: ef72 153e d937 96be 1aff 8a3e 5e40 ac3e
00000130: e35d d43d bfd9 65be 1a22 353e 4e1d 383d
00000140: 0d0f d83d 3217 f83d e8b3 883e 929b 21be
00000150: b061 b8bd 747e ae3d 0f03 de3c 42e1 903e
00000160: ffb7 25be cd3c f0bc a76f 9b3d 7eac dbbd
00000170: 9a48 553e 3b45 473d 2e51 99be 83ab b9bc
00000180: 6b97 20be c2ae 3d3d 8f11 2cbd a6ef b0be
00000190: f030 9fbd 6f18 9dbc 1a30 b0bd 00ae 943e
000001a0: 7d00 b2bd 15ce 583e ea88 c23d 5977 8abe
000001b0: a377 9b3d 7424 853e 5dac 6cbe 3298 59be
000001c0: aa88 a63e f682 813e 1306 33be a23a 5b3e
000001d0: a88e f2bc 0dae a1be 35f9 c93b c420 b83d
000001e0: 9e35 dfbd d40d 073e b0af 8bbe 6e8e 5d3e
000001f0: b907 983e 319f 483e 0c87 2d3d a2f0 bd3d

net.2.weight f4 [64, 128]
-0.07763972 -0.03488765 -0.01929023 -0.060332432 -0.07917785 0.047786098 0.04842292 -0.09312426
0.014211993 0.026818873 0.071029805 0.03935705 0.069442876 -0.040102333 0.04845013 0.060293466
-0.09565043 -0.08243125 0.0048386236 0.034902178 -0.05650004 -0.0012020204 -0.011400402 0.010979352
-0.060381148 0.03623533 0.045997776 -0.07273812 -0.012030128 -0.010751444 0.016188715 0.07292349
0.013270041 -0.02951977 0.069764756 -0.047484383 -0.03859645 -0.004546671 -0.076422624 -0.002899522
-0.07122923 -0.0043447786 -0.0055095465 -0.0013999653 -0.087542444 -0.0956451 0.028427405 0.062077917
-0.08968636 0.019137753 -0.076814175 -0.00607456 0.06897566 0.056207262 -0.07770218 0.0415072
0.034135308 -0.011995055 0.07223249 -0.046925865 -0.03347395 -0.057682317 0.0013393024 0.010196147
-0.0061521376 -0.0620994 -0.05267876 0.016593682 -0.090778835 -0.026202846 -0.0131354965 -0.046801142
0.018327905 -0.008148214 0.04839059 -0.0206203 -0.06928524 0.048923973 -0.0006783556 -0.036692683
-0.069524 0.00939855 -0.096532464 0.0101050595 0.032992363 -0.08878786 -0.067859665 -0.07576914
0.06032554 0.061238337 -0.008170929 0.069304936 -0.042721964 -0.09758964 0.019821083 0.017664155
0.07306952 -0.012450609 0.0557286 0.0473183 0.051250454 -0.09924834 0.060172915 -0.08755112
0.06733974 -0.016242236 -0.09073715 0.01124588 -0.03228192 -0.09267867 -0.04406116 -0.0006296325
0.05546715 -0.040356304 0.04139923 -0.0019035134 -0.009904955 0.005562321 -0.07205207 -0.08527827
-0.041062396 -0.094742924 -0.055603474 -0.009032587 -0.07058768 -0.049458038 -0.028562464 -0.02226273
-0.06192677 -0.009579813 -0.026189722 0.012760229 -0.0107852975 -0.05828488 -0.045340978 -0.015277505
-0.06832081 -0.006587141 -0.020685814 0.019651469 0.0052120523 0.05190954 -0.018306717 -0.07894914
0.024138182 -0.07353763 -0.026715212 -0.04261527 -0.047584485 -0.04710865 0.067185484 0.035624202
0.010031381 0.06844871 -0.09415283 0.00012919345 0.041546714 0.044379875 -0.08497108 0.0180573
-0.06388128 -0.0170819 -0.032668233 -0.08915298 -0.09832706 -0.07247006 0.025225786 0.026324118
-0.09114593 -0.047456447 -0.012774383 -0.08937185 0.035491377 0.06537404 0.0026388129 -0.07913235
0.00894404 0.017974308 0.056038003 -0.061345905 -0.09297773 0.024678597 -0.008774208 -0.04372831
-0.05017398 -0.059010692 0.05651415 -0.030477706 0.048749246 0.06351293 -0.002386958 0.0045170565
-0.020950703 0.04649887 -0.09471454 0.022221789 -0.02892595 0.02677644 -0.015124748 -0.046558812
-0.025083005 0.0311795 -0.076066 -0.06972892 -0.03362872 -0.04625944 0.01946821 0.045891847
-0.02313707 0.06980611 -0.05088589 -0.06498877 -0.05186205 -0.07467759 -0.0753113 -0.0926184
-0.09341682 0.008315557 0.038522497 0.06861461 0.060769375 -0.018610021 0.0032320379 -0.06666728
0.018937355 -0.09806374 0.027669787 0.0032193505 0.013396481 0.017729046 -0.05289224 0.06199544
0.028296769 0.043499433 -0.0029505691 0.04025594 0.04458119 0.024736445 0.052508686 -0.030031115
0.043251265 0.005599368 0.03806707 0.072409056 0.004696461 -0.045977604 -0.021469992 0.010148528
0.0013835598 -0.038944982 0.05716382 0.03853023 -0.06952475 -0.022478158 -0.021642912 -0.0688737
00000000: 9301 9fbd 5ae6 0ebd 8b06 9ebc 241f 77bd
00000010: ff27 a2bd 5bbb 433d 1d57 463d efb7 bebd
00000020: 6bd9 683c 41b3 db3c 1378 913d dc34 213d
00000030: 1138 8e3d 5842 24bd a573 463d 48f6 763d
00000040: 5fe4 c3bd b7d1 a8bd 518d 9e3b 96f5 0e3d
00000050: 966c 67bd 1d8d 9dba c0c8 3abc bde2 333c
00000060: 3952 77bd 7f6b 143d 2a68 3c3d b9f7 94bd
00000070: 041a 45bc d326 30bc 329e 843c e958 953d
00000080: 966a 593c 72d3 f1bc d3e0 8e3d fc7e 42bd
00000090: 5017 1ebd 3efc 94bb 7783 9cbd e805 3ebb
000000a0: a1e0 91bd a55e 8ebb 6d89 b4bb 0a7f b7ba
000000b0: 7449 b3bd 94e1 c3bd 97e0 e83c 6a45 7e3d
000000c0: 7bad b7bd c7c6 9c3c c050 9dbd 1a0d c7bb
000000d0: 1c43 8d3d 9639 663d 5222 9fbd 7403 2a3d
000000e0: 77d1 0b3d e886 44bc a1ee 933d 5635 40bd
000000f0: fb1b 09bd 4b44 6cbd 888b af3a bd0d 273c
00000100: df97 c9bb f15b 7ebd afc5 57bd 79ef 873c
00000110: 41ea b9bd 5aa7 d6bc 4436 57bc 8eb2 3fbd
00000120: 6724 963c 1680 05bc 3635 463d e7eb a8bc
00000130: 6be5 8dbd 8164 483d acd3 31ba 114b 16bd
00000140: 9962 8ebd 60fc 193c d0b2 c5bd b18f 253c
00000150: 0023 073d 69d6 b5bd 02fa 8abd da2c 9bbd
00000160: ea17 773d 0dd5 7a3d 5cdf 05bc bfef 8d3d
00000170: 3afd 2ebd 14dd c7bd d35f a23c 6bb4 903c
00000180: 79a5 953d a4fd 4bbc ac43 643d d5d0 413d
00000190: ffeb 513d b742 cbbd e077 763d 004e b3bd
000001a0: 6be9 893d 700e 85bc 66d4 b9bd a440 383c
000001b0: 0c3a 04bd 51ce bdbd 7a79 34bd ec0d 25ba
000001c0: 8631 633d a74c 25bd 3d92 293d 507f f9ba
000001d0: 6448 22bc 2144 b63b 0990 93bd 60a6 aebd
000001e0: 0b31 28bd 9408 c2bd 78c0 63bd 6afd 13bc
000001f0: 4690 90bd 8394 4abd d4fb e9bc 5460 b6bc
00000200: eda6 7dbd a6f4 1cbc d48b d6bc 4810 513c
00000210: d1b4 30bc 20bc 6ebd 76b7 39bd 804e 7abc
00000220: c8eb 8bbd f2d8 d7bb 4c75 a9bc 1efc a03c
00000230: ddc9 aa3b 199f 543d f8f7 95bc 16b0 a1bd
00000240: 70bd c53c e69a 96bd dcd9 dabc 598d 2ebd
00000250: f3e7 42bd 00f5 40bd 8b98 893d afea 113d
00000260: a95a 243c d62e 8c3d 33d3 c0bd 1a78 0739
00000270: e32c 2a3d acc7 353d 5105 aebd e7ec 933c
00000280: 30d4 82bd 57ef 8bbc 20cf 05bd d695 b6bd
00000290: b35f c9bd 2f6b 94bd 4fa6 ce3c ada5 d73c
000002a0: b8aa babd b161 42bd a54b 51bc 9708 b7bd
000002b0: 685f 113d d3e2 853d efef 2c3b 2410 a2bd
000002c0: 068a 123c db3e 933c 1b88 653d d845 7bbd
000002d0: 1c6b bebd c52a ca3c b2c1 0fbc 751c 33bd
000002e0: 3b83 4dbd 32b5 71bd 627b 673d 62ac f9bc
000002f0: 4aad 473d 1113 823d 836e 1cbb d103 943b
00000300: cfa0 abbc 9975 3e3d b2f9 c1bd 780a b63c
00000310: 1df6 ecbc 445a db3c cbcd 77bc 74b4 3ebd
00000320: e07a cdbc 276c ff3c 7ec8 9bbd 09ce 8ebd
00000330: 45be 09bd 8a7a 3dbd cc7b 9f3c 17f9 3b3d
00000340: f489 bdbc 81f6 8e3d b96d 50bd d518 85bd
00000350: 4d6d 54bd 90f0 98bd d03c 9abd b7ae bdbd
00000360: 5151 bfbd f93d 083c c4c9 1d3d d185 8c3d
00000370: 4fe9 783d 0b74 98bc 99d0 533b db88 88bd
00000380: 8322 9b3c a4d5 c8bd c0ab e23c bdfb 523b
00000390: ea7c 5b3c 813c 913c 89a5 58bd eeee 7d3d
000003a0: a0ce e73c 762c 323d 565e 41bb 6ae3 243d
000003b0: c49a 363d 16a4 ca3c 5913 573d d003 f6bc
000003c0: 3d28 313d e77a b73b 37ec 1b3d 334b 943d
000003d0: c5e4 993b 0353 3cbd d6e1 afbc 0346 263c
000003e0: 9058 b53a c684 1fbd 9c24 6a3d e0d1 1d3d
000003f0: fe62 8ebd 1d24 b8bc 7a4c b1bc a80d 8dbd

net.2.bias f4 [64]
-0.07080364 0.073220186 -0.022608096 0.019342203 0.06639246 0.0055579976 -0.06341623 -0.07564374
0.10123634 -0.068611056 -0.04335867 0.046057276 -0.05441317 0.09611863 -0.0033041562 0.016346117
0.027217686 -0.0027724223 0.036805958 -0.0898162 0.0055652135 -0.02554867 0.07014228 0.059352525
-0.02606132 0.06228177 -0.029028906 0.033090584 -0.010849158 -0.066969156 0.023345456 0.05784369
0.06524417 0.012877995 -0.026596647 0.037014633 0.018572945 0.09044051 0.023220139 0.061797857
0.02099807 -0.08063294 -0.06753023 0.09270875 0.093466535 0.041093994 -0.04879747 0.050848898
0.050795242 -0.05928422 0.03783424 0.09868205 -0.045326333 -0.005974603 0.03970218 -0.045052543
0.07259511 0.09316226 0.09775547 -0.066294886 0.019365715 0.057683785 0.062400308 -0.03376038
00000000: 8001 91bd 77f4 953d 9d34 b9bc 8a73 9e3c
00000010: c5f8 873d dd1f b63b 5ee0 81bd 1beb 9abd
00000020: 0055 cf3d f483 8cbd dc98 31bd 8ea6 3c3d
00000030: 58e0 5ebd d8d9 c43d 8b8a 58bb 4be8 853c
00000040: a0f7 de3c 87b1 35bb d8c1 163d 8ef1 b7bd
00000050: 655c b63b 724b d1bc c1a6 8f3d a21b 733d
00000060: 8d7e d5bc 2b1b 7f3d 07ce edbc fe89 073d
00000070: abc0 31bc 2027 89bd f83e bf3c 81ed 6c3d
00000080: bc9e 853d 3afe 523c 36e1 d9bc a89c 173d
00000090: 4a26 983c e038 b93d 2938 be3c c01f 7d3d
000000a0: 2504 ac3c e222 a5bd 4a4d 8abd 16de bd3d
000000b0: 626b bf3d 2d52 283d dbdf 47bd ef46 503d
000000c0: ac0e 503d 03d4 72bd 13f8 1a3d d119 ca3d
000000d0: 1ba8 39bd 9ac6 c3bb c19e 223d 0489 38bd
000000e0: bfac 943d dbcb be3d 0534 c83d 9dc5 87bd
000000f0: d9a4 9e3c d545 6c3d 7797 7f3d 5348 0abd

net.4.weight f4 [1, 64]
0.07033642 0.080070876 -0.016908672 0.07256336 0.059021134 -0.025643194 -0.06314226 -0.069198206
-0.10840524 -0.082446106 0.022846825 0.0316107 -0.04516299 -0.021910314 0.07529648 0.007842889
-0.094793946 0.09391846 0.06372052 0.0015420691 0.04697139 -0.11723055 0.06066472 0.017472798
-0.020342985 -0.0497795 0.087920144 0.014245073 -0.07940452 0.042224534 0.008661347 -0.054367244
0.07513901 0.11099822 -0.01563623 -0.0627159 -0.07386243 -0.07370344 0.05211948 0.06657887
-0.086512566 0.056890264 -0.00884463 -0.01529515 -0.05173165 -0.12572634 -0.115845226 0.0789979
-0.0315276 -0.014267165 -0.08118012 -0.033432692 -0.056015015 -0.0018165094 -0.13038112 -0.0013138632
-0.1190219 -0.09976295 -0.013034276 -0.021389818 -0.04515094 0.059425775 -0.0042793658 0.014659349
00000000: 8a0c 903d 33fc a33d 0e84 8abc 199c 943d
00000010: 25c0 713d ad11 d2bc bb50 81bd cab7 8dbd
00000020: 9103 debd 81d9 a8bd 4429 bb3c 397a 013d
00000030: d4fc 38bd 427d b3bc 0a35 9a3d 767f 003c
00000040: 5423 c2bd 5258 c03d e77f 823d 411f ca3a
00000050: 1265 403d 9216 f0bd 927b 783d 1d23 8f3c
00000060: 55a6 a6bc 97e5 4bbd 7a0f b43d 2b64 693c
00000070: d69e a2bd a2f3 2c3d 53e8 0d3c 30b0 5ebd
00000080: 7be2 993d 0953 e33d 8d17 80bc 3271 80bd
00000090: 3045 97bd d4f1 96bd 3c7b 553d 815a 883d
000000a0: 802d b1bd c405 693d 11e9 10bc 8298 7abc
000000b0: 91e4 53bd 68be 00be 4340 edbd a7c9 a13d
000000c0: 1623 01bd d4c0 69bc c341 a6bd b8f0 08bd
000000d0: 0070 65bd f117 eeba a182 05be ef35 acba
000000e0: c1c1 f3bd 8450 ccbd b78d 55bc b339 afbc
000000f0: 31f0 38bd 7168 733d ec39 8cbb c42d 703c
