Results/SectionE_GroupDRO_WorstGroup_Risk/group_dro_full.pt (torch, 41577 bytes, 5 tensors)

net.0.weight f4 [128, 9]
000000 06 fe 36 3e 5a e8 15 3e f1 13 3a 3e e3 59 d2 bd
       0.1787034 0.14639416 0.1817167 -0.10271051
000010 15 a9 42 be 2b 15 01 3c 8f ee c3 bd d2 d3 2d 3e
       -0.19009812 0.007878582 -0.09566986 0.16975334
000020 c2 a4 83 be 51 60 89 3e 97 bc b1 bd 36 fe 3f 3e
       -0.25711638 0.26831296 -0.08678549 0.18749318
000030 06 ac af bd c6 cd 6a bd b1 e4 4e 3d c7 49 8d be
       -0.08577733 -0.057325147 0.050511066 -0.2759535
000040 d0 97 12 3e c6 96 99 3e 1e 33 70 be b3 ab e6 3d
       0.14315724 0.29997844 -0.23457 0.11263218
000050 6d e2 94 be 9a 70 c7 bc 81 f0 0d be a2 6d 93 be
       -0.29079 -0.024345685 -0.13861276 -0.2879458
000060 b1 3e 0a 3e b0 e4 41 3e ad e1 18 3d 30 db f8 3d
       0.13500477 0.18934894 0.037324596 0.12151182
000070 f9 9b 4c be 90 3c 5f 3e 1c 8b 83 be bb 16 c3 bd
       -0.19981374 0.21800447 -0.2569207 -0.0952582
000080 6a 09 f5 bd 04 8d 0c be 5c da 94 3e 61 ab 7f 3e
       -0.11964686 -0.13725668 0.29072845 0.2496772
000090 bd ae 38 3e 07 c2 0e be 24 4c 69 be 83 4d b1 bd
       0.18035407 -0.13941203 -0.22782952 -0.08657362
0000a0 9b db 15 be 5c 43 4b 3d d0 f5 31 3e 3b 3b a9 3e
       -0.14634554 0.049624786 0.17378926 0.33053002
0000b0 f0 d3 75 3e bb 12 8d be 88 b5 8c 3e d0 69 99 be
       0.24006629 -0.27553353 0.27482247 -0.2996354
0000c0 e4 ab 0b 3d 47 53 f4 3c df 95 08 bd 3f 68 b3 bd
       0.034099475 0.029824866 -0.033346053 -0.08760118
0000d0 07 07 f8 bd 46 25 41 3e 53 2a 50 be 97 74 8d 3d
       -0.12110715 0.18861875 -0.20328645 0.069070034
0000e0 d9 49 d3 3d d2 3c 84 3e e8 83 49 bc 76 21 8e 3e
       0.1031682 0.25827652 -0.012299515 0.27759904
0000f0 39 82 a6 be 93 9c 33 be d1 29 8b be b3 6c f2 bc
       -0.32521227 -0.17540197 -0.2718034 -0.029592847
000100 99 e1 54 be 6e b9 5b 3e 48 44 25 be de 36 29 3d
       -0.20789184 0.21457455 -0.16139328 0.04131209
000110 dc 1b 90 3e 13 ed a4 be 65 1c 0b 3e 94 fc 8f be
       0.28146255 -0.32212123 0.1358505 -0.2812239
000120 d6 94 2b 3e 14 cb aa bd 9f 21 99 be fe 25 80 3d
       0.16755995 -0.08339515 -0.29908463 0.062572464
000130 e0 7c 20 3c 2e ce e4 3d 85 d3 4a 3e 6e 36 00 bc
       0.0097953975 0.11172138 0.19807251 -0.007825477
000140 53 50 27 be 84 30 9d 3e f6 47 d8 bd ce 02 88 3e
       -0.16339235 0.30701077 -0.105606005 0.2656464
000150 5e e2 59 3e 92 a7 ac be 7d 4a 94 bd 8e 7d 1f 3b
       0.21277758 -0.33721596 -0.0724077 0.002433631
000160 f1 cc 7b be f4 62 7a 3d 30 25 10 be 6a 47 2c be
       -0.24589898 0.061129525 -0.14076686 -0.16824117
000170 e6 05 84 3e 5b a6 17 3e 52 d7 a5 3e 40 66 1d bd
       0.2578575 0.14809553 0.3239084 -0.03842759
000180 17 58 a0 bd 47 47 5a be 33 2c f4 3c b8 c9 87 3e
       -0.07829302 -0.21316253 0.029806232 0.26521087
000190 19 28 6c bd af 53 dc bd fc 73 4e 3e 20 64 e4 3b
       -0.057655428 -0.10758149 0.20161432 0.0069699436
0001a0 09 7e 06 3d ef 03 92 3e 48 36 a7 3e bb c6 a7 3e
       0.03283504 0.28518626 0.326586 0.32768807
0001b0 e0 c0 93 be d4 d3 2f 3d c8 80 83 3e 88 aa 90 3e
       -0.2885809 0.042926624 0.2568419 0.28255105
0001c0 72 37 8c be 50 3f 6f 3e b6 07 17 be 1f 4a 22 be
       -0.2738605 0.23363996 -0.14749035 -0.15848587
0001d0 5a 5d 2f be 9e 5c 43 be 96 47 4f bd 84 0b b4 3c
       -0.17125455 -0.190783 -0.05060538 0.021978147
0001e0 8f bb 13 be b3 49 62 3e 6d 04 41 be 44 5a 9d 3e
       -0.14427017 0.22098427 -0.18849345 0.3073293
0001f0 11 95 99 be ed 7b df 3d d9 26 4b be dd 68 4f be
       -0.2999654 0.10912309 -0.19839038 -0.20254846
000200 02 81 8f 3d 6f 20 5f bd a9 a2 53 be f5 3a 64 bc
       0.07007028 -0.05447429 -0.20667519 -0.013930072
000210 25 37 6d be af 81 49 be 74 bb 38 3e cb d7 af 3c
       -0.23165567 -0.19678377 0.18040258 0.021465203
000220 c4 0a d5 bd b7 d2 8d 3e bf 27 81 3d 21 8f 77 3e
       -0.10402444 0.27699825 0.06306409 0.24175693
000230 a8 81 04 3e 5f 7f da 3c 97 bf fc bd 79 d9 17 be
       0.12940085 0.026672063 -0.1234123 -0.14829053
000240 06 60 96 3e e8 1b 5a 3d 6d 31 8a 3e 4a e8 38 3e
       0.29370135 0.05324927 0.26990834 0.18057361
000250 97 6a 3e bc ac c7 96 be 0e fc 07 3e 42 6f 84 bd
       -0.011622093 -0.29449213 0.13279745 -0.06466533
000260 3d 92 9b 3d bd 22 07 be 38 e8 8e 3e 75 2a a7 3e
       0.07596252 -0.13196845 0.27911544 0.3264958
000270 ab d5 44 be 4f 7f ba bd d4 00 79 be 91 bb 3c 3e
       -0.19222133 -0.091063134 -0.24316722 0.18430926
000280 ed 96 76 be 37 a7 88 be a4 d8 6f be e8 99 84 be
       -0.24081011 -0.26690075 -0.23422486 -0.2589867
000290 5f 7e 79 3e e8 92 26 be a1 e9 47 3e 1e 48 9f bd
       0.24364613 -0.16266978 0.19522716 -0.07777427
0002a0 6c 94 ce bd 15 9e a6 bd b1 45 85 be 24 11 d4 3d
       -0.10086903 -0.081356205 -0.26029733 0.10354832
0002b0 6c f6 07 be 12 4e bf 3d 6c bb 89 be dc ce 40 3d
       -0.13277596 0.093410626 -0.26900804 0.047072276
0002c0 a3 48 8e 3e 74 60 ba bd 3a 67 93 3d 6f 91 ab be
       0.27789792 -0.09100428 0.07197423 -0.33509395
0002d0 c6 1a 15 be 73 c9 85 3e 58 40 f0 3d 8d eb d8 3d
       -0.14560995 0.26130256 0.117310226 0.10591803
0002e0 26 dd 07 3e ec 2e a2 bd f7 00 04 be de a1 9c 3e
       0.13267955 -0.07919106 -0.12890993 0.30592245
0002f0 de ee e8 bd 7f 31 11 bd 41 3a 72 be 66 c6 6e 3e
       -0.11373685 -0.035447594 -0.23655035 0.2331787
000300 fa 1f bd bd 3d af e9 bd a9 8f 44 be c1 dc 95 3d
       -0.09234615 -0.11410377 -0.19195427 0.07317496
000310 ec d9 7c be c7 2a 88 3e 61 40 6b 3e 45 d1 84 be
       -0.24692506 0.26595137 0.22973777 -0.2594091
000320 3c c6 9c be ed 4f bc 3d 77 e3 4e be b4 43 a4 be
       -0.3061999 0.09194932 -0.20203958 -0.32082903
000330 b7 95 5c 3e ab 68 a9 bd 50 ef 57 3d 1c 3c c4 3c
       0.21541487 -0.08271917 0.05271846 0.023954444
000340 cf 4b 70 be 47 8f 0e be dd d5 f8 3d 40 b8 9f be
       -0.23466419 -0.13921843 0.12150166 -0.3119526
000350 a1 99 85 bc b3 80 ea bc 3b f4 3f be e1 d3 a5 3e
       -0.016308608 -0.028625822 -0.1874551 0.32388213
000360 f3 21 9b be f5 bf 98 be 8c 62 7c be 4c 06 59 3e
       -0.3029934 -0.29833952 -0.24646968 0.21193808
000370 cd 8e 97 be 2e 43 57 3e 7f 7d a4 3e ef 4b aa 3e
       -0.29601136 0.21021721 0.32126996 0.33261058
000380 06 7c 9f 3e c5 74 26 3d 73 eb 92 be 49 6d 98 3d
       0.3114931 0.040638704 -0.28695258 0.074427195
000390 80 3a 12 3e c3 27 de bc 9e 98 9b be fb fe 7e 3e
       0.14280128 -0.02711857 -0.30389875 0.24901955
0003a0 6b 35 a1 3d 3b 3a 60 3e 66 64 a6 bc 14 c8 99 be
       0.07871517 0.21897213 -0.020311546 -0.3003546
0003b0 73 e6 95 3e b1 89 a7 be 46 c4 7e be 5e 01 a7 3e
       0.2927738 -0.32722238 -0.2487956 0.3261823
0003c0 d0 0f ac bd d9 80 48 3e d3 b9 5f 3e 49 2e ec bc
       -0.084014535 0.19580401 0.2184823 -0.028830664
0003d0 05 9e 82 bd af 30 1c 3e 4f cd 2d bd fe c8 0e 3e
       -0.06377796 0.15252946 -0.042432126 0.1394386
0003e0 57 65 d8 bd b2 49 39 be 94 7f 5e be f5 ad af be
       -0.10566204 -0.18094519 -0.21728355 -0.34312406
0003f0 b6 51 c0 bd 28 f6 08 be df 1c da 3d cf a4 26 3c
       -0.09390585 -0.13375151 0.10650038 0.010171129

net.0.bias f4 [128]
000000 de ba 21 bd 09 6d 81 be dd 63 90 bd 4b 34 2c 3d
       -0.03948485 -0.252785 -0.070502974 0.042042058
000010 56 19 14 be 0d 5e 38 be 65 13 83 3e 3b 99 53 be
       -0.1446279 -0.18004628 0.25600734 -0.20663922
000020 1f bc a4 bc e0 74 77 3e 8d ce 11 be f5 fb 8b be
       -0.020109234 0.24165678 -0.14238949 -0.27340665
000030 78 03 3c be 72 72 82 be aa 29 64 3e c0 46 16 be
       -0.18360698 -0.2547794 0.22281519 -0.14675426
000040 fc 4b c4 3d 96 b7 40 3e e5 30 bb bd ca 2a 1c 3e
       0.09584805 0.18820032 -0.09140185 0.15250698
000050 fe 18 8a 3e ac 44 77 bd 5f 9a d9 3d 5e c4 28 be
       0.26972193 -0.060368225 0.10625147 -0.16481158
000060 86 8a 86 3e 7e 41 9f be d4 39 8d bd d5 d2 19 3d
       0.2627756 -0.31104654 -0.068957955 0.03755458
000070 49 4a 8b be 9f 16 81 be f9 38 36 3e 52 7a 97 be
       -0.27205113 -0.2521257 0.17795171 -0.2958551
000080 7e cd 38 ba 75 a4 93 3e 57 cd 92 be 33 1b a2 3e
       -0.00070496637 0.28836408 -0.28672287 0.31661376
000090 56 3c 80 3e ed 9b 97 bd 01 c9 ef 3d ac f3 af bd
       0.25046033 -0.07402787 0.1170826 -0.085913986
0000a0 a5 1b 20 be 4f 5a 3e 3e 92 18 69 3d 04 c9 02 3e
       -0.15635546 0.18589137 0.056908198 0.12771994
0000b0 5a 6d 92 3e b4 32 65 bd 2f 87 41 bd ec f8 8d be
       0.28599054 -0.055956557 -0.04724806 -0.27728975
0000c0 38 ed 9b be 83 23 47 be 6c ec 4b be 17 96 79 3e
       -0.3045442 -0.1944714 -0.19914407 0.24373661
0000d0 88 a7 ff bd aa c9 81 bd 51 2a 6f 3e 6c fe 28 be
       -0.12483126 -0.063372925 0.23355986 -0.16503304
0000e0 50 4f 06 3c 48 27 91 be 63 cb 81 3e bb 70 9e be
       0.0081976205 -0.28350282 0.25350484 -0.30945382
0000f0 9a 28 43 3e c5 35 23 bd 9e ca 14 be fc b9 87 bd
       0.19058457 -0.0398462 -0.14530417 -0.066272706
000100 67 0a 8a be 12 59 fe bd 29 5a 74 3e 7b 08 8a 3e
       -0.2696106 -0.124193326 0.23862518 0.26959595
000110 b2 74 3a 3e 53 61 e3 bd 2a 1c cf bd 03 24 ec 3d
       0.18208578 -0.111025475 -0.10112794 0.11530306
000120 bf 0d ac be bb 40 92 be 0f 5f a8 be 78 20 9d 3e
       -0.33604237 -0.2856501 -0.32885024 0.30688834
000130 ce 86 0b 3e c2 28 34 be cd b7 dd bd 4f 3f 8b 3d
       0.13625643 -0.17593673 -0.10826073 0.067991845
000140 72 ed dd 3d b7 e8 17 3d 59 05 16 3e 8b 97 45 3d
       0.10836305 0.03708717 0.14650477 0.048240226
000150 1c 52 b6 bd 66 a2 a4 3d b4 0d 48 3e c8 00 5f bd
       -0.0890238 0.080387875 0.19536477 -0.054444104
000160 95 d7 86 3d b8 c1 a5 be 1a c0 97 be 5d 96 a7 be
       0.06584088 -0.32374358 -0.2963875 -0.32731906
000170 b4 47 c5 3d 80 58 3f be 6d 03 0a 3e 4b 43 8b 3b
       0.09632817 -0.18686104 0.1347787 0.0042499653
000180 49 d6 04 3e 19 dc 8d be cb e5 8e 3e 14 f3 9a be
       0.12972368 -0.27706984 0.27909693 -0.3026358
000190 62 59 be bd bc 03 b3 bc 87 48 5e 3d 16 72 75 bd
       -0.09294392 -0.021852367 0.054268386 -0.059923254
0001a0 45 d7 ae be a4 93 65 be d9 0e 48 be 72 26 af 3e
       -0.34148613 -0.22419602 -0.19536914 0.3420902
0001b0 ce c0 c4 3d 63 d8 48 3e da 78 10 be 32 92 40 3e
       0.09607087 0.19613795 -0.14108601 0.18805769
0001c0 f5 88 12 be 66 82 bd 3d 64 de e9 3d a5 c2 9f 3e
       -0.14310057 0.09253387 0.11419371 0.3120319
0001d0 1e 05 a5 3d 7a 39 70 bc c4 25 92 3e ec d7 6f 3e
       0.08057617 -0.014662141 0.28544438 0.23422211
0001e0 2a 75 69 be 54 d9 0d be 14 cc 58 3e b9 6a fb bd
       -0.22798601 -0.13852435 0.211716 -0.12276215
0001f0 61 50 20 be b5 bd 6b bd 96 40 43 3e a7 f4 8f be
       -0.15655662 -0.057553966 0.19067606 -0.28116342

net.2.weight f4 [64, 128]
000000 93 42 22 3d 5b 7d 66 ba d2 1a e6 3c 28 bb 9c bd
       0.03961427 -0.0008792483 0.02808896 -0.07652885
000010 34 90 a6 bc 65 cc 73 3d 3c 3b 51 bd 4e 0e 0a bb
       -0.020332433 0.059521098 -0.05108188 -0.0021065655
000020 96 62 28 bb cd de 75 bd c5 f6 93 3d c2 01 c7 bd
       -0.0025693527 -0.060026933 0.07224802 -0.09717132
000030 b6 0b 00 bb 52 d6 f6 bc fb 63 90 3d 97 40 22 3d
       -0.001953823 -0.030131493 0.0705032 0.03961238
000040 56 99 a9 bd e2 e7 b6 bc 90 5a 8a 3d 45 70 5a bb
       -0.082812 -0.022327367 0.06755555 -0.0033331078
000050 92 35 01 3d 97 71 a7 bd 19 b3 0f bd 63 2b c2 bd
       0.03154523 -0.081759624 -0.03508291 -0.094809316
000060 4b 7c 9c bd 05 fe 99 bd e8 3d c3 bc 02 e3 bc b9
       -0.076408945 -0.075191535 -0.02383323 -0.00036027288
000070 1c a7 c3 bd 90 8f 38 bd 2c 32 3a bc e7 c6 9b 3d
       -0.09553358 -0.045058787 -0.011364501 0.07606297
000080 8a bb 0c bd 86 ff 8e bd d6 62 9e 3b 63 8d 98 bb
       -0.03435854 -0.06982331 0.0048335595 -0.0046555265
000090 d2 b6 2c bc b1 68 f5 bc f1 dc 6a bc df 5d 71 3d
       -0.010541635 -0.029957147 -0.014334903 0.058927413
0000a0 a6 2b a5 bd b4 10 cd 3c d9 5f 4f bd 89 74 5d 3c
       -0.08064966 0.025032379 -0.050628517 0.013516554
0000b0 70 6f 6f bd a6 bc a2 bd dc 86 d4 3c a6 e1 55 3c
       -0.058455884 -0.07946138 0.025943212 0.013054287
0000c0 69 66 fd 3c bb d4 2a bd e1 e3 f1 3b 51 a5 55 3d
       0.030932622 -0.04170678 0.0073819016 0.05215961
0000d0 b8 f4 60 3d 38 92 34 3d f4 2f ee bc e6 f1 66 bd
       0.054920882 0.044084758 -0.0290756 -0.056383036
0000e0 4e 58 04 bb 7b 7f 98 bd e7 b4 16 bd 48 8d 69 ba
       -0.0020194235 -0.0744619 -0.036793616 -0.0008909297
0000f0 94 2e a4 3c 19 74 ab bc 34 40 ae 3c 6b e2 b0 bd
       0.020041741 -0.020929383 0.021270849 -0.08636936
000100 e4 0f b2 3c 64 05 8f bd 77 7c ac bd 17 05 71 bb
       0.021736093 -0.0698345 -0.08422177 -0.0036776715
000110 ff 3f 89 3d 87 c9 3c 3b b6 e0 a0 3c 41 40 b5 bc
       0.067016594 0.0028806643 0.0196384 -0.022125365
000120 4f 21 1b bc 14 07 08 bb 5d 48 45 bd b3 d8 76 3d
       -0.009468391 -0.0020756172 -0.048164714 0.060265254
000130 1a 97 8b bd 86 d4 13 3d 69 f8 48 3d 7b 1e 70 bd
       -0.0681593 0.03609135 0.049065027 -0.05862282
000140 90 42 81 3d 5c 3e c1 3c 81 cc 84 3d 8a 24 cb 3c
       0.06311524 0.023589306 0.064843185 0.024797697
000150 41 8e 82 bd 22 b6 2e 3d 92 89 7c 3d a6 f5 28 3d
       -0.06374789 0.042654164 0.061654635 0.041249894
000160 1d 97 a1 3c 01 64 9f 3a c3 40 1a bb c0 0c 9b 3d
       0.019725377 0.0012160541 -0.0023537136 0.07570791
000170 62 e8 5f bd 14 66 0b 3c e3 e4 65 bc 7d fe 8b 3d
       -0.054664977 0.008508224 -0.014031622 0.06835649
000180 88 d9 19 3d 20 eb 84 bd ac 31 e9 3c ab 76 23 bd
       0.03756097 -0.06490159 0.028466068 -0.039908092
000190 cd 46 4c 3d 9e de b0 bd 8b 37 bc bd 30 43 e8 3c
       0.04987221 -0.08636211 -0.091902815 0.02835235
0001a0 ec cf 12 bd 1c ce 37 3c 3e 73 7d 3d 2f 44 95 bd
       -0.03584282 0.011218574 0.06187748 -0.072883956
0001b0 cf 0d b6 bc b3 e8 2d bd 0e 10 1b 3d 28 6e 34 bd
       -0.022223381 -0.042458247 0.037857108 -0.044050366
0001c0 4a 2b 83 3d 3e 78 10 bc 74 37 57 3c ab 86 62 bd
       0.06404741 -0.0088177305 0.01313578 -0.05530421
0001d0 08 a0 5c bc e4 4b b8 bd 1b 1d 4f bd 82 5b 18 bd
       -0.013465889 -0.0899885 -0.050564867 -0.037196644
0001e0 5d 3f b6 bd a6 4c 3c bc e1 76 09 3d 5a 55 7e bd
       -0.08898804 -0.011492884 0.033560637 -0.062093116
0001f0 65 bc 8f bc 86 ed 5e 3d ce 42 87 bd c9 3a 75 3c
       -0.017545888 0.05442574 -0.06604539 0.014967629
000200 ff c1 2f bc b8 38 a9 3d 12 f7 43 3a 3a cb 99 3d
       -0.010727405 0.08262771 0.0007475476 0.075094655
000210 4c af 78 bc e4 48 74 bd f1 64 2c 3c bb 23 5b bd
       -0.015178513 -0.059639826 0.010522113 -0.053500872
000220 b0 8c 32 bd 05 a5 8a 3d 7c a5 b3 3d a2 af 66 bd
       -0.0435912 0.06769756 0.08771798 -0.05631984
000230 1c 86 9a bd d3 51 fa 3c 6a 6e 92 bd 2b 59 ad bc
       -0.075451106 0.030556595 -0.07149966 -0.021160683
000240 5c 7e 22 3d 0c 3e 20 3d f7 23 85 3c 69 be 2d 3d
       0.039671287 0.039121673 0.016252501 0.042417917
000250 84 63 20 bd 42 e8 db bc ec e1 ec bc 60 44 b5 bd
       -0.039157405 -0.026844148 -0.028916322 -0.08850932
000260 02 c5 36 bd f0 7f 55 3c 37 de d2 3c a0 56 0b bd
       -0.044621475 0.013030991 0.025740726 -0.03401816
000270 16 1b 72 3d ac ed f4 bc c9 31 08 3c ef d3 af 3d
       0.059107862 -0.029898487 0.008312651 0.08585345
000280 50 e4 7b 3d d1 c4 b8 3d 92 65 db 3c 4f 4a 55 bd
       0.061497033 0.09021915 0.026781831 -0.05207282
000290 96 82 cf bc 10 4d d2 bc ac 3a 79 bd 79 21 d7 bc
       -0.025330823 -0.025671512 -0.06084697 -0.026261078
0002a0 d9 8a b0 bd 1a 71 0e bd 49 0b a5 bd e8 28 bc 3d
       -0.08620233 -0.03477583 -0.08058793 0.0918749
0002b0 4d f0 ce 3c d6 03 b7 3d 55 91 54 3d 05 a0 c7 3d
       0.025261069 0.089362785 0.051896412 0.09747318
0002c0 60 2d a4 bc 3a fc 2f bd 8f a3 19 bd c4 23 97 bd
       -0.020041168 -0.04296515 -0.037509497 -0.073798686
0002d0 d2 10 ab bb 33 cc ca 3c 0c 62 70 3d fb d5 54 bc
       -0.005220511 0.024755573 0.058687255 -0.01299047
0002e0 e3 6e 01 3d 9c 6b 5d 3d 03 38 c9 3c 93 9f 94 3c
       0.03159989 0.054057702 0.024562841 0.018142497
0002f0 f1 62 dd bc 4d 1f 5f 3d e1 b7 a9 bd 2e 04 6c 3c
       -0.027024718 0.05447321 -0.08287025 0.014405293
000300 af 78 5e 3d 84 a9 82 3d cb 05 34 3d 66 33 85 bb
       0.05431431 0.06379989 0.043950837 -0.004064965
000310 ff 27 86 3d 0b b0 a4 bd c2 c8 24 bc e9 ac f6 bc
       0.065505974 -0.0804139 -0.01005763 -0.030111747
000320 2d c0 73 3d c8 ed a9 3d 9d 5a 80 bc 47 c3 c6 3c
       0.059509445 0.08297306 -0.015668208 0.024263037
000330 7f 95 a3 bb cc 22 cd bc b6 af 19 3d b0 af e7 3c
       -0.0049921866 -0.025041007 0.037521087 0.028282017
000340 34 92 0a bd 33 c3 c7 3c 32 3d b2 3d 3e 63 66 bd
       -0.033830836 0.02438507 0.08703078 -0.05624699
000350 68 db 16 bc 73 27 95 bd 26 00 89 bc 28 1c be 3d
       -0.009207584 -0.07282915 -0.016723704 0.09282714
000360 75 64 80 3d de 21 8e bd df 63 94 bd 54 d1 33 3c
       0.06269161 -0.069400534 -0.072456114 0.010975201
000370 08 48 c8 bb 36 ad 8c 3d b3 0e 6d bc 2a a7 8c 3d
       -0.0061121024 0.06868975 -0.014468837 0.068678215
000380 56 df 2d bd e0 e9 81 bc 19 13 d6 3b d3 1c 3d bd
       -0.042449318 -0.01585859 0.0065330383 -0.046170067
000390 05 d4 a8 3b b9 c8 2a bc 32 70 13 bd f0 87 80 bd
       0.005152228 -0.010423833 -0.03599567 -0.06275928
0003a0 46 da 62 ba 05 e5 ac 3d 65 6d 0f 3d 4a 69 80 bd
       -0.0008653741 0.084421195 0.035016436 -0.06270082
0003b0 23 31 1a bd 86 a3 86 3d a8 28 d4 bc 85 c5 de bb
       -0.037644517 0.06574158 -0.025898293 -0.0067984485
0003c0 81 a9 21 bd 10 e4 3b 3d 6e d5 54 bd f5 ce a2 bd
       -0.039468292 0.045871794 -0.051961355 -0.0794963
0003d0 54 28 78 bd 7c 84 8e bd 37 33 80 3c ef 36 95 3c
       -0.060585335 -0.06958863 0.015649421 0.018214671
0003e0 e6 a1 c1 bc 5d 79 26 3d 2d df 54 3c 41 8b d2 3c
       -0.02363677 0.040643085 0.012992662 0.025701167
0003f0 e8 a1 41 3d 2c 6c ae 3c 1b 42 c2 3d 25 d4 89 3d
       0.047273546 0.021291815 0.09485265 0.067299165

net.2.bias f4 [64]
000000 3a 9a 3a 3d 87 89 eb 3c f7 6b 20 bd 91 90 9a bd
       0.04555724 0.028752102 -0.039165463 -0.07547105
000010 62 27 94 bd 1f 2a a5 bd a0 a3 aa bd 42 cf 67 3d
       -0.07234074 -0.080646746 -0.0833199 0.05659414
000020 d2 2f 34 3d 77 0f 51 bb c5 54 5d 3c c0 dc 09 3d
       0.043990918 -0.0031900087 0.01350898 0.03365779
000030 0b 58 b6 3d 65 b0 46 3d e7 ef ff 3c c4 5d 1b bd
       0.089035116 0.048508067 0.031242324 -0.03793122
000040 8a d2 31 3c 17 22 f3 bc ef f8 62 bc bf cd 14 3c
       0.010853419 -0.029679341 -0.013853296 0.009082257
000050 22 b1 12 bc 4d 9e c4 bd a3 54 d5 3c 88 ab 1b bc
       -0.008953365 -0.09600506 0.026041334 -0.009501345
000060 be 98 60 bd 7f 04 fd bc 48 c6 92 bd e6 5d b3 bc
       -0.054833166 -0.030885933 -0.071667254 -0.02189536
000070 96 ff 9a 3d 0c 26 9e 3d cc 3b a6 3c cd de ec b9
       0.075682804 0.077221006 0.020292185 -0.00045179427
000080 34 a0 84 bd 1f 3b 66 bd c2 73 96 bd cf 97 b4 bd
       -0.06475869 -0.056208726 -0.07346298 -0.08818018
000090 8a e5 ec 3c 31 07 e6 bc 88 16 cc 3c b1 62 c6 3d
       0.028918047 -0.028079601 0.024913087 0.09686793
0000a0 78 1b 8b bd 86 64 9d 3b a2 82 69 bc b0 73 ed 3c
       -0.067923486 0.004803243 -0.014252337 0.028985828
0000b0 3e 62 97 3d 1a ae d8 bc b2 8b 4c 3d 79 3d fa 3c
       0.07391785 -0.026450206 0.04993791 0.03054689
0000c0 f4 98 00 bd a1 f8 48 3a 40 20 98 3d 30 39 73 bd
       -0.031395867 0.0007666443 0.07428026 -0.05938071
0000d0 f8 ce 4b bd d6 08 fb 3c 99 d2 69 bc 3f f8 b5 bc
       -0.049757928 0.030643862 -0.014271402 -0.0222131
0000e0 b6 9e 0a 3c fe 20 c1 bd 5b a2 65 bd 71 cb 4f 3d
       0.008460691 -0.09430121 -0.056063037 0.050731126
0000f0 2b c5 a4 bd c5 60 f9 ba f6 62 47 bd e5 32 61 3c
       -0.08045419 -0.0019026032 -0.04867836 0.013745044

net.4.weight f4 [1, 64]
000000 db 49 29 3c 03 93 61 bc aa 81 d7 3d 19 db a9 bd
       0.01033255 -0.0137679605 0.10522778 -0.08293743
000010 4a 91 a7 3d 55 41 b1 bd 39 9f 16 3d 6c 63 cf bd
       0.081820086 -0.08655039 0.03677294 -0.10126385
000020 a3 ec c7 3d 4a eb dc 3d 80 d3 65 3c 62 2e 87 3d
       0.09761932 0.10787065 0.014027476 0.06600644
000030 25 d7 a6 bd 51 b1 ca bc 53 aa f2 bd 02 b3 d3 3d
       -0.08146504 -0.024742754 -0.11848893 0.103368774
000040 36 98 77 bd ff 46 0d bd 8c 05 da 3d 2a 2f ee bd
       -0.060447894 -0.034491535 0.10645589 -0.116300896
000050 9b a2 c8 bd 4a a4 33 3d 73 94 02 bb e9 6b a5 bd
       -0.097966395 0.04385785 -0.0019924908 -0.08077223
000060 1b 5c ef bd 46 3b d5 bd 21 b0 3e bd f4 42 b8 3d
       -0.116874896 -0.10411696 -0.04655469 0.08997145
000070 1d 77 b1 bd 44 fd c9 bd 29 61 2b bd 82 e4 80 3d
       -0.08665297 -0.0986276 -0.041840706 0.062935844
000080 3a 77 bc bd 16 65 69 3d f8 f3 d6 bb f9 8f a7 3c
       -0.09202428 0.05698117 -0.006559845 0.020454394
000090 ff 2d c1 bd 96 ca 27 3d a4 ae 15 3d ff 2a 51 bd
       -0.09432601 0.040964685 0.036543503 -0.051066395
0000a0 3c 13 9a 3d 53 6c 3f bb 8c d1 a5 bd 2d 72 da bd
       0.075232 -0.0029208853 -0.080966085 -0.106663086
0000b0 6d dc 01 bd 7b 3a d3 bd fd 04 0c bd cc 89 0f 3d
       -0.031704355 -0.10313889 -0.034184445 0.035043523
0000c0 ad 67 6c bc b4 58 e7 3d b5 0a f7 bd e2 e4 6b bd
       -0.014429015 0.11296216 -0.12062589 -0.057591327
0000d0 f8 3a 91 3d 2a 4e be 3d 13 71 95 bd 15 82 f3 bd
       0.070913255 0.09292252 -0.07296958 -0.118900456
0000e0 18 7b e4 bd 07 07 69 3d 4f 74 e2 3d f2 db d1 bd
       -0.11156291 0.056891467 0.1105734 -0.10247029
0000f0 97 7b 89 bd d7 33 3c bd a8 94 64 3d 98 b8 3d 3d
       -0.06713026 -0.045947876 0.055805832 0.04631862
