Results/SectionE_GroupDRO_WorstGroup_Risk/group_dro_medium.pt (torch, 41601 bytes, 5 tensors)

net.0.weight f4 [128, 9]
0.024714706 -0.29347456 -0.10647964 0.188716 0.1964528 0.10158497 0.30170226 -0.18503803
-0.11503177 -0.03255493 -0.07064024 0.27262145 -0.31990987 0.07989235 0.31347287 -0.17675248
0.26151782 -0.27121562 0.07177438 -0.17471966 0.08601404 0.09681215 0.08797039 -0.05436442
-0.11839893 -0.30818132 0.05184074 0.32910573 -0.2642298 -0.13133588 0.09345025 0.17247254
0.12148332 0.22937647 0.030819139 -0.08524695 -0.28279763 -0.33957994 -0.25003982 0.16954288
0.27584127 0.30991754 0.2608394 -0.0065807444 0.23203385 0.13392133 -0.23968455 -0.062441815
-0.31980476 0.28350487 0.061529595 0.3220735 -0.05809913 0.26860034 0.16822745 -0.06546161
0.0036434978 0.24194251 -0.06663757 0.2661881 0.08849432 -0.14601472 -0.16577643 -0.14385284
0.20640077 0.26143128 -0.13932085 -0.30125317 0.16824469 -0.07070534 -0.30540714 0.046055287
-0.034625493 0.23778693 0.040974826 -0.19301371 -0.043642934 -0.22529866 0.1372345 0.09615781
0.18474701 -0.24366304 -0.17367013 -0.18229282 -0.2607489 -0.29625386 -0.25464687 0.25919902
-0.08863636 -0.058771726 0.081106246 0.06128469 0.15277351 -0.22977829 0.2940081 -0.028718567
-0.15057233 0.21181609 -0.2784996 -0.19686551 0.16322178 0.14755909 -0.13843022 -0.040314745
-0.06796148 0.14819421 0.05445631 0.09732988 0.2632309 -0.2218881 -0.235483 -0.06054679
-0.15083884 -0.24323292 0.30254027 0.26923794 0.26465327 -0.21951596 -0.041133285 -0.2378415
-0.109264776 0.25688565 0.02528515 0.13143863 -0.340353 0.12119536 0.22866035 -0.15813904
0.26897597 0.13018057 -0.259687 -0.26491633 0.030869067 -0.3327338 -0.25454485 0.1235966
-0.11018477 0.008595825 -0.12072229 0.19023381 0.26864386 0.22925347 -0.28368968 -0.12594013
0.16542798 0.18837513 -0.081740715 0.17057109 -0.031305622 0.03224019 0.24274877 0.23126522
-0.24169347 -0.18682481 0.10782748 0.18488939 -0.07805111 0.28100222 -0.018197415 -0.16955468
-0.044864662 -0.27074388 0.08283566 -0.29798332 0.30605096 -0.23598985 0.1976902 -0.2429465
-0.018285833 -0.16955109 0.14886227 0.20653358 -0.32066473 -0.2908564 0.04961176 -0.03438281
-0.0029123896 0.122700475 -0.08516598 0.281755 0.010831347 -0.15158522 0.09950015 -0.24638243
-0.18253121 0.10370243 -0.13876976 -0.32214588 0.14352539 0.096706286 0.07412522 0.14730975
-0.3416719 -0.16346346 -0.18049118 0.33338955 -0.12972511 -0.23855683 -0.12613255 0.024995916
0.15142882 0.23197308 0.24814372 0.016130947 0.31586495 0.1758695 0.18158269 -0.28664428
0.00072454783 -0.06433098 -0.32535115 -0.17701818 0.25019538 0.14058775 0.30523923 0.22716187
0.019156428 0.28824797 0.09207461 -0.0632945 -0.15862095 0.20804703 0.17363237 0.22792733
-0.08004994 -0.29309252 0.041956197 0.066417575 -0.20195101 0.07161894 -0.0573473 0.27059424
0.0006768404 -0.15034254 0.28628293 -0.001996741 -0.050704584 0.14469297 0.3248096 0.14678198
0.03826184 0.27503195 -0.16276523 0.2818064 -0.17569064 -0.0054894346 0.29005158 0.12320206
-0.05539172 0.18951339 0.20003636 -0.28529543 -0.01652696 -0.28186235 -0.06946843 -0.057205874
00000000: 7f76 ca3c 4c42 96be ff11 dabd c43e 413e
00000010: ec2a 493e c80b d03d b878 9a3e 9c7a 3dbe
00000020: c795 ebbd 5158 05bd d5ab 90bd 0a95 8b3e
00000030: 3acb a3be 9a9e a33d 847f a03e 9afe 34be
00000040: aae5 853e c6dc 8abe 72fe 923d b6e9 32be
00000050: 2128 b03d 7345 c63d d229 b43d 3aad 5ebd
00000060: 237b f2bd f1c9 9dbe f556 543d 8c80 a83e
00000070: 2149 87be ea7c 06be d862 bf3d a49c 303e
00000080: 3fcc f83d aae1 6a3e 6b78 fc3c f495 aebd
00000090: daca 90be 6cdd adbe 3805 80be a69c 2d3e
000000a0: 113b 8d3e 83ad 9e3e be8c 853e 49a3 d7bb
000000b0: 489a 6d3e ac22 093e de6f 75be fdc2 7fbd
000000c0: 73bd a3be 8d27 913e 7506 7c3d d1e6 a43e
000000d0: 5af9 6dbd fc85 893e d143 2c3e bd10 86bd
000000e0: c0c7 6e3b c7bf 773e 4779 88bd cf49 883e
000000f0: 833c b53d e284 15be 4cc1 29be 294e 13be
00000100: b95a 533e 52da 853e 20aa 0ebe db3d 9abe
00000110: 5648 2c3e f6cd 90bd 535e 9cbe 78a4 3c3d
00000120: 76d3 0dbd 6b7e 733e 38d5 273d 63a5 45be
00000130: efc2 32bd b1b4 66be 3387 0c3e 63ee c43d
00000140: 522e 3d3e ce82 79be 95d6 31be f8aa 3abe
00000150: e180 85be 96ae 97be 1361 82be bcb5 843e
00000160: fb86 b5bd 9fba 70bd 081b a63d a805 7b3d
00000170: a970 1c3e 004b 6bbe 3b88 963e 3343 ebbc
00000180: a22f 1abe 51e6 583e 8097 8ebe 1d97 49be
00000190: 9c23 273e bb19 173e a7c0 0dbe 1321 25bd
000001a0: 632f 8bbd 39c0 173e 940d 5f3d e354 c73d
000001b0: 33c6 863e a236 63be 7522 71be e9ff 77bd
000001c0: 7f75 1abe 0d12 79be 8fe6 9a3e 8ed9 893e
000001d0: a280 873e cbc8 60be 607b 28bd b98c 73be
000001e0: 36c6 dfbd 8486 833e ce22 cf3c d997 063e
000001f0: c042 aebe 4635 f83d f025 6a3e 33ef 21be
00000200: 38b7 893e 0e4e 053e b2f5 84be 1da3 87be
00000210: 20e1 fc3c 165c aabe b453 82be 3720 fd3d
00000220: 8da8 e1bd 81d5 0c3c 3f3d f7bd a7cc 423e
00000230: b08b 893e 6cc1 6a3e c63f 91be 73f6 00be
00000240: f465 293e 69e5 403e ad67 a7bd 30aa 2e3e
00000250: 533a 00bd 4a0e 043d 2293 783e cad0 6c3e
00000260: 7e7e 77be 014f 3fbe a7d4 dc3d a553 3d3e
00000270: 43d9 9fbd 86df 8f3e bf12 95bc be9f 2dbe
00000280: 02c4 37bd f19e 8abe bea5 a93d 4591 98be
00000290: b6b2 9c3e 53a7 71be 4d6f 4a3e f8c6 78be
000002a0: 2ccc 95bc cd9e 2dbe 5a6f 183e 8a7d 533e
000002b0: 2b2e a4be 21eb 94be b335 4b3d fdd4 0cbd
000002c0: cadd 3ebb 634a fb3d 806b aebd 3142 903e
000002d0: f675 313c 2839 1bbe bcc6 cb3d ad4b 7cbe
000002e0: 76e9 3abe f161 d43d a919 0ebe 4ef0 a4be
000002f0: 52f8 123e f20d c63d f7ce 973d 5ed8 163e
00000300: 9fef aebe f762 27be aed2 38be 09b2 aa3e
00000310: a9d6 04be 3e48 74be e428 01be 3cc4 cc3c
00000320: 2810 1b3e 5a8a 6d3e 6319 7e3e 0c25 843c
00000330: 0db9 a13e 2217 343e d0f0 393e 0ac3 92be
00000340: 95ef 3d3a f6bf 83bd 6d94 a6be 4144 35be
00000350: 9c19 803e 3cf6 0f3e 5148 9c3e 1f9d 683e
00000360: f1ed 9c3c 3d95 933e 9d91 bc3d 8ca0 81bd
00000370: 886d 22be 480a 553e afcc 313e c865 693e
00000380: 39f1 a3bd 3910 96be 43da 2b3d f005 883d
00000390: 3fcc 4ebe f3ac 923d 01e5 6abd 548b 8a3e
000003a0: fe6d 313a 65f3 19be ad93 923e c1db 02bb
000003b0: 9caf 4fbd 652a 143e 724d a63e 044e 163e
000003c0: 72b8 1c3d fdd0 8c3e eeab 26be ee48 903e
000003d0: 3fe8 33be b7e0 b3bb a481 943e 5d51 fc3d
000003e0: 6ee2 62bd cc0f 423e 55d6 4c3e 3e12 92be
000003f0: 8c63 87bc 4350 90be 7745 8ebd b550 6abd

net.0.bias f4 [128]
0.2835273 0.032980077 0.001050641 -0.085729755 0.07540354 -0.32272592 -0.32050902 -0.056123573
-0.24308667 -0.24349609 -0.063408546 0.19203134 0.15104616 -0.12742496 -0.006817042 0.29648378
0.08131063 0.2121215 -0.15054405 -0.29027236 -0.15519059 0.04160921 -0.07230497 -0.175352
0.33273506 -0.32264692 0.017513162 0.11775166 -0.07290393 0.13090771 -0.011213639 -0.18788955
-0.19480996 -0.13619526 -0.319614 0.2177701 0.28870618 -0.18637186 0.02484776 0.11068891
0.09719674 -0.17395689 -0.21199334 0.3133105 0.20681618 0.32346952 0.23261563 -0.015019155
0.21799019 0.0034643675 0.01017337 -0.1429415 0.25530416 -0.0652867 0.057630014 -0.25729522
0.12255105 -0.14580263 -0.0671989 -0.047436308 0.10993091 0.009190626 0.06036204 -0.20916079
-0.26545855 0.1145872 -0.13524252 -0.29185778 -0.13131306 -0.3237072 0.076964244 0.03659305
0.3179521 -0.1977362 -0.18698233 0.06678495 -0.079401925 0.24270304 0.045063525 0.0046433234
-0.115848966 0.21034054 -0.16107239 0.13912737 0.19971527 -0.2545358 -0.30608267 -0.17383814
0.16958754 -0.1782189 0.019349148 0.05823261 0.06882278 -0.16693565 -0.0011520749 0.2186618
0.1824842 0.049223833 -0.25357893 0.16736974 -0.14746146 0.24487251 0.14984752 -0.07798758
0.14305297 -0.1532716 0.047067337 -0.028618868 -0.0033135237 0.12757875 0.33477926 -0.1390473
0.31328163 -0.07455962 0.33237597 0.08257897 0.011464084 -0.10011793 -0.16911656 -0.34318703
-0.19168127 -0.038606714 0.29046145 0.19169655 0.055063114 -0.31318855 0.24404329 0.21318549
00000000: 7e2a 913e 1e16 073d a9b5 893a 1593 afbd
00000010: 2c6d 9a3d 553c a5be c219 a4be d5e1 65bd
00000020: b6eb 78be 0a57 79be 57dc 81bd dda3 443e
00000030: d8ab 1a3e b07b 02be 7e61 dfbb b9cc 973e
00000040: 3086 a63d 6136 593e 3828 1abe 949e 94be
00000050: 48ea 1ebe 6b6e 2a3d a114 94bd 7a8f 33be
00000060: 405c aa3e fa31 a5be c377 8f3c c827 f13d
00000070: a84e 95bd ac0c 063e 69b9 37bc 1e66 40be
00000080: 437c 47be c576 0bbe 72a4 a3be 20ff 5e3e
00000090: 4cd1 933e 44d8 3ebe 888d cb3c deb0 e23d
000000a0: 160f c73d c121 32be c814 59be 3c6a a03e
000000b0: 9fc7 533e cc9d a53e cb32 6e3e e712 76bc
000000c0: d238 5f3e 710a 633b 35ae 263c 425f 12be
000000d0: 3ab7 823e 09b5 85bd 730d 6c3d 33bc 83be
000000e0: 0bfc fa3d 494d 15be 949f 89bd 934c 42bd
000000f0: 7523 e13d 4894 163c 303e 773d 3f2e 56be
00000100: 2fea 87be b2ac ea3d 047d 0abe 626e 95be
00000110: ee76 06be f3bc a5be 6e9f 9d3d 98e2 153d
00000120: 9eca a23e 5c7b 4abe 4c78 3fbe 8cc6 883d
00000130: 7a9d a2bd 2587 783e 8894 383d 0527 983b
00000140: 3942 edbd 8363 573e 29f0 24be 6877 0e3e
00000150: 2982 4c3e 8452 82be deb6 9cbe a002 32be
00000160: 5ba8 2d3e 047f 36be 1b82 9e3c 5185 6e3d
00000170: f5f2 8c3d 2ef1 2abe 3801 97ba e1e8 5f3e
00000180: 23dd 3a3e ee9e 493d 19d5 81be f962 2b3e
00000190: 2300 17be dcbf 7a3e a171 193e f4b7 9fbd
000001a0: 7a7c 123e 3bf3 1cbe aec9 403d 1e72 eabc
000001b0: b427 59bb 01a4 023e 3068 ab3e 6a62 0ebe
000001c0: 7366 a03e b7b2 98bd 2f2d aa3e 2a1f a93d
000001d0: dad3 3b3c a10a cdbd e42c 2dbe 36b6 afbe
000001e0: 1848 44be 1322 1ebd 5db7 943e 1a4c 443e
000001f0: dc89 613d 405a a0be 7ce6 793e 4c4d 5a3e

net.2.weight f4 [64, 128]
-0.027571604 0.044261646 -0.06564466 -0.0373551 -0.020961959 -0.07823302 -0.0019385213 0.024400203
0.029129913 0.09780085 0.05729415 -0.07198839 -0.016281035 0.054597996 -0.07042829 0.0055482932
0.040937982 -0.050045475 0.084513 -0.05725471 -0.060305536 -0.05007627 -0.009650198 0.031876724
0.033401273 -0.027421743 0.08253236 -0.035548154 0.08696388 0.03864988 -0.02652056 0.07572262
0.033111457 -0.06245173 0.044438876 0.08911589 -0.055704325 -0.014359781 -0.06646058 0.064074576
0.053462956 0.072948776 0.03475204 -0.0038319163 -0.00374664 -0.060017303 0.059673283 -0.03100379
0.021818098 0.0140763605 0.036042675 -0.07101031 -0.007906872 0.04746383 -0.061672945 -0.036558215
-0.0467121 -0.06418874 0.087291226 0.076918885 0.06222164 -0.06949327 0.007472679 0.017226541
0.051422693 0.028852353 -0.05408231 0.00435962 -0.06614151 0.045911584 0.06322371 -0.023700511
-0.07027329 0.004318691 0.05035464 -0.057870414 0.05223676 0.06965874 -0.061963398 0.05740033
0.04892169 -0.04399925 0.07840499 -0.04115171 0.081229776 -0.06596044 0.0728677 -0.009889528
-0.0701508 0.048423313 0.004241818 0.02848625 0.04944135 0.00880012 0.037991967 -0.06523323
-0.069838904 -0.027521765 -0.042472098 -0.079518974 0.020290894 0.0037310477 -0.010301315 -0.0020171253
0.053362362 -0.015395217 0.011969004 -0.0037633076 0.042475503 -0.0007607474 0.03686169 -0.028496401
0.08097016 0.027198838 0.031224258 0.045476444 -0.078827545 0.04418782 0.07731351 0.054254565
0.059751805 -0.06807825 0.08280837 0.02677 -0.07337195 0.07899338 0.07472041 -0.009511172
0.0995527 0.013203584 0.08153163 -0.06861137 -0.07604834 0.03059958 0.0036306207 -0.06932294
-0.042125158 0.06504114 0.06301345 -0.056988016 -0.026530514 0.008294986 0.015352117 -0.053266205
0.073955126 -0.052278433 0.07359886 -0.047974054 -0.081458256 0.03900344 -0.034789875 0.062103007
-0.021040857 0.024342343 0.07179631 -0.044724558 -0.018904544 0.070012465 0.07966429 0.027022358
0.07212448 0.067401886 0.052749116 0.0022880668 0.09614933 -0.021232216 0.013212709 -0.021699974
0.0010285536 0.062357295 0.07753217 0.025011854 0.06456548 0.06997712 0.04877712 -0.017718587
0.06419905 0.08627641 0.0844757 0.024100928 0.07329854 -0.051683415 0.02427699 -0.07493466
0.049972717 0.0149290515 -0.015291342 0.058590684 -0.006066644 0.04372675 0.057035305 -0.03975359
-0.06426032 0.019416606 -0.054007553 -0.045192704 0.04894529 0.024907239 -0.011613637 -0.021156408
-0.0583436 -0.03394386 0.013998946 -0.045382686 -0.06483124 -0.07767531 -0.069938175 -0.029929586
0.032661602 -0.03815959 0.06325709 0.052133515 -0.054756604 0.02361023 -0.03315726 0.08479659
0.07620126 0.041500837 -0.03219483 0.019503428 -0.044981465 0.014304299 0.09851304 -0.006255409
-0.04262162 -0.028570337 -0.048681416 0.05130769 -0.044512797 0.073327385 0.061825275 0.056416754
0.0077959336 -0.001023622 0.038705677 -0.004112319 0.038272705 0.029580379 0.03641409 -0.028022457
0.06881869 -0.0036414901 0.066501625 -0.0017638196 -0.07490899 -0.00114615 -0.021202564 -0.03893326
-0.0002806555 -0.03027706 0.014495426 -0.016758002 -0.040003493 0.038403 -0.06583173 -0.06331498
00000000: d8dd e1bc b34b 353d b570 86bd a901 19bd
00000010: 6ab8 abbc a238 a0bd fb15 feba efe2 c73c
00000020: dba1 ee3c d04b c83d 45ad 6a3d a66e 93bd
00000030: ce5f 85bc 26a2 5f3d b53c 90bd 75ce b53b
00000040: 96ae 273d 7cfc 4cbd 2715 ad3d ea83 6abd
00000050: f002 77bd c61c 4dbd dd1b 1ebc 2b91 023d
00000060: c6cf 083d 90a3 e0bc ba06 a93d f19a 11bd
00000070: 1e1a b23d 564f 1e3d a541 d9bc 7614 9b3d
00000080: e19f 073d 63cd 7fbd 8a05 363d 6482 b63d
00000090: 382a 64bd 4945 6bbc 7c1c 88bd 8839 833d
000000a0: f9fb 5a3d 2b66 953d 2858 0e3d e320 7bbb
000000b0: 308a 75bb b4d4 75bd f96b 743d a9fb fdbc
000000c0: debb b23c 89a0 663c 7ca1 133d da6d 91bd
000000d0: d38b 01bc 6f69 423d c59c 7cbd 11be 15bd
000000e0: 3055 3fbd 6375 83bd bec5 b23d a687 9d3d
000000f0: 1edc 7e3d 7d52 8ebd 60dd f43b ad1e 8d3c
00000100: 9aa0 523d c55b ec3c 6a85 5dbd 25db 8e3b
00000110: 3375 87bd c90d 3c3d 6f7b 813d 9327 c2bc
00000120: 71eb 8fbd ce83 8d3b ab40 4e3d 8709 6dbd
00000130: 36f6 553d 3ea9 8e3d 55cd 7dbd 9c1c 6b3d
00000140: 1c62 483d 8f38 34bd cc92 a03d b28e 28bd
00000150: cc5b a63d 4416 87bd a93b 953d b007 22bc
00000160: 39ab 8fbd 8657 463d f3fe 8a3b ff5b e93c
00000170: 0383 4a3d 612e 103c 779d 1b3d 0099 85bd
00000180: b307 8fbd 5375 e1bc 39f7 2dbd d8da a2bd
00000190: 1739 a63c 9884 743b d9c6 28bc bf31 04bb
000001a0: 7e92 5a3d 383c 7cbc a419 443c d3a1 76bb
000001b0: cbfa 2d3d e56c 47ba 49fc 163d 4971 e9bc
000001c0: afd3 a53d 19d0 de3c 04ca ff3c 8245 3a3d
000001d0: 5670 a1bd 4afe 343d 8c56 9e3d 093a 5e3d
000001e0: 4fbe 743d 9c6c 8bbd 6f97 a93d c24c db3c
000001f0: 0844 96bd 48c7 a13d 0407 993d bfd4 1bbc
00000200: 49e2 cb3d d853 583c 0efa a63d 1e84 8cbd
00000210: 3bbf 9bbd f8ab fa3c b5ef 6d3b 30f9 8dbd
00000220: 6e8b 2cbd 4a34 853d 320d 813d 446c 69bd
00000230: 8556 d9bc b1e7 073c 7287 7b3c aa2d 5abd
00000240: c975 973d e921 56bd 00bb 963d 7180 44bd
00000250: 96d3 a6bd 12c2 1f3d d47f 0ebd b95f 7e3d
00000260: e05d acbc 9869 c73c f209 933d 1931 37bd
00000270: b4dd 9abc b262 8f3d 0827 a33d fe5d dd3c
00000280: 00b6 933d 000a 8a3d 750f 583d 64f3 153b
00000290: f1e9 c43d 2fef adbc 1e7a 583c 25c4 b1bc
000002a0: 88d0 863a 5d6a 7f3d 30c9 9e3d a9e5 cc3c
000002b0: e83a 843d 2a50 8f3d 84ca 473d 9226 91bc
000002c0: cb7a 833d b0b1 b03d 9901 ad3d 4f6f c53c
000002d0: 8c1d 963d fdb1 53bd 8ae0 c63c 5877 99bd
000002e0: 31b0 4c3d fb98 743c 8988 7abc c9fc 6f3d
000002f0: b3ca c6bb d21a 333d da9d 693d a9d4 22bd
00000300: ea9a 83bd 930f 9f3c 0637 5dbd fc1b 39bd
00000310: db7a 483d 440a cc3c 2047 3ebc 3450 adbc
00000320: b3f9 6ebd b808 0bbd d65b 653c 32e3 39bd
00000330: 3ec6 84bd 3c14 9fbd bf3b 8fbd e42e f5bc
00000340: 2cc8 053d 3b4d 1cbd ef8c 813d f489 553d
00000350: 7648 60bd 3e6a c13c e8cf 07bd d6a9 ad3d
00000360: 680f 9c3d c8fc 293d bade 03bd a7c5 9f3c
00000370: 7c3e 38bd 945c 6a3c 34c1 c93d 2dfa ccbb
00000380: 0294 2ebd 570c eabc 2a66 47bd 0328 523d
00000390: 0d53 36bd ab2c 963d 803c 7d3d 4115 673d
000003a0: 0875 ff3b 0e2b 86ba d889 1e3d a2c0 86bb
000003b0: d7c3 1c3d 8d52 f23c f126 153d 5a8f e5bc
000003c0: d0f0 8c3d 11a6 6ebb 0132 883d f72f e7ba
000003d0: e269 99bd 6a3a 96ba 00b1 adbc 7b78 1fbd
000003e0: f224 93b9 9907 f8bc 397e 6d3c 1448 89bc
000003f0: b4da 23bd 774c 1d3d c9d2 86bd 49ab 81bd

net.2.bias f4 [64]
0.046546444 -0.029148819 -0.053989653 0.013888934 -0.032017767 0.07394695 0.027113168 0.04309277
0.05160354 0.022804732 -0.044877984 -0.06189801 -0.0135546755 -0.0627028 0.041873295 -0.0059279236
-0.025333975 0.008155947 0.05191347 -0.027673835 0.027624056 -0.00073786447 -0.02449446 -0.008115006
0.020221954 -0.016036704 -0.060772553 0.008055727 -0.05915965 -0.034061145 0.013924658 0.028890094
-0.038452927 -0.058650848 0.028346743 -0.04771721 0.0068551577 0.03552002 0.0047379592 -0.010531797
0.00031598983 -0.041527797 0.047109116 -0.019637117 -0.025168976 -0.057855483 0.030670106 -0.04215931
0.048949912 -0.01130411 -0.07148947 0.068618044 0.047290035 0.04957858 -0.028968655 -0.07001046
0.052044187 -0.08236901 0.051821355 0.064656064 -0.02368652 -0.06593503 0.055606157 -0.098586306
00000000: 7ca7 3e3d 81c9 eebc 4124 5dbd 698e 633c
00000010: 1025 03bd 8071 973d 6f1c de3c 0b82 303d
00000020: 3c5e 533d fdd0 ba3c fad1 37bd c588 7dbd
00000030: 6e14 5ebc 536a 80bd 5583 2b3d 073f c2bb
00000040: 3289 cfbc 85a0 053c 38a3 543d 3db4 e2bc
00000050: d84b e23c 3f6d 41ba 9ba8 c8bc cdf4 04bc
00000060: 83a8 a53c 685f 83bc a4ec 78bd 2bfc 033c
00000070: 6451 72bd b383 0bbd 4024 643c ebaa ec3c
00000080: d180 1dbd df3b 70bd 6e37 e83c 1f73 43bd
00000090: 3ba1 e03b 717d 113d e240 9b3b 8f8d 2cbc
000000a0: 70ab a539 0d19 2abd 7df5 403d 05de a0bc
000000b0: 2b2f cebc dff9 6cbd e03f fb3c 3eaf 2cbd
000000c0: b47f 483d e034 39bc 1269 92bd 9e87 8c3d
000000d0: 32b3 413d e912 4b3d ac4f edbc a561 8fbd
000000e0: 492c 553d 15b1 a8bd a142 543d 666a 843d
000000f0: 3c0a c2bc f208 87bd 48c3 633d 9ee7 c9bd

net.4.weight f4 [1, 64]
-0.043446284 -0.09575639 0.045046862 0.10175621 -0.08445037 -0.07908694 0.09016856 0.051522046
0.07676707 -0.09674628 0.10558014 -0.04911572 -0.07261813 -0.044491727 -0.0049126386 0.061029706
-0.040005755 -0.08534977 0.00891492 -0.122489855 -0.10313985 0.016012482 0.09965688 -0.0774321
0.05873261 -0.084202915 -0.04598002 0.11284261 0.027077386 -0.056163438 -0.060761232 0.014486592
0.066210434 0.08770483 -0.00247474 -0.06102247 0.05108479 -0.10495255 -0.0072060055 -0.12001035
-0.033241548 -0.0073896265 0.09185033 0.017299222 -0.08858921 0.048040774 -0.008537182 -0.08616105
-0.113378264 0.014882367 -0.07468676 -0.054722197 -0.07047109 -0.09807025 -0.08318788 -0.016957495
-0.010828006 0.07186317 -0.10397196 0.095900245 0.10333829 -0.1191858 0.07051152 0.089626275
00000000: bbf4 31bd ed1b c4bd 0f83 383d 8f65 d03d
00000010: 51f4 acbd 55f8 a1bd 4baa b83d c808 533d
00000020: 0e38 9d3d ea22 c6bd 673a d83d 912d 49bd
00000030: d0b8 94bd f53c 36bd 33fa a0bb 49fa 793d
00000040: 13dd 23bd dccb aebd e20f 123c f6db fabd
00000050: fc3a d3bd 9c2c 833c e818 cc3d b994 9ebd
00000060: 9b91 703d 9472 acbd 8c55 3cbd 071a e73d
00000070: 65d1 dd3c a20b 66bd c5e0 78bd 2c59 6d3c
00000080: 5699 873d 979e b33d 3f2f 22bb b3f2 79bd
00000090: 493e 513d 5df1 d6bd 5b20 ecbb fdc7 f5bd
000000a0: 4a28 08bd ae24 f2bb 071c bc3d 19b7 8d3c
000000b0: 426e b5bd 67c6 443d 89df 0bbc 3475 b0bd
000000c0: dd32 e8bd 2cd5 733c 5ff5 98bd 6224 60bd
000000d0: 2653 90bd 0ed9 c8bd 685e aabd 72ea 8abc
000000e0: f367 31bc ff2c 933d 40ef d4bd 5967 c43d
000000f0: 06a3 d33d af17 f4bd 5868 903d fb8d b73d
