Results/SectionC_IRM_Invariant_Risk_Minimization/irm_model_medium.pt (torch, 41276 bytes, 5 tensors)

w f4 [64, 1]
000000 1a 7a 7e 3f 80 64 7e 3f 02 85 7e 3f 52 75 7e 3f
       0.9940506 0.993721 0.99421704 0.99397767
000010 a4 87 7e 3f 6d 60 7e 3f af 7d 7e 3f 6a 4f 7e 3f
       0.9942572 0.99365884 0.9941053 0.99339926
000020 be 7e 7e 3f a6 56 7e 3f 5d 23 7e 3f 8d 10 7d 3f
       0.99412143 0.99350965 0.9927271 0.9885338
000030 a0 6f 7e 3f 75 7f 7e 3f 7a 7c 7e 3f 5a 87 7e 3f
       0.99389076 0.99413234 0.99408686 0.9942528
000040 b5 4d 7e 3f 7b 26 7e 3f b8 5c 7e 3f a4 79 7e 3f
       0.9933732 0.99277467 0.9936023 0.9940436
000050 80 85 7e 3f fb a6 7d 3f 25 82 7e 3f 2b 39 7e 3f
       0.99422455 0.99082917 0.99417335 0.9930598
000060 b2 77 7e 3f 0b 7e 7e 3f 00 53 7e 3f a5 81 7e 3f
       0.9940139 0.99411076 0.993454 0.9941657
000070 da 5f 7e 3f aa 78 7e 3f 4b 58 7e 3f e7 43 7e 3f
       0.9936501 0.9940287 0.99353474 0.9932236
000080 9f 5f 7e 3f d0 72 7e 3f 00 5e 7e 3f 61 7a 7e 3f
       0.99364656 0.9939394 0.9936218 0.99405485
000090 76 85 7e 3f 45 65 7e 3f 26 86 7e 3f 5e 56 7e 3f
       0.99422395 0.99373275 0.99423444 0.99350536
0000a0 8d 87 7e 3f aa 6a 7e 3f 5c 7d 7e 3f 65 60 7e 3f
       0.99425584 0.99381506 0.99410033 0.99365836
0000b0 45 63 7e 3f 52 82 7e 3f c0 4e 7e 3f f0 7b 7e 3f
       0.99370223 0.99417603 0.9933891 0.99407864
0000c0 20 72 7e 3f 60 70 7e 3f 0c 69 7e 3f f3 17 7d 3f
       0.9939289 0.9939022 0.9937904 0.9886467
0000d0 44 7b 7e 3f 4a 7b 7e 3f 7d 76 7e 3f c3 73 7e 3f
       0.9940684 0.99406874 0.9939955 0.9939539
0000e0 dc 83 7e 3f 57 5c 7e 3f 86 86 7e 3f 2e 5f 7d 3f
       0.9941995 0.9935965 0.99424016 0.9897336
0000f0 50 7d 7e 3f 0d 87 7e 3f 60 87 7e 3f a3 5d 7e 3f
       0.9940996 0.9942482 0.99425316 0.9936163

phi.0.weight f4 [128, 9]
000000 1a e2 5a 3e 94 0f 78 3e a8 96 81 bc 85 a7 63 3e
       0.21375313 0.24224693 -0.015818909 0.22231872
000010 40 ae 48 3e 77 d9 58 bd 1d e5 12 be 11 29 30 be
       0.19597721 -0.052941766 -0.14345212 -0.17203166
000020 a8 3e 89 be 69 fd 45 be 7b 3e be 3d 48 51 ff 3d
       -0.26805615 -0.1933495 0.09289261 0.12466675
000030 31 e9 b7 bd 73 69 b2 bc 21 38 72 3e 78 df 61 3d
       -0.089800246 -0.021778798 0.23654224 0.055144757
000040 b0 7a 72 be 1b 85 8d 3e e1 e5 46 3e 9e 14 02 3d
       -0.23679614 0.27640614 0.1942363 0.031757943
000050 ca 01 28 3e d1 c0 94 be 7c 45 4c 3e eb 96 b0 3d
       0.16406932 -0.29053357 0.19948381 0.08622535
000060 35 14 a4 bc 01 40 d0 bd 50 cc 85 3e 84 bd 84 3d
       -0.020029167 -0.10168458 0.2613244 0.0648146
000070 7f e8 38 be de c5 12 3e 8f e2 59 3d 5b 44 e8 bd
       -0.1805744 0.14333293 0.05319458 -0.11341163
000080 a9 16 6b 3e b1 7d a7 3e 5f ca 3a bc e7 34 08 be
       0.22957863 0.32713082 -0.011400788 -0.1330143
000090 06 0c 3a be d0 ed 2b be ae 0e 29 3e 4b 24 5c 3e
       -0.18168649 -0.16789937 0.16509506 0.2149822
0000a0 72 6c 47 be 7b 3a 37 3e 09 b2 99 3c 43 81 8e bc
       -0.19474962 0.17893402 0.018761652 -0.017395621
0000b0 da d0 e4 bd 0e 3e 9b be 77 d5 93 be 7b a2 7d 3e
       -0.11172648 -0.3032078 -0.28873798 0.24769013
0000c0 bf 95 47 bd ae 55 d1 bc a6 d7 52 be fa e1 5c bd
       -0.048726793 -0.02555355 -0.20590076 -0.053926446
0000d0 f3 b2 06 be 06 c8 d9 3c b0 ce a0 be a9 22 cf 3c
       -0.13154201 0.026584636 -0.3140769 0.025285082
0000e0 4c de 92 be fb fb 72 be d2 72 71 bb fc 1d ee bc
       -0.28685224 -0.23728935 -0.003684212 -0.029067032
0000f0 bd 7f cc bd e0 86 3e 3e 40 24 fa 3c 66 83 80 3d
       -0.09985302 0.18606138 0.030534863 0.06275062
000100 cb ad 05 3e d3 66 c3 3c cc 33 9a be 94 91 f7 bd
       0.13054578 0.023852741 -0.30117643 -0.12088314
000110 13 5a 50 3e 3e 51 40 3e 12 46 f7 3d 67 55 96 3e
       0.2034686 0.18780991 0.12073912 0.29362032
000120 03 ae 38 be 63 50 d8 bd 7e 07 5d bd 19 a9 a2 bd
       -0.1803513 -0.105622075 -0.053962223 -0.07942409
000130 94 f1 8f 3e e5 62 a7 be 13 35 6a 3d ec 23 a4 3e
       0.28113997 -0.32692638 0.05717952 0.32058656
000140 d1 98 37 be 8a 58 84 3e 63 f9 97 be b0 36 44 3d
       -0.17929389 0.258488 -0.29682454 0.047903717
000150 52 22 3e be e6 a2 dd 3d b4 4b 89 3d c3 ee a2 3d
       -0.1856778 0.10822086 0.06703892 0.079556964
000160 b5 bb 8f bd ce d4 d0 bd d9 33 a8 be ff 22 7a 3d
       -0.07018224 -0.10196839 -0.32852057 0.06106853
000170 1c dc a5 3e 6f 60 83 be b0 ca fa bd 65 62 a7 3d
       0.32394493 -0.2565951 -0.12245691 0.08173064
000180 64 6f 34 3e 9e c8 01 3e 1a 3d 57 3e 49 f4 0e 3d
       0.17620617 0.12674186 0.21019402 0.034900937
000190 a9 28 b5 bd 08 7f 8b be b9 fe ad be 24 f6 80 be
       -0.08845646 -0.27245355 -0.339834 -0.2518779
0001a0 40 11 31 3e af 47 9d 3e db d3 a4 3e 15 6d 77 3e
       0.17291737 0.30718753 0.32192883 0.24162705
0001b0 2c 25 c0 3c e0 11 72 3e d8 cf f7 3d ea fa 60 be
       0.023455225 0.23639631 0.1210019 -0.21970716
0001c0 23 7c 8b bd 5a 67 a1 be 3f 7e 8d 3e 66 d0 88 3d
       -0.068107866 -0.31524163 0.2763538 0.06680374
0001d0 6d e3 9f 3e b5 69 05 bd 42 c3 8a 3e 73 63 26 3e
       0.312282 -0.032571513 0.27102095 0.16248874
0001e0 c4 28 06 bd 2c 0e 04 bc 05 49 79 3e 50 5a 29 bd
       -0.03275372 -0.008060019 0.24344261 -0.041345894
0001f0 98 47 82 3e 70 b5 8f 3d 3d 8b fd bd f8 f8 15 be
       0.25445247 0.07017028 -0.12380073 -0.14645755
000200 c3 a4 2d be ae e9 55 3e 71 4e 84 3e b3 10 1c be
       -0.16957383 0.20889923 0.25841096 -0.15240745
000210 f9 af 9e be c6 2b 3c 3e 0e 37 91 bd 31 4b 99 be
       -0.3099363 0.18376073 -0.07090579 -0.2994018
000220 44 28 92 3d dc 86 e1 bc a5 f1 6f 3e ba e8 9c 3d
       0.07136586 -0.027530126 0.23432024 0.076615766
000230 13 08 4d be 84 a0 87 bd b8 35 7b be 89 a2 25 3e
       -0.20022611 -0.06622413 -0.24532211 0.16175283
000240 70 07 ba 3d 34 f3 42 3e eb f0 76 be 9a 41 45 be
       0.0908345 0.19038087 -0.2411534 -0.19263306
000250 11 fe 4a be e8 98 8a be a6 bc 9a be 52 ef 86 be
       -0.19823481 -0.27069783 -0.30222052 -0.26354462
000260 a0 28 66 3e 91 f2 c3 bd 01 2a 8b bd 74 dd d9 3d
       0.22476435 -0.0956775 -0.06795121 0.10637942
000270 c0 9f a7 3d 5b 3d 1f 3e 59 09 6b be 68 b1 94 3e
       0.08184767 0.15550749 -0.22952785 0.290416
000280 e0 58 06 bd 38 1b 1c be 9c bb 55 3e 36 8d 8b be
       -0.0327996 -0.15244758 0.20872349 -0.27256173
000290 8f 70 46 be 79 52 3a 3e c4 ac 09 3e 66 16 0e be
       -0.19378875 0.18195523 0.13444811 -0.13875732
0002a0 d7 20 ff bc 56 1b 6e bd cc 2f 10 3e a8 3a 97 3d
       -0.031143589 -0.05813154 0.14080733 0.07384235
0002b0 9b 6b ed 3d eb ff 8f 3e 66 f5 70 be 8e b1 7e be
       0.1159279 0.28124937 -0.23531112 -0.24872419
0002c0 64 22 96 bd 60 3d 21 be c5 b5 77 be 6c 45 9c 3e
       -0.07330778 -0.15746069 -0.24190433 0.30521715
0002d0 c1 2d 8b 3e 9b 92 86 3e 47 ad 4c be 46 7a 3c bd
       0.27183345 0.26283726 -0.19987975 -0.046015047
0002e0 35 84 82 be 72 59 01 be 8c 01 8f 3e 68 30 41 3d
       -0.2549149 -0.12631777 0.27930868 0.047165304
0002f0 b4 09 dc 3d 8c a1 ac be 7a 79 11 3e f4 6e 60 3e
       0.10744038 -0.33717 0.14206496 0.21917325
000300 de 59 fa bd 9e 5c 7d 3e 4e 14 14 3e 28 cb 7e be
       -0.12224172 0.24742362 0.1446087 -0.24882185
000310 22 f0 82 be c8 5a 98 ba 7c 8e a7 be ff 6a 74 be
       -0.25573832 -0.0011623735 -0.32725894 -0.23868941
000320 3c 3d ff 3d 69 d7 d4 bd c3 c8 8f bc dc 57 11 be
       0.124628514 -0.10392649 -0.017551785 -0.14193672
000330 1b ce 62 3e 33 16 8f 3e 9f 6a 70 3e 9c dd 94 be
       0.22148935 0.27946624 0.23478173 -0.29075325
000340 7a b2 bd bd 37 e9 1f 3e cf 28 50 3e 97 e2 a8 bd
       -0.09262557 0.15616308 0.20328067 -0.082463436
000350 63 e3 40 3e 3d 50 83 bb 59 fb 00 3d 37 db 5f 3e
       0.18836741 -0.004007368 0.031489704 0.21860968
000360 5b c9 70 3e e6 1b 6a be b0 e9 54 be 48 d3 fd 3d
       0.23514311 -0.22862205 -0.2079227 0.12393814
000370 59 3f 48 3e 44 5a aa bd 9e f3 99 3e 11 1a 2e bd
       0.19555415 -0.08317998 0.30068678 -0.042505328
000380 5f 1c 2a be 3d d0 e3 bc c4 fb 8d be da 64 ca 3d
       -0.16612385 -0.027809257 -0.27731144 0.09882517
000390 59 38 a8 be 97 f0 a0 3e 1a 65 7d be c0 86 63 3e
       -0.3285549 0.31433555 -0.24745598 0.22219372
0003a0 ee a8 83 be f7 60 2e bd 9a 19 37 be 1d c7 28 3e
       -0.2571482 -0.04257294 -0.1788086 0.16482206
0003b0 8c 15 40 3e cf a6 9c be 06 90 8f be fb ff 4b 3d
       0.1875822 -0.30596015 -0.2803957 0.04980467
0003c0 5b 99 54 bc ad 44 fc 3b ba 57 c3 3d 11 7d 6a bd
       -0.012976016 0.0076986165 0.09538217 -0.05724818
0003d0 54 15 93 3e 0c a5 88 3c bd 1c 17 be d8 1c fa 3d
       0.2872721 0.016680263 -0.14757057 0.12212533
0003e0 25 a1 81 be f9 69 1d be fa 0a bd 3d a7 25 15 be
       -0.25318256 -0.15372457 0.09230609 -0.14565144
0003f0 e5 e9 a5 be eb 80 31 3e 33 61 a2 3d 05 67 d2 3d
       -0.3240501 0.17334335 0.079286955 0.10273556

phi.0.bias f4 [128]
000000 ed b1 96 3e 05 a9 26 be 91 36 89 3d 79 72 38 3e
       0.29432622 -0.16275413 0.06699861 0.18012418
000010 70 00 c4 3d 12 d1 68 be d6 55 97 3e bf 75 1d 3e
       0.09570396 -0.22736004 0.29557675 0.15376948
000020 24 08 5d be fd 36 49 be 86 a4 91 bd a0 00 d6 3d
       -0.21585137 -0.19649883 -0.071114585 0.10449338
000030 92 49 07 3e 0d 98 4b 3d 19 b0 5b 3e 6e d8 a6 3e
       0.13211659 0.049705554 0.21453895 0.32586998
000040 ae f1 7e 3d 86 4c ff 3d 41 fa 3b 3e 69 26 95 3d
       0.062242202 0.124657676 0.18357183 0.07282717
000050 06 a4 69 3c 9c 68 9c 3e df 89 71 3e 9b 0d 65 3e
       0.014260298 0.3054856 0.2358775 0.22368471
000060 24 f5 fc bd 7f 32 18 be de 6a 3e be cc db 8b be
       -0.12351444 -0.14863013 -0.18595454 -0.2731613
000070 b7 52 e6 bc 53 39 46 3e 90 13 5f 3d 42 62 ef bd
       -0.028115613 0.19357805 0.054462016 -0.11688663
000080 59 b4 27 bd eb ba 85 be e1 3c 54 be 4f 5f 17 3d
       -0.040943477 -0.2611917 -0.20726348 0.036956128
000090 1b 54 40 be 82 0f 0f 3d 45 8a 89 3e 21 36 9f 3d
       -0.18782084 0.0349269 0.26863304 0.07773996
0000a0 f8 7d 7f 3e 66 68 5e be c0 5c 93 3c 52 58 aa be
       0.24950397 -0.21719512 0.017988563 -0.33270508
0000b0 ce 8d 05 3c eb 7e 74 be 3e 09 9d 3e d7 f3 94 be
       0.008151485 -0.2387654 0.30671114 -0.29092285
0000c0 b2 65 f6 3d 05 1b 52 be 21 c0 fc 3d f7 c3 82 3b
       0.120311156 -0.2051812 0.12341333 0.003990646
0000d0 9f 30 47 bd 83 30 fd bd 29 15 62 3e 0f ea 8c bd
       -0.048630353 -0.123627685 0.22078384 -0.06880581
0000e0 58 e1 b1 3c a8 f1 e1 bd 51 dd 72 be 54 24 14 be
       0.021713898 -0.110324204 -0.23717238 -0.14466983
0000f0 66 f1 9b 3e 60 71 9f 3e 06 66 24 be ea a2 dd 3c
       0.3045761 0.31141186 -0.16054544 0.027055223
000100 75 bf 74 3d 9d 9a 99 3e ba 24 26 3d 56 c5 b9 3c
       0.0597529 0.30000773 0.04056237 0.022677105
000110 b7 0e d4 bd 8c 73 9a 3d 38 30 a5 be 94 4f a7 be
       -0.10354369 0.0754157 -0.3226335 -0.326779
000120 3a c8 2a bd 8d 71 66 be bc a9 64 be a0 54 80 bd
       -0.041694857 -0.22504254 -0.22330374 -0.06266141
000130 c4 44 43 3e 62 c5 2e 3e 7f 09 f9 bd f5 d4 f0 bc
       0.19069201 0.17067483 -0.12160014 -0.02939842
000140 48 50 9b 3e 4f 43 86 3d 79 e2 6e 3e 57 58 13 be
       0.30334687 0.06555807 0.2332858 -0.14389168
000150 81 60 a2 be 44 49 18 be 1b 9e c0 3c 3b 54 af bd
       -0.31714252 -0.14871699 0.02351289 -0.085609876
000160 f1 9d 40 be 30 15 a1 3e a7 77 a0 be d3 a9 27 3b
       -0.1881025 0.31461477 -0.31341287 0.00255834
000170 44 5a 0e 3e 1b c4 af bd 6a d0 0d 3e 52 b9 e6 3b
       0.13901621 -0.08582326 0.13849035 0.007041135
000180 ab 00 50 be 35 f2 34 be 79 55 13 be 48 8a a9 be
       -0.20312755 -0.1767052 -0.14388074 -0.33113313
000190 c9 90 4e 3e 8c 90 98 3e 08 5c 29 be f0 25 25 3c
       0.20172419 0.2979778 -0.16539013 0.010079846
0001a0 a6 5d d7 3d ca 27 b5 3d 62 53 43 be 7c c0 55 be
       0.10515909 0.0884548 -0.19074777 -0.20874208
0001b0 9d 86 a9 3e 79 bd 4b 3e bb 4a 9c 3e 11 da 6b 3e
       0.33110514 0.19896497 0.30525765 0.23032404
0001c0 35 5b 1f bd 8d 60 76 3e 3e 6b 86 bc 30 c1 02 bc
       -0.03890534 0.24060269 -0.016408559 -0.00798063
0001d0 86 db 0c be 5a f9 81 3e db 35 9e bd 55 61 65 3d
       -0.13755617 0.25385553 -0.07725116 0.056001026
0001e0 cd e3 8a be 74 38 dc 3d 9e f5 1b be 92 47 a7 bd
       -0.27126923 0.10752955 -0.15230414 -0.08167948
0001f0 7b 6a 12 bd 82 6a e9 3d fd 46 be 3b 2e b8 55 3d
       -0.03574608 0.11397268 0.0058068023 0.0521776

phi.2.weight f4 [64, 128]
000000 29 25 82 bd 87 a0 94 bd 75 cd d4 3c 6e 40 2d bd
       -0.06354744 -0.07257181 0.025976876 -0.042297773
000010 e4 d9 a8 bd 3a b8 4e bd 86 6e be bd ea 50 42 3c
       -0.08244684 -0.05046866 -0.092984244 0.011860112
000020 32 0e 27 3a 42 5c 9b 3d 3d 35 5f bd 90 05 53 bd
       0.00063726597 0.07585956 -0.05449413 -0.051518977
000030 ce ab 77 3c 9b d3 f2 bc 4b 09 80 3d 63 0a ef 3b
       0.015116645 -0.029641917 0.062517725 0.0072949394
000040 e6 0a 00 bc 12 fa 23 bd 54 7c 42 3d 2a 84 41 bd
       -0.007815098 -0.040033408 0.04748185 -0.047245182
000050 eb 63 f2 3c 99 94 50 3d af fe ae bd c6 66 ad bd
       0.02958866 0.050922964 -0.08544671 -0.08466868
000060 80 37 64 bd ed 54 0f 3d d0 54 5f bd e0 4d 09 3b
       -0.05571699 0.0349931 -0.054524243 0.0020950958
000070 96 e3 e6 3b 30 cc 4f 3c f8 77 51 bd db cf 4b bb
       0.0070461733 0.012682959 -0.0511398 -0.0031099233
000080 9c ac 62 3d 2f b3 23 3d 6d 5e 35 3c fe c8 9b bd
       0.055340394 0.039965805 0.011069876 -0.076066956
000090 c5 c2 12 3d e4 c1 28 bd bb ae 64 3d 36 6d f8 3c
       0.035830278 -0.041200534 0.0558307 0.030325513
0000a0 42 14 b5 bc 21 c8 e7 3c e4 ab 30 bd e2 66 15 3c
       -0.022104386 0.028293671 -0.043132678 0.009118767
0000b0 60 e3 26 bc 2d 57 97 bb ad 31 ca 3c 68 85 a4 3d
       -0.010186046 -0.0046185465 0.02468189 0.08033258
0000c0 c5 38 38 bd 74 e2 a4 3d 82 53 05 bd 46 7a 9f 3d
       -0.044976015 0.08051005 -0.032550342 0.07786994
0000d0 fe 08 62 3c 6e 5d 9d 3a 5c c1 11 bd a2 2b 57 bd
       0.013796089 0.0012005994 -0.035584792 -0.052531846
0000e0 a0 fd bd bd 88 d6 5e bd 74 9e 69 bc 4d 61 8c 3d
       -0.09276891 -0.05440381 -0.01425897 0.06854496
0000f0 15 db 2b 3d cb c9 18 3c fe 07 bc bd 64 49 66 3d
       0.04195698 0.009325455 -0.09181212 0.056222335
000100 a1 9d 60 3d e0 35 3b bd df 33 f2 3c 9a 6a a3 bd
       0.054837827 -0.045705676 0.02956575 -0.07979317
000110 15 b1 4f bd 99 54 05 bd c8 8d b4 bd 79 39 3b bc
       -0.050705988 -0.03255138 -0.08816105 -0.011427277
000120 39 55 4a 3c ac c1 9d 3c 74 6a 9d 3d 98 1b 38 3d
       0.01234942 0.019257389 0.0768632 0.04494819
000130 cd 7c b1 bd 17 58 0e bd 5a 03 33 3d 27 0e ba bd
       -0.08666382 -0.034751978 0.04370437 -0.090847306
000140 e4 e6 3b bc 90 92 e1 3c 85 75 86 bd 42 e0 8e 3d
       -0.011468623 0.027535707 -0.06565384 0.069763675
000150 5b cd 9c bd 6d e1 91 bd 28 57 95 bd 63 ea b0 bc
       -0.07656356 -0.07123075 -0.07292014 -0.02159614
000160 3e 14 c0 3c 8d 9a 9d 3c ef 30 4b bd 7f ad 91 3d
       0.023447152 0.019238735 -0.049607214 0.0711317
000170 81 cb 5b bd a5 4d 4c 3d 71 27 c0 3c f5 79 0c bd
       -0.053660873 0.049878735 0.023456307 -0.034295995
000180 68 f3 73 3d b2 ca bf 3c 52 7f a6 bd a1 61 1f 3d
       0.059558302 0.023412082 -0.08129753 0.038911466
000190 db f3 9d 3d 42 96 93 bd e7 c9 c7 bc 55 06 9e bd
       0.07712527 -0.07206394 -0.024388267 -0.077160515
0001a0 32 9e 5a 3d 32 28 27 3d 27 4a 70 3d 2b 94 98 3c
       0.053373523 0.040809818 0.058664467 0.01862534
0001b0 7e f8 a6 bc b0 d8 6d bc fb 4d 93 bd 54 de 4d 3d
       -0.020382162 -0.014516994 -0.07192608 0.050260857
0001c0 08 5a 4b bd 91 5b 73 3b 00 2a 35 bb 77 87 a8 3c
       -0.049646407 0.0037133435 -0.0027643442 0.020572407
0001d0 42 7b 9d bd c5 cb a3 bc c0 55 0e 3d cf cd 92 bd
       -0.07689525 -0.019994626 0.034749746 -0.07168161
0001e0 45 37 33 bd ea 34 5f bd 19 30 a6 bd 02 5a a4 3d
       -0.04375388 -0.054493822 -0.08114643 0.0802498
0001f0 37 c2 8f 3d cb ac 0e 3d 9b 07 a2 bd de 57 e0 bb
       0.070194654 0.034832757 -0.07911607 -0.006846412
000200 b9 15 20 3c 56 a4 08 3d 13 d2 2c 3c 4e 56 76 bd
       0.009770804 0.033359848 0.0105481325 -0.0601409
000210 4d 90 4c bb 95 22 a4 bd 7b 69 1b 3d 9d c5 48 3d
       -0.003121394 -0.080144085 0.03794239 0.049016584
000220 54 dc 19 bd fa 71 ac bd a2 6b a4 bb aa a4 1f 3d
       -0.037563637 -0.08420177 -0.0050177136 0.038975395
000230 91 74 89 bd 52 ba fa 3c d5 b0 63 3d 96 3e a2 bd
       -0.067116864 0.030606423 0.055588562 -0.079220936
000240 48 ad 2e 3d 61 8b 0b 3d fe 27 55 bd 4f a4 8a 3d
       0.042645723 0.03406847 -0.052040093 0.067696206
000250 4c a5 48 bd 31 ed 7a 3d c4 07 97 bd 1d 9d 82 3d
       -0.048985764 0.06126136 -0.07374528 0.06377623
000260 09 32 d8 bc b5 92 ad bd 15 c9 28 3d c4 09 5e bc
       -0.026391046 -0.08475248 0.04120739 -0.013552133
000270 9e 66 9a 3c 47 06 0f 3d 3b 37 30 3b b6 c2 af 3c
       0.01884776 0.034918096 0.0026888389 0.02145515
000280 fb 89 a6 bd d9 bb ab bd 14 27 47 bd d3 75 58 bd
       -0.081317864 -0.083854385 -0.048621252 -0.05284674
000290 07 89 b6 bd f5 23 f3 3b af d5 5d bc 45 68 d0 bc
       -0.08912855 0.007420058 -0.013539716 -0.025440345
0002a0 09 fe 22 bc eb 2c 15 3d 47 36 22 bd 59 5c 87 ba
       -0.009948262 0.03641979 -0.039602544 -0.0010327204
0002b0 83 7c 60 bc 19 cc 15 3d 40 97 7e bc 14 b8 cf 3c
       -0.013701561 0.036571596 -0.0155389905 0.02535633
0002c0 8c f5 27 bd df 5a 80 3d 56 2b 15 bc 46 9f 0f 3c
       -0.041005656 0.06267332 -0.00910457 0.008766001
0002d0 05 97 14 3d 2e a6 c0 bd 1a 3d 05 3d 52 17 84 3d
       0.036276836 -0.09406696 0.032528974 0.064497605
0002e0 92 3b 3d 3d 20 19 35 3d 81 b1 9d bd 87 bf 90 3d
       0.04619939 0.044213414 -0.07699872 0.07067781
0002f0 fd b7 62 3c 1c 99 bc bd a2 71 97 3d 43 ad 7f 3d
       0.013837812 -0.09208891 0.073947206 0.062421095
000300 b7 1b a5 bc 61 59 a4 3d 23 aa f3 b9 b7 3d 84 3d
       -0.020154817 0.0802486 -0.00046475334 0.06457084
000310 f3 31 ad bd 18 30 b5 bd e0 a1 55 3c 73 2a db bb
       -0.08456793 -0.08847064 0.013039082 -0.00668841
000320 c4 9a a5 bd a7 5d 63 bd be fd 31 3d 0a bb 4d 3d
       -0.0808616 -0.055509236 0.043454878 0.050227202
000330 31 4a 95 bd ce 38 3a bd 0f a7 ad bb 49 82 cc bb
       -0.072895415 -0.04546433 -0.005299456 -0.006241117
000340 df 1a 92 bd 66 63 70 3d 13 fd 8a bd 96 87 68 3d
       -0.071340315 0.058688544 -0.06786551 0.05676993
000350 5f c9 a0 bd d7 9f c0 bd b0 19 85 3c 9e 73 46 bd
       -0.078509085 -0.09405487 0.0162476 -0.048450105
000360 59 13 5a 3d c3 59 11 bd 34 16 21 3b a3 98 74 3d
       0.053241108 -0.035485994 0.0024579884 0.05971588
000370 af b0 81 bd f6 03 63 bd 21 c9 5c 3d b3 bb 8c 3d
       -0.06332528 -0.0554237 0.05390275 0.06871738
000380 28 44 0d 3c ce 98 76 3d 84 9e 42 3d ef 81 32 3d
       0.008622207 0.06020432 0.047514454 0.043580946
000390 43 71 1d bc b5 60 a1 3d e7 8f 0c bd 79 0a 7b ba
       -0.009609523 0.078797735 -0.034316923 -0.00095764507
0003a0 b8 6a 05 bd 21 4c 50 bc fa ed 41 3d b5 e6 78 3d
       -0.032572478 -0.012713463 0.047346093 0.060766894
0003b0 04 10 d1 3b 0a 9b 55 3d 3e 38 63 3d dc 70 15 3d
       0.006380083 0.05214981 0.05547356 0.036484584
0003c0 44 3f 39 bd 63 5a 3b 3d 70 16 8c 3d b4 80 89 3d
       -0.04522635 0.045740496 0.06840217 0.06714001
0003d0 9d da 8a 3c 92 9a 71 3d 7a e5 8a bd 8c 3d 17 3c
       0.016949946 0.0589853 -0.067820504 0.0092309825
0003e0 93 0e ab bd 9f 8d 1b 3d bb a2 fa ba 43 e2 c0 bc
       -0.08352389 0.037976857 -0.0019121984 -0.02354539
0003f0 da 6a 4e 3d 83 cf f3 bc 00 bf f2 3c 51 b3 2a 3d
       0.05039487 -0.029762035 0.029632092 0.041674916

phi.2.bias f4 [64]
000000 d3 94 23 3d d7 0b 66 bd 80 8a f2 3c c9 c8 91 3d
       0.03993685 -0.056163635 0.029607058 0.07118375
000010 75 08 bb 3c 9f 01 a5 bb 03 ea 85 3d fc 47 a2 bd
       0.022831181 -0.0050355936 0.06538775 -0.07923886
000020 23 f4 33 3d 64 3c c2 bc 95 3b b4 bd 22 44 16 3d
       0.043934 -0.023710437 -0.08800427 0.03668607
000030 93 05 c5 bc 81 dd d4 bc 67 e8 3d bd e0 1f 0f bd
       -0.02405051 -0.025984528 -0.046364214 -0.034942508
000040 62 3d a2 bc 40 05 bf bd 26 6f 16 3d ee ab b5 3b
       -0.01980466 -0.09327173 0.036727093 0.0055441773
000050 3f e0 dd 3c 18 e4 9f 3d 16 2e d1 bc d8 ab 73 bd
       0.027084468 0.07807177 -0.02553467 -0.059490055
000060 db e3 81 bd 80 08 95 bc 5d f9 c0 bc b8 1f d1 3c
       -0.06342288 -0.01819253 -0.023556406 0.02552782
000070 fc 4f 09 38 fe 09 c1 3c 70 5c 52 bd 00 ee a8 bd
       3.2737837e-05 0.023564335 -0.051357687 -0.0824852
000080 da e9 61 bb 93 3c 50 3c b0 17 48 bd 55 a3 19 bd
       -0.0034471662 0.0127097545 -0.048850715 -0.03750928
000090 4f 5f af bc 3e ee ae bd 3c 2a 9d 3d c9 2d 6b 3d
       -0.021407751 -0.08541535 0.07674071 0.05741671
0000a0 a3 ea 8f bd 21 3a b9 bd 9e 31 91 3d 40 53 89 3d
       -0.07027175 -0.0904429 0.07089542 0.06705332
0000b0 da 1b b0 bd a9 5b 50 3c a5 b5 7f bd cf 06 91 bd
       -0.08599062 0.012717166 -0.06242909 -0.07081377
0000c0 1f 2d 8a bd c8 ab 64 bb 23 10 9a 3d 05 4a ef 3c
       -0.067468874 -0.0034892429 0.07522609 0.0292101
0000d0 19 65 b3 bd d5 b3 2a 3d 04 de 97 3d 83 cc 66 3d
       -0.08759517 0.041675407 0.07415393 0.05634738
0000e0 4b 50 9b 3d 98 26 6c bd b3 c3 4f bd 5b a5 1d 3d
       0.07583674 -0.057653993 -0.050723743 0.038487773
0000f0 76 a1 9a bd ad fa fb bc 09 49 6c 3d 5f 15 ab 3c
       -0.075503275 -0.03075918 0.05768684 0.020884214
