Results/SectionC_IRM_Invariant_Risk_Minimization/irm_model_coarse.pt (torch, 41276 bytes, 5 tensors)

w f4 [64, 1]
0	0x3f7e7891	0.9940272
1	0x3f7e7faa	0.9941355
2	0x3f7e8305	0.9941867
3	0x3f7e6191	0.99367625
4	0x3f7e6262	0.9936887
5	0x3f7e873a	0.9942509
6	0x3f7e5ee3	0.99363536
7	0x3f7e8758	0.9942527
8	0x3f7e7e57	0.9941153
9	0x3f7e840b	0.9942023
10	0x3f7e8590	0.9942255
11	0x3f7e8014	0.9941418
12	0x3f7e82d5	0.99418384
13	0x3f7e82a9	0.9941812
14	0x3f7e85d6	0.9942297
15	0x3f7e58e0	0.9935436
16	0x3f7e80b7	0.99415153
17	0x3f7e7eda	0.9941231
18	0x3f7e8536	0.99422014
19	0x3f7e746f	0.99396414
20	0x3f7e4062	0.9931699
21	0x3f7e6a2e	0.9938077
22	0x3f7e46e6	0.9932693
23	0x3f7e8359	0.9941917
24	0x3f7e8208	0.9941716
25	0x3f7d7632	0.99008477
26	0x3f7e7ca0	0.9940891
27	0x3f7e7647	0.99399227
28	0x3f7e6b70	0.99382687
29	0x3f7e617c	0.993675
30	0x3f7e6e94	0.9938748
31	0x3f7e5a2c	0.9935634
32	0x3f7e826b	0.9941775
33	0x3f7e69d3	0.99380225
34	0x3f7e80e4	0.9941542
35	0x3f7e8351	0.9941912
36	0x3f7e5e20	0.99362373
37	0x3f7e8637	0.99423546
38	0x3f7e822e	0.9941739
39	0x3f7e8445	0.9942058
40	0x3f7e6ae2	0.9938184
41	0x3f7e8067	0.99414676
42	0x3f7e7700	0.9940033
43	0x3f7e81f1	0.99417025
44	0x3f7e55f9	0.99349934
45	0x3f7e849b	0.9942109
46	0x3f7e8245	0.99417526
47	0x3f7e6487	0.9937214
48	0x3f7e683b	0.99377793
49	0x3f7e74d3	0.9939701
50	0x3f7e83fe	0.99420154
51	0x3f7e7fc8	0.9941373
52	0x3f7e5031	0.9934111
53	0x3f7e50b5	0.993419
54	0x3f7e7e24	0.99411225
55	0x3f7e8187	0.99416393
56	0x3f7e845f	0.9942073
57	0x3f7e83ec	0.99420047
58	0x3f7e7f9c	0.99413466
59	0x3f7e84d4	0.9942143
60	0x3f7e81b4	0.9941666
61	0x3f7e7194	0.99392056
62	0x3f7e81e3	0.9941694
63	0x3f7e8742	0.9942514

phi.0.weight f4 [128, 9]
0	0x3e7e8249	0.24854387
1	0x3e8af861	0.27142623
2	0xbd99df15	-0.07513253
3	0x3e9a5c36	0.30148476
4	0xbd8a1815	-0.067428745
5	0x3d7e424c	0.062074944
6	0xbe2c0687	-0.16799365
7	0x3e4fbec7	0.2028762
8	0x3e9272ec	0.28603303
9	0xbe7307a1	-0.23733379
10	0x3e96d5cb	0.29459986
11	0x3d82456e	0.06360899
12	0x3e7528d6	0.23941359
13	0x3d2124b8	0.03934166
14	0x3e1e2f63	0.15447764
15	0xbd290dd6	-0.04127296
16	0x3e801d9f	0.250226
17	0x3d374b75	0.044749696
18	0xbe2541e2	-0.16138414
19	0x3da23333	0.07919922
20	0xbe1749b6	-0.14774212
21	0xbd379e42	-0.04482866
22	0xbe106e4b	-0.14104573
23	0x3e5c7e45	0.21532543
24	0xbe83bea1	-0.25731376
25	0xbe175b44	-0.14780909
26	0xbdcc8c7e	-0.09987734
27	0xbe52dceb	-0.20592086
28	0x3cc6f4ed	0.024286712
29	0xbea5e215	-0.3239905
30	0x3e96dfa3	0.29467496
31	0xbe942593	-0.28934917
32	0x3e809908	0.25116754
33	0x3d7d6c81	0.061871056
34	0xbdd44e89	-0.10366542
35	0x3e4d42c0	0.20044994
36	0x3d3cb443	0.04607035
37	0x3e86d3d8	0.263335
38	0x3d26b23e	0.04069733
39	0xbde63ce1	-0.112420805
40	0x3dab5488	0.083657324
41	0xbdc61a27	-0.09672957
42	0x3e15bd61	0.14623024
43	0x3e99d8f2	0.3004833
44	0x3e3fa82f	0.187165
45	0xbe1bc37e	-0.15211293
46	0x3e40103f	0.18756197
47	0x3d8a02aa	0.067387894
48	0x3e34cdde	0.17656657
49	0xbe49c81a	-0.19705239
50	0xbea7f455	-0.32803598
51	0xbe0a2e58	-0.13494241
52	0xbe7d876c	-0.2475869
53	0x3e8832bd	0.2660121
54	0x3dcf95d7	0.101360016
55	0x3e077c01	0.13230897
56	0x3dcc1690	0.09965241
57	0xb6cc3cd0	-6.0867533e-06
58	0x3e82958b	0.25504717
59	0xbe6d0994	-0.23148185
60	0x3c7cfecd	0.015441609
61	0xbe6318bc	-0.22177404
62	0x3dc66876	0.09687893
63	0xbdf6930f	-0.12039768
64	0x3ddcbbe5	0.107780255
65	0xbd8310b6	-0.06399672
66	0x3e8a5ef8	0.2702558
67	0xbe446267	-0.19178163
68	0xbe4de92d	-0.20108481
69	0xbe516bd9	-0.20451297
70	0x3e952fbc	0.2913798
71	0x3dd9e1b6	0.10638754
72	0x3ea75b69	0.32686928
73	0xbe8fcfef	-0.28088328
74	0xbeac5d10	-0.3366475
75	0xbe828db6	-0.25498742
76	0xbe5f6db2	-0.21819189
77	0x3e1030ad	0.14081068
78	0x3de8e685	0.11372093
79	0x3e90e0f7	0.28296635
80	0xbe29e20b	-0.16590135
81	0xbe65f21e	-0.22455642
82	0x3e3c4c30	0.18388438
83	0xbe0a352b	-0.13496844
84	0x3e564037	0.20922934
85	0xbd930b5f	-0.07179903
86	0x3e4ad08e	0.1980612
87	0xbe87c7aa	-0.2651952
88	0xbe2bfe97	-0.16796337
89	0x3dd56cd5	0.10421149
90	0x3d855047	0.06509452
91	0xbdbdfad2	-0.09276356
92	0x3e4af372	0.1981943
93	0x3e6107b4	0.21975595
94	0xbe7193d7	-0.23591553
95	0xbe30da73	-0.17270832
96	0x3e98cac9	0.29842213
97	0xbde081f0	-0.109622836
98	0xbdf9fbbc	-0.12206218
99	0xbea22106	-0.3166582
100	0xbe495a88	-0.19663441
101	0x3d9e66db	0.07734462
102	0xbd1c93c0	-0.038226843
103	0xbe7d44d0	-0.24733281
104	0x3b00841d	0.0019609996
105	0xbe6ef946	-0.23337278
106	0xbe93bde0	-0.288558
107	0xbe41aa15	-0.18912537
108	0xbe94b173	-0.29041633
109	0xbe58d551	-0.21175124
110	0x3ea702a5	0.32619205
111	0x3d65194a	0.05593232
112	0x3dc683d7	0.09693115
113	0xbea257d8	-0.31707644
114	0xbe5a4329	-0.21314682
115	0xbdf30a09	-0.118671484
116	0x3d44f899	0.048088644
117	0xbe933eda	-0.2875889
118	0xbe190ec2	-0.14947036
119	0xbe526104	-0.20544821
120	0x3bdb9d5e	0.0067021092
121	0xbdf23d0e	-0.118280515
122	0xbc8d48fd	-0.017246718
123	0xbe6cfccf	-0.23143314
124	0xbe704db3	-0.2346714
125	0xbe413190	-0.18866563
126	0xbdde8602	-0.10865404
127	0xbe83bf27	-0.25731775
128	0x3e8c16e9	0.2736123
129	0xbd97d032	-0.07412757
130	0x3e8fdd17	0.28098366
131	0x3dc8aeca	0.09798963
132	0xbe8d809a	-0.27637178
133	0x3e6646db	0.22487967
134	0xbdc7a8f4	-0.09749022
135	0xbe085f8e	-0.13317701
136	0xbe8c2826	-0.2737438
137	0xbea7a174	-0.32740366
138	0x3db5cccc	0.088769525
139	0xbda11eb2	-0.07867183
140	0x3dfb9541	0.12284327
141	0xbe89020a	-0.26759368
142	0x3e7648dc	0.24051231
143	0xbe7e98f7	-0.24863039
144	0xbd51b6b8	-0.051199645
145	0x3d829c55	0.06377474
146	0x3e351d36	0.17686924
147	0x3e86acb4	0.26303637
148	0x3e9883ca	0.29788047
149	0xbe8468bb	-0.25861153
150	0x3d9fc969	0.07802088
151	0xbe0d6fa4	-0.13812119
152	0xbd2c5b2c	-0.042079136
153	0xbe79b9e9	-0.24387325
154	0x3e9e6a60	0.30940533
155	0xbe80035b	-0.2500256
156	0x3e3c9785	0.18417175
157	0x3dfbe568	0.12299615
158	0x3dea1264	0.11429289
159	0xbe33457d	-0.17506976
160	0x3e98410a	0.2973712
161	0x3da1d110	0.07901204
162	0x3d17e904	0.037087455
163	0xbe9367aa	-0.28790027
164	0x3e098fae	0.13433716
165	0xbd648dd1	-0.05579931
166	0xbe166ec3	-0.1469069
167	0x3e8f92ce	0.2804169
168	0x3d9d1be2	0.07671334
169	0xbe36b67e	-0.17843053
170	0xbe32c3f1	-0.17457558
171	0xbc29c2fb	-0.010361428
172	0x3e446474	0.19178945
173	0xbda2524f	-0.07925855
174	0xbe48784c	-0.1957714
175	0xbddde5b7	-0.1083483
176	0xbe8274f5	-0.25479856
177	0x3dfebaf8	0.12438005
178	0x3e81220c	0.25221288
179	0xbe9db942	-0.30805403
180	0x3d95987a	0.07304473
181	0x3e363885	0.17794998
182	0x3d87acaa	0.0662473
183	0xbde780f2	-0.11303891
184	0x3e3820e1	0.17981292
185	0x3e3958aa	0.18100229
186	0x3df39721	0.1189406
187	0xbd5840f6	-0.052796327
188	0xbda7d29a	-0.08194466
189	0x3d2ac11e	0.041688077
190	0xbd5e902b	-0.054336708
191	0xbdd8a881	-0.105790146
192	0x3e5df154	0.2167409
193	0x3e95a086	0.29224032
194	0xbce25cbe	-0.027632114
195	0xbda485a9	-0.08033306
196	0x3c1619e6	0.009161448
197	0xbc602b21	-0.013682158
198	0x3d979ec7	0.07403331
199	0x3db382d4	0.08765188
200	0xbe980316	-0.29689854
201	0xbe03e2cb	-0.12879483
202	0x3e8cc0fa	0.2749098
203	0x3dfe0dc9	0.12404973
204	0xbc30c831	-0.010789917
205	0xbe53aabb	-0.20670597
206	0xbe56cda3	-0.20976882
207	0xbe981d9b	-0.29710087
208	0xbde66121	-0.112489946
209	0x3dd6ca74	0.104878336
210	0x3e52204d	0.20520134
211	0x3e160f40	0.14654255
212	0xbe944e19	-0.28965834
213	0xbe4711d9	-0.19440402
214	0xbd785831	-0.06063098
215	0x3ea8fa86	0.33003634
216	0x3d2dbd52	0.042416878
217	0xbdbc86bd	-0.09205387
218	0x3e153684	0.14571577
219	0xbe07e190	-0.13269639
220	0xbe56e249	-0.20984758
221	0x3e734017	0.23754917
222	0xbe153da1	-0.14574291
223	0xbd7869d1	-0.06064779
224	0xbea6d1fa	-0.32582074
225	0x3e6a28a3	0.22867064
226	0x3e844512	0.25833946
227	0x3decf3d0	0.11569941
228	0xbe6810b7	-0.22662626
229	0xbea59ae7	-0.32344744
230	0xbe8d88e3	-0.276435
231	0x3e821a07	0.25410482
232	0x3e1de7b0	0.15420413
233	0x3e92758b	0.28605303
234	0x3e2c8c6b	0.1685044
235	0x3da0f2d1	0.078588136
236	0x3b26da54	0.0025459724
237	0xbe84b8b3	-0.25922164
238	0xbe8f4e59	-0.27989462
239	0xbe9cb4a5	-0.3060657
240	0x3e05a2f9	0.1305045
241	0xbe219e14	-0.15782958
242	0xbd970ecf	-0.073758714
243	0xbe3e7527	-0.18599378
244	0xbd6164e7	-0.05502787
245	0xbe76669e	-0.24062583
246	0xbe650e4f	-0.2236874
247	0x3ded53d0	0.115882516
248	0xbdd59c06	-0.1043015
249	0x3e58d23f	0.21173953
250	0xbde7371a	-0.11289807
251	0xbe74624c	-0.23865622
252	0xbd886908	-0.06660658
253	0xbe2b3b39	-0.1672181
254	0xbdc3112e	-0.09524761
255	0xbe9f69c5	-0.31135383

phi.0.bias f4 [128]
0	0x3dc3677d	0.09541223
1	0x3d62efbc	0.05540441
2	0xbe4e61ae	-0.2015445
3	0x3d34a640	0.04410386
4	0x3ea150de	0.3150701
5	0x3e67f956	0.22653708
6	0xbe87e538	-0.26542068
7	0x3e97dc73	0.29660377
8	0x3d02e38b	0.031955283
9	0x3e2af888	0.1669637
10	0x3e813e5a	0.25242883
11	0x3e9482ee	0.2900614
12	0xbe886827	-0.26641962
13	0x3e988a86	0.29793185
14	0xbe6de0ee	-0.23230335
15	0x3c992b36	0.018697362
16	0xbe74803a	-0.2387704
17	0xbd89944d	-0.06717739
18	0xbcac4a27	-0.021031452
19	0xbd0c0655	-0.034185726
20	0xbd3f88a8	-0.046761185
21	0x3d022d8d	0.03178172
22	0x3ea55b1d	0.32296076
23	0x3e3f15b8	0.18660629
24	0x3e38ec65	0.18058927
25	0x3e0e5fc6	0.13903722
26	0x3e8110f1	0.25208238
27	0xbc1746e9	-0.009233215
28	0x3ca88f4c	0.020576142
29	0x3d98295a	0.07429762
30	0xbe94d65a	-0.29069787
31	0xbe8663d5	-0.2624804
32	0x3d0fd003	0.035110485
33	0xbe0b8dcf	-0.13628314
34	0xbc370c24	-0.011172328
35	0xbd8bf779	-0.06834311
36	0x3d3e887b	0.046516877
37	0x3e575a80	0.21030617
38	0xbdee5b9f	-0.11638569
39	0x3e85ac40	0.2610798
40	0x3e831b8b	0.2560695
41	0xbe85f2e5	-0.26161876
42	0xbe80b304	-0.25136578
43	0xbe892e3f	-0.26793095
44	0xbe34f26d	-0.17670603
45	0xbe0acd8f	-0.13554977
46	0xbcff8b14	-0.031194247
47	0xbd97db5a	-0.07414885
48	0xbe271b56	-0.16319022
49	0xbde5f7c4	-0.11228898
50	0xbe016655	-0.12636693
51	0x3eaa8e71	0.333118
52	0xbdffb53e	-0.12485741
53	0xbe6d6288	-0.23182118
54	0x3e077693	0.13228826
55	0xbcce0de6	-0.025153112
56	0x3e7f4e09	0.24932112
57	0x3e53258c	0.20619792
58	0x3ea01332	0.31264645
59	0xbe7224f7	-0.23646913
60	0x3e555b68	0.2083565
61	0x3e925019	0.28576735
62	0xbe227dc7	-0.15868293
63	0x3e99c820	0.30035496
64	0x3e79e946	0.24405393
65	0x3be117e2	0.006869302
66	0x3e1ecd91	0.15508105
67	0xbdfadbff	-0.12248992
68	0xbe97fd3a	-0.29685384
69	0x3da097cb	0.07841452
70	0x3dbf832e	0.093511924
71	0xbe675690	-0.22591615
72	0x3e2069d8	0.15665376
73	0xbe94c5cf	-0.29057166
74	0x3e95fad3	0.29292926
75	0x3ea8506f	0.32873866
76	0x3dc6c4d1	0.097055085
77	0xbe5cb769	-0.2155434
78	0x3e300578	0.17189586
79	0x3d4fb7d3	0.050712418
80	0x3dab70ac	0.083711
81	0x3dd4563e	0.10368012
82	0x3e7da9de	0.2477183
83	0xbe15d692	-0.14632633
84	0xbda75642	-0.08170749
85	0x3daec539	0.08533711
86	0x3cf9b911	0.030483754
87	0x3e868afb	0.2627791
88	0xbe398500	-0.18117142
89	0xbbc2d1a3	-0.005945401
90	0x3d650d37	0.055920806
91	0xbda949fa	-0.08266063
92	0x3e615981	0.220068
93	0x3cfc8b7a	0.030828226
94	0xbea0eaa1	-0.31429008
95	0xbd2decbe	-0.042462103
96	0xbe212b56	-0.15739188
97	0x3cd60761	0.026126565
98	0xbd3baf78	-0.045821637
99	0xbea6892a	-0.32526523
100	0xbd606a1a	-0.054788686
101	0xbd1b9683	-0.037985336
102	0xbdd59f66	-0.104307935
103	0x3e9a7a7b	0.3017157
104	0xbd88d708	-0.06681639
105	0x3e5538d8	0.20822465
106	0x3d9d0c75	0.076683916
107	0xbe92c6b1	-0.28667215
108	0x3d933501	0.07187844
109	0x3e906def	0.28208873
110	0xbe593b44	-0.21214014
111	0xbe629aa6	-0.22129306
112	0x3ea3ff41	0.3203068
113	0x3e8626ac	0.2620138
114	0xbe385982	-0.18002895
115	0x3e4760ae	0.19470474
116	0xbd4880d8	-0.048951
117	0xbeab3baf	-0.33443972
118	0x3d075f8a	0.033050098
119	0x3de8bc42	0.11364032
120	0xbdd90cc6	-0.105981395
121	0x3de1da73	0.11027994
122	0xbe95060e	-0.29106182
123	0x3e72a25b	0.23694746
124	0x3e951291	0.29115728
125	0x3e35a74d	0.17739601
126	0x3d4f9102	0.0506754
127	0x3dd7cb6c	0.105368465

phi.2.weight f4 [64, 128]
0	0xbd8f8958	-0.07008618
1	0xbce401da	-0.027832914
2	0xbca92d92	-0.020651612
3	0xbd613182	-0.054978855
4	0xbd91e4e9	-0.07123739
5	0x3d5bf5bd	0.05370115
6	0x3d5cef17	0.05393895
7	0xbdb0352b	-0.08603891
8	0x3c9f6747	0.019458426
9	0x3cf78686	0.030215513
10	0x3da0167a	0.07816787
11	0x3d37ce5d	0.044874538
12	0x3d9a9014	0.07547012
13	0xbd101d3d	-0.035184134
14	0x3d65d6da	0.0561131
15	0x3d8737c5	0.06602434
16	0xbdb6b45b	-0.08921119
17	0xbd9d127b	-0.076695405
18	0x3c3da678	0.011575334
19	0x3d2dfc39	0.042476866
20	0xbd4c804d	-0.049927045
21	0x3b5cda91	0.0033699612
22	0xbc0afa9e	-0.008482603
23	0x3c880240	0.016602635
24	0xbd5d77a5	-0.05406918
25	0x3d33c7ef	0.043891843
26	0x3d5891e6	0.052873515
27	0xbd995654	-0.07487169
28	0xbbb801c4	-0.005615445
29	0xbbb42545	-0.005497607
30	0x3cb1e8fb	0.021717539
31	0x3d92f686	0.07175927
32	0x3ca0b840	0.019619107
33	0xbcd6c5c4	-0.026217349
34	0x3d95cd88	0.073145926
35	0xbd2213eb	-0.039569777
36	0xbd1cef95	-0.03831442
37	0x3994dcab	0.0002839317
38	0xbd95abda	-0.07308169
39	0x3b684e40	0.0035447031
40	0xbd881efb	-0.06646534
41	0x3b5850e5	0.0033007201
42	0x3a7c713b	0.000962991
43	0x3bd46e88	0.006482903
44	0xbda48436	-0.0803303
45	0xbdb7cf17	-0.08975046
46	0x3d0b2f90	0.033980906
47	0x3d8f30bc	0.06991717
48	0xbdac6372	-0.08417405
49	0x3cdafdc6	0.026732337
50	0xbd9136c0	-0.07090521
51	0xb9806cd2	-0.0002449514
52	0x3d9bf658	0.07615346
53	0x3d7af876	0.061272107
54	0xbd9136e8	-0.07090551
55	0x3d480775	0.048835237
56	0x3d239a42	0.039942034
57	0xbbc52bb1	-0.0060171713
58	0x3da35f06	0.07977109
59	0xbd27565d	-0.040853847
60	0xbcd822d7	-0.0263838
61	0xbd4ee713	-0.05051334
62	0x3be29583	0.006914796
63	0x3c7b4d20	0.015338212
64	0x3aa43643	0.0012528378
65	0xbd6a3c0c	-0.05718617
66	0xbd3b1213	-0.045671534
67	0x3cad74e6	0.021173906
68	0xbdaa806b	-0.08325275
69	0xbcb47771	-0.02202961
70	0xbbfd9a9b	-0.0077393777
71	0xbd2a3421	-0.04155362
72	0x3cd4c7ac	0.025974117
73	0xb8e1e9fe	-0.000107724205
74	0x3d64335b	0.05571304
75	0xbc832b57	-0.016011877
76	0xbd7c1738	-0.06154558
77	0x3d65bb6f	0.056086954
78	0x3bd4b4d5	0.0064912834
79	0xbd025df4	-0.031827882
80	0xbd831677	-0.06400769
81	0x3c7525fc	0.014962669
82	0xbdb90a4f	-0.09035169
83	0x3c8f32db	0.017480304
84	0x3d1b7807	0.037956264
85	0xbdaf021a	-0.08545323
86	0xbd83f579	-0.064433046
87	0xbd92eaee	-0.071737155
88	0x3d8a6fcb	0.06759604
89	0x3d8c2fb2	0.06845035
90	0xb9797afb	-0.00023792304
91	0x3d9daaf4	0.07698622
92	0xbd128b8e	-0.03577762
93	0xbdbb8eda	-0.09158106
94	0x3cccff2b	0.025024017
95	0x3cce9667	0.025218202
96	0x3da5af7a	0.0809011
97	0xbbdf2f9c	-0.0068110954
98	0x3d7d3c84	0.06182529
99	0x3d466ef7	0.048445668
100	0x3d6c899a	0.057748415
101	0xbdbf6a97	-0.09346502
102	0x3d734819	0.05939493
103	0xbda71d5e	-0.08159898
104	0x3d967935	0.07347337
105	0xbc31a589	-0.010842689
106	0xbdb18ad7	-0.0866906
107	0x3c9a1406	0.018808376
108	0xbccc4ef0	-0.024939984
109	0xbdae6f68	-0.08517343
110	0xbd1afaa7	-0.037836697
111	0x3b5ccfef	0.0033693274
112	0x3d803507	0.06260114
113	0xbd077885	-0.03307392
114	0x3d381d9e	0.04495012
115	0x3b9ed8f8	0.004847642
116	0xbb3b62ec	-0.0028592898
117	0x3c370346	0.011170214
118	0xbd835c3e	-0.06414078
119	0xbda3d110	-0.0799886
120	0xbd1585d1	-0.03650457
121	0xbdb4762a	-0.088116005
122	0xbd423b90	-0.047420084
123	0xbaf3a9b7	-0.0018590008
124	0xbd8300db	-0.063966475
125	0xbd2dc694	-0.042425707
126	0xbcb966f0	-0.022632092
127	0xbc82a44d	-0.015947485
128	0xbd5f9740	-0.054587603
129	0xbacae810	-0.0015480537
130	0xbc9649d3	-0.018345749
131	0x3c9f97dd	0.019481594
132	0xbaf2eed6	-0.0018534313
133	0xbd4cc92a	-0.049996532
134	0xbd1462ef	-0.036227163
135	0xbbe10eb6	-0.0068682088
136	0xbd7c3ee1	-0.061583403
137	0x3a900763	0.001098853
138	0xbc4686e2	-0.0121171195
139	0x3ce6cb50	0.028173119
140	0x3c76bef8	0.015060179
141	0x3d7649db	0.060129028
142	0xbc0edfaa	-0.008720318
143	0xbd91b645	-0.07114843
144	0x3d0a221c	0.033723935
145	0xbd86395b	-0.065539084
146	0xbc9696e5	-0.018382499
147	0xbd0e6338	-0.03476259
148	0xbd212bab	-0.039348286
149	0xbd1db291	-0.038500372
150	0x3d9a5dae	0.07537399
151	0x3d3750e6	0.044754885
152	0x3c930857	0.017948313
153	0x3d9d8edf	0.07693266
154	0xbdb1d263	-0.08682706
155	0x3c05e870	0.008173093
156	0x3d4fb288	0.05070737
157	0x3d58aff5	0.05290218
158	0xbd9bed3e	-0.0761361
159	0x3cd04a4d	0.025426054
160	0xbd7240cd	-0.05914383
161	0xbc18f85a	-0.009336555
162	0xbcc6b5b0	-0.024256557
163	0xbda310bf	-0.079621784
164	0xbdbbcc22	-0.091697946
165	0xbd831874	-0.064011484
166	0x3d0c5926	0.034264706
167	0x3d0d9582	0.03456641
168	0xbda9a05d	-0.0828254
169	0xbd1fc50b	-0.039006274
170	0xbb8f693f	-0.00437656
171	0xbda9f4bd	-0.08298633
172	0x3d33788d	0.043816138
173	0x3d97f8ee	0.074205264
174	0x3c211a39	0.009832912
175	0xbd9438b5	-0.072373785
176	0x3c7348df	0.014848917
177	0x3cd741dd	0.026276523
178	0x3d83686f	0.064164035
179	0xbd58c972	-0.05292649
180	0xbdae0624	-0.08497265
181	0x3d0758e3	0.033043753
182	0xb99aaaa5	-0.0002950031
183	0xbd0ef070	-0.034897268
184	0xbd2fb832	-0.04290027
185	0xbd5284ed	-0.0513963
186	0x3d868c32	0.06569709
187	0xbcacd186	-0.021096002
188	0x3d6d380a	0.05791477
189	0x3d9593c1	0.073035724
190	0x3bb1678d	0.0054139555
191	0x3c40a351	0.011757688
192	0xbc4262a9	-0.011864343
193	0x3d6024f7	0.054722752
194	0xbdaf1c74	-0.08550349
195	0x3cef3c83	0.029203659
196	0xbca58c82	-0.0202086
197	0x3d0ce000	0.03439331
198	0xbbcbcbe5	-0.0062193745
199	0xbd1dc3cb	-0.0385168
200	0xbc7c08bc	-0.015382942
201	0x3d2b4fd2	0.04182417
202	0xbd8a14ed	-0.067422725
203	0xbd7d35db	-0.06181894
204	0xbcd4274e	-0.025897648
205	0xbd1b0b6f	-0.0378527
206	0x3cec6ce1	0.028860511
207	0x3d5be794	0.053687647
208	0xbc7a4c1c	-0.015276935
209	0x3d9f2b31	0.0777191
210	0xbd2f2043	-0.042755377
211	0xbd62f901	-0.05541325
212	0xbd39b2ba	-0.045336463
213	0xbd88a906	-0.06672864
214	0xbd8ae569	-0.06782038
215	0xbdad50df	-0.084626906
216	0xbdaca9b4	-0.08430806
217	0x3c8b447f	0.017000435
218	0x3d44f38a	0.04808382
219	0x3d9cf407	0.07663732
220	0x3d8df9c9	0.06932408
221	0xbc32fee4	-0.0109250285
222	0x3c3a722d	0.011379761
223	0xbd704e73	-0.058668565
224	0x3ce83849	0.028347151
225	0xbdb9731a	-0.09055157
226	0x3d13152c	0.035908863
227	0x3c2b3777	0.010450236
228	0x3caedcd4	0.021345533
229	0x3cd991c2	0.02655876
230	0xbd3e2d11	-0.046429697
231	0x3d8f6ab1	0.07002772
232	0x3cfe81b6	0.03106771
233	0x3d55b4a3	0.05217422
234	0x3bbec2ce	0.0058215624
235	0x3d4b9c21	0.049709443
236	0x3d5b682d	0.053566147
237	0x3d0bbd64	0.034116164
238	0x3d7c0680	0.061529636
239	0xbcb3374f	-0.02187696
240	0x3d547c58	0.051876396
241	0x3c6ba514	0.014382619
242	0x3d419caf	0.047268566
243	0x3da43b04	0.08019069
244	0x3c6702cc	0.014099788
245	0xbd1e31b9	-0.038621638
246	0xbc6fa4bb	-0.014626677
247	0x3c9b7656	0.018977325
248	0x3c136016	0.008995077
249	0xbcf5ca5d	-0.03000372
250	0x3d81fccf	0.063470475
251	0x3d28fff0	0.041259706
252	0xbd78ff63	-0.06079043
253	0xbc5630f7	-0.013073198
254	0xbc69d3f6	-0.014271727
255	0xbd7b9556	-0.061421715

phi.2.bias f4 [64]
0	0xbd82de0b	-0.063900076
1	0x3da7a9c6	0.081866786
2	0xbd27fd0c	-0.04101281
3	0x3cde2c5d	0.027120763
4	0x3d97bd9b	0.07409211
5	0xbc31ba0e	-0.010847582
6	0xbdabd632	-0.08390464
7	0xbdbaec7d	-0.09127138
8	0x3da610ce	0.08108674
9	0xbdb572bf	-0.08859777
10	0xbd1e08f0	-0.038582742
11	0x3d5e66d1	0.054297272
12	0xbd98e8ae	-0.07466255
13	0x3d9d1a40	0.076710224
14	0x3b363266	0.0027801036
15	0x3cad4a8a	0.021153707
16	0x3c0388b5	0.008028199
17	0x3b78daec	0.0037972284
18	0x3d3352d9	0.04378018
19	0xbda9e522	-0.08295657
20	0x3c4e7a6b	0.012602429
21	0xbd3e0a2e	-0.046396427
22	0x3d9e8528	0.07740241
23	0x3d89c291	0.06726564
24	0xbd26203f	-0.040558096
25	0x3d18db5d	0.037318576
26	0xbcb081d6	-0.021546286
27	0x3d253e65	0.040342707
28	0xbcfff148	-0.031242982
29	0xbd6d578f	-0.05794483
30	0x3cfeccc2	0.031103496
31	0x3d19dce8	0.03756419
32	0x3d96f767	0.07371407
33	0x3cb296a4	0.021800347
34	0xbd39de27	-0.045377877
35	0x3c890999	0.01672821
36	0xbad1b00b	-0.00159979
37	0x3d919eb9	0.07110352
38	0x3cf941f3	0.030426955
39	0x3d8e632f	0.069525115
40	0x39b1f0b1	0.000339394
41	0xbd9541f2	-0.07287969
42	0xbd809975	-0.062792696
43	0x3d97476c	0.073866695
44	0x3d953278	0.07285017
45	0x3caa673e	0.020801183
46	0xbd8d19f1	-0.068897136
47	0x3d6ecb19	0.058299158
48	0x3cf9a0cf	0.030472187
49	0xbd9ce61c	-0.076610774
50	0x3ca338ad	0.019924486
51	0x3da20871	0.07911766
52	0xbd868866	-0.06568985
53	0x39e30c27	0.00043305868
54	0x3c9e6aac	0.019337974
55	0xbd1a8827	-0.0377275
56	0x3d566929	0.052346382
57	0x3d94fa90	0.072743535
58	0x3da4200e	0.080139264
59	0xbdadf691	-0.084942944
60	0xba758005	-0.00093650847
61	0x3d8706c6	0.06593089
62	0x3d8e23b6	0.06940405
63	0xbce9adfe	-0.028525349
