Results/SectionC_IRM_Invariant_Risk_Minimization/irm_model_full.pt (torch, 41254 bytes, 5 tensors)

w f4 [64, 1]
0.9925642 0.993341 0.99272907 0.99271286 0.9942049 0.99234533 0.99398035 0.99272346
0.9938838 0.99250686 0.99365455 0.9924777 0.99314463 0.9926845 0.99243474 0.99216807
0.99230325 0.9923451 0.99373966 0.99279463 0.99381423 0.9941268 0.9939998 0.99425954
0.9938105 0.99319935 0.9936619 0.9935052 0.9923968 0.99288857 0.9934851 0.9935633
0.9922457 0.99397224 0.9921187 0.9930421 0.99375916 0.99250686 0.99282503 0.99290806
0.99269855 0.9922253 0.99407136 0.99286354 0.99313515 0.9918854 0.99164575 0.9928552
0.99228257 0.9931143 0.9923878 0.9936695 0.9920502 0.99384487 0.9925869 0.993167
0.9941033 0.99272174 0.9924127 0.9923636 0.9932477 0.9942607 0.9942537 0.9925741
00000000: b018 7e3f 994b 7e3f 7e23 7e3f 6e22 7e3f
00000010: 3684 7e3f 580a 7e3f 7f75 7e3f 2023 7e3f
00000020: 2b6f 7e3f ee14 7e3f 2560 7e3f 0513 7e3f
00000030: ba3e 7e3f 9220 7e3f 3410 7e3f bafe 7d3f
00000040: 9607 7e3f 540a 7e3f b965 7e3f ca27 7e3f
00000050: 9c6a 7e3f 187f 7e3f c576 7e3f cb87 7e3f
00000060: 5d6a 7e3f 5042 7e3f a060 7e3f 5b56 7e3f
00000070: b70d 7e3f f22d 7e3f 0a55 7e3f 2a5a 7e3f
00000080: d003 7e3f f774 7e3f 7efb 7d3f 0238 7e3f
00000090: 0067 7e3f ee14 7e3f c829 7e3f 392f 7e3f
000000a0: 7e21 7e3f 7a02 7e3f 767b 7e3f 4e2c 7e3f
000000b0: 1b3e 7e3f 34ec 7d3f 7fdc 7d3f c22b 7e3f
000000c0: 3b06 7e3f bd3c 7e3f 200d 7e3f 2061 7e3f
000000d0: 00f7 7d3f 9e6c 7e3f 2d1a 7e3f 3140 7e3f
000000e0: 8e7d 7e3f 0323 7e3f c20e 7e3f 8a0b 7e3f
000000f0: 7b45 7e3f df87 7e3f 6987 7e3f 5619 7e3f

phi.0.weight f4 [128, 9]
-0.096782595 0.1266336 -0.15739237 -0.16807866 0.09861999 -0.15294689 0.22538319 0.14456567
0.19495109 0.23099115 0.046779897 -0.11542697 -0.27421364 -0.09539146 -0.27246413 0.20187598
0.033027567 -0.14652996 -0.016340325 0.23368317 -0.13866347 0.058540687 0.04207946 -0.052045528
-0.07380018 0.12729716 -0.097436324 -0.28077176 0.08234039 -0.1866965 -0.17391801 0.01593355
0.15236033 -0.08967572 -0.20755802 0.1497432 -0.21242899 0.07927189 0.10146457 -0.0021028721
-0.09112653 -0.051927797 -0.1815696 0.22455019 -0.036123607 -0.14615732 -0.1766813 0.15122278
-0.19894591 0.1297108 -0.006915821 -0.30180338 0.20882519 0.12542705 0.13411482 -0.14421515
-0.28452048 0.15124996 -0.25150517 0.14978893 0.2977092 -0.04358538 -0.26314285 0.24205531
-0.31231984 -0.10332376 -0.24045749 0.1329727 0.30083054 -0.21734482 -0.18424451 0.26509467
0.15557386 0.24158761 -0.23164073 0.30753747 -0.12586686 -0.18415718 -0.1170751 0.029209642
0.18971424 -0.0789971 -0.23125118 0.04843299 -0.3269704 -0.2712919 0.064796455 0.2916065
-0.19891086 0.19554394 -0.20174164 -0.12023908 0.33641225 0.096284844 -0.14645177 -0.15581855
0.079064555 0.21292081 0.24493976 0.016047591 -0.15898235 0.17406368 -0.27250245 -0.012049148
-0.2989521 -0.071847714 0.004917032 0.26799414 0.06788439 -0.21535194 0.1605198 0.006248027
-0.20910388 -0.27418658 0.0727226 -0.18399332 -0.1305083 -0.16485938 -0.25418457 -0.22169903
-0.04373898 -0.0022006326 0.23093042 -0.27796426 0.29140064 0.3138116 -0.31599674 0.2076022
0.26603985 -0.24687397 0.16618031 0.14572762 0.16798562 -0.11836079 -0.1678285 0.005991389
-0.10950237 0.14134112 -0.25499344 0.29133546 -0.10196122 0.19749531 -0.11458029 -0.04379715
0.056101874 -0.3000237 0.14755657 0.30736604 -0.24531247 0.13361408 -0.30233034 -0.021547642
-0.14611967 -0.28224245 0.13941209 0.2022106 0.039699607 0.11792969 -0.17687576 0.21428496
-0.2703891 -0.08587433 -0.113271065 -0.1499676 0.269201 0.26361313 0.1774668 -0.124818124
-0.21201731 -0.09884267 -0.13524696 0.030776875 0.16063006 0.3196909 0.22689208 -0.2656569
0.2795435 -0.30179745 0.04431958 0.03570062 -0.065056 -0.0969527 -0.14949983 0.18537137
-0.20671357 0.0709962 0.1260947 0.249038 0.012177412 0.27912903 -0.3192703 -0.17724064
-0.2827808 -0.017118353 -0.20484152 0.21597998 -0.15143457 0.023448262 0.2738148 -0.32144752
0.14465249 -0.27713037 0.1527283 -0.08637202 -0.2882071 0.062060956 0.019240841 0.10758063
0.19429442 -0.027358515 -0.14670691 0.31723085 -0.1023481 0.27789038 0.22977445 -0.33103892
-0.10279572 0.014229088 -0.2598069 0.05100994 -0.13176227 -0.16492908 0.23951267 0.14948753
0.3244991 -0.05938331 -0.100951016 -0.22000174 0.03192419 0.26950398 -0.030029988 -0.12503926
0.20796616 0.021190898 0.05633495 0.32129908 0.31231803 0.3244443 -0.30937806 0.06502521
0.2634222 0.29307032 -0.29746062 0.23891167 -0.15876025 -0.16362828 -0.18220481 -0.17227249
-0.046097443 -0.014244136 -0.13963176 0.21176477 -0.18355668 0.30440503 -0.30875346 0.115719765
00000000: f435 c6bd 3dac 013e 772b 21be d01c 2cbe
00000010: 47f9 c93d 1c9e 1cbe daca 663e 0609 143e
00000020: 42a1 473e f288 6c3e 479c 3f3d fa64 ecbd
00000030: bb65 8cbe 995c c3bd 6b80 8bbe 94b8 4e3e
00000040: ea47 073d f30b 16be 25dc 85bc a44a 6f3e
00000050: ccfd 0dbe 5cc8 6f3d 835b 2c3d b12d 55bd
00000060: 8c24 97bd 305a 023e b28c c7bd 51c1 8fbe
00000070: 14a2 a83d 5e2d 3fbe 9017 32be 1487 823c
00000080: 5904 1c3e e7a7 b7bd 178a 54be 4856 193e
00000090: fc86 59be 4d59 a23d a8cc cf3d 57d0 09bb
000000a0: 8ca0 babd 3eb2 54bd 62ed 39be 7cf0 653e
000000b0: 59f6 13bd 44aa 15be f1eb 34be 25da 1a3e
000000c0: 7ab8 4bbe e8d2 043e 1d9e e2bb f985 9abe
000000d0: 45d6 553e f36f 003e 6555 093e 23ad 13be
000000e0: abac 91be 45e1 1a3e 49c5 80be 4562 193e
000000f0: 576d 983e 9586 32bd a9ba 86be 59dd 773e
00000100: 63e8 9fbe 689b d3bd 7d3a 76be ff29 083e
00000110: 7606 9a3e a48f 5ebe 98aa 3cbe 7dba 873e
00000120: c14e 1f3e be62 773e 3a33 6dbe 8d75 9d3e
00000130: 3ee3 00be b393 3cbe 12c5 efbd 0f49 ef3c
00000140: 7344 423e 3bc9 a1bd 1ccd 6cbe ac61 463d
00000150: aa68 a7be c6e6 8abe 01b4 843d 724d 953e
00000160: 4aaf 4bbe ac3c 483e 5c95 4ebe e83f f6bd
00000170: 3a3e ac3e fd30 c53d 74f7 15be e68e 1fbe
00000180: 99ec a13d ea07 5a3e 7dd1 7a3e 3d76 833c
00000190: 45cc 22be c03d 323e 7185 8bbe ca69 45bc
000001a0: 4010 99be e524 93bd 0e1f a13b 8736 893e
000001b0: f906 8b3d 3885 5cbe 4d5f 243e 40bc cc3b
000001c0: 541f 56be 2f62 8cbe 96ef 943d bf68 3cbe
000001d0: f8a3 05be e6d0 28be 7b24 82be 1205 63be
000001e0: a527 33bd 7d38 10bb 0679 6c3e 5551 8ebe
000001f0: 7732 953e eaab a03e 53ca a1be ac95 543e
00000200: 6036 883e 88cc 7cbe 2c2b 2a3e 9f39 153e
00000210: 6c04 2c3e 2467 f2bd 3cdb 2bbe 6a53 c43b
00000220: c742 e0bd babb 103e 808e 82be ec29 953e
00000230: 0bd1 d0bd 363c 4a3e 12a9 eabd a464 33bd
00000240: 14cb 653d b59c 99be 1219 173e 155f 9d3e
00000250: 3133 7bbe 21d2 083e 0bcb 9abe ae84 b0bc
00000260: 65a0 15be 1582 90be 0bc2 0e3e 4c10 4f3e
00000270: 0e9c 223d 1f85 f13d eb1e 35be 846d 5b3e
00000280: 7170 8abe e1de afbd a9fa e7bd 1b91 19be
00000290: b7d4 893e 4df8 863e dbb9 353e a5a0 ffbd
000002a0: 111b 59be 076e cabd 2e7e 0abe c91f fc3c
000002b0: 357c 243e 87ae a33e 6656 683e 2e04 88be
000002c0: 5320 8f3e 3285 9abe 7388 353d d03a 123d
000002d0: 153c 85bd 238f c6bd 7c16 19be fed1 3d3e
000002e0: b9ac 53be 7566 913d f81e 013e d103 7f3e
000002f0: c583 473c 00ea 8e3e 6677 a3be 927e 35be
00000300: a5c8 90be ca3b 8cbc fac1 51be db29 5d3e
00000310: aa11 1bbe 9216 c03c 7431 8c3e c594 a4be
00000320: c81f 143e 08e4 8dbe cf64 1c3e d0e3 b0bd
00000330: e28f 93be a133 7e3d f89e 9d3c 3c53 dc3d
00000340: 1ef5 463e f71e e0bc 563a 16be 156c a23e
00000350: e19b d1bd a647 8e3e fe49 6b3e ef7d a9be
00000360: 9086 d2bd 1f21 693c 6905 85be cdef 503d
00000370: b0ec 06be 2be3 28be cf42 753e 4213 193e
00000380: bf24 a63e ea3b 73bd 68bf cebd 2348 61be
00000390: f1c2 023d 6dfc 893e 7301 f6bc 4b0a 00be
000003a0: 15f5 543e 8998 ad3c 7abf 663d 5081 a43e
000003b0: 26e8 9f3e 901d a63e cd66 9ebe f02b 853d
000003c0: 46df 863e 500d 963e c24c 98be 43a5 743e
000003d0: 0c92 22be 2c8e 27be e693 3abe 3368 30be
000003e0: acd0 3cbd 3d60 69bc a1fb 0ebe ddd8 583e
000003f0: 48f6 3bbe fada 9b3e ef14 9ebe 7cfe ec3d

phi.0.bias f4 [128]
-0.11818128 -0.20406416 0.3149959 -0.32323283 -0.24277338 0.09825172 0.29652727 -0.17276974
-0.17507486 -0.17111567 0.22162312 -0.02289271 -0.2626901 -0.14109395 -0.2757655 0.13734187
-0.15974022 0.017951006 0.23299123 0.22865558 -0.33198056 0.15393469 0.2884698 0.25520998
0.11381385 -0.005150493 -0.18648288 -0.17563379 -0.18217613 -0.087649494 0.1774727 0.31663656
0.19872698 -0.09507804 0.027668118 -0.12876317 -0.103530474 -0.06324069 -0.020651175 0.0315952
0.1585292 0.12461246 0.22352897 0.037790846 -0.27356955 0.027163915 0.12992434 -0.29627222
0.007560101 0.19882497 -0.21296974 0.15040746 -0.21075232 0.12050545 0.12662983 0.14148416
-0.232715 0.14093696 -0.24020223 -0.17435515 0.14371389 -0.22563685 0.18084744 0.1652255
0.31267026 -0.1825195 0.08162178 0.2685809 0.11689129 -0.089481324 0.28395635 0.21027607
0.084837444 -0.11212696 -0.19735803 0.28927258 -0.0036341154 -0.058958802 -0.0092500765 -0.18372191
0.14948298 0.07222954 0.07296458 -0.058711056 0.105533846 0.29088804 0.18433091 0.30460653
0.09667354 0.16442813 -0.11427836 -0.22513567 0.16586825 0.037620094 -0.016189419 0.054860476
0.12836157 -0.02063918 0.15624227 0.31687766 -0.05417802 -0.09889797 -0.14694734 0.21790572
-0.099452704 0.06966488 -0.23454696 0.09559683 -0.25818703 0.04519713 -0.20130627 -0.31147942
0.011838027 0.10078291 -0.23840058 -0.18607654 0.21624348 -0.04133564 0.2055588 -0.18090378
-0.09796007 0.16635484 -0.28540257 0.09083304 -0.19957475 -0.17090033 0.056565873 0.18418553
00000000: 0709 f2bd 32f6 50be 2547 a13e c67e a5be
00000010: 9699 78be 3338 c93d 6cd2 973e 8dea 30be
00000020: d346 33be f238 2fbe 2cf1 623e 7e89 bbbc
00000030: 517f 86be ef7a 10be 2331 8dbe 59a3 0c3e
00000040: f192 23be fd0d 933c 4195 6e3e b024 6a3e
00000050: 5bf9 a9be 0ea1 1d3e 50b2 933e e2aa 823e
00000060: 3c17 e93d 77c5 a8bb 5ef5 3ebe 58d9 33be
00000070: 618c 3abe 9481 b3bd 67bb 353e 301e a23e
00000080: 167f 4b3e 47b8 c2bd 40a8 e23c 7eda 03be
00000090: c907 d4bd 5684 81bd a72c a9bc f869 013d
000000a0: 7b55 223e d134 ff3d c7e4 643e 93ca 1a3d
000000b0: 4f11 8cbe dc86 de3c e30a 053e feb0 97be
000000c0: b9ba f73b c698 4b3e bd14 5abe 6a04 1a3e
000000d0: 75cf 57be 90cb f63d 40ab 013e 39e1 103e
000000e0: d74c 6ebe c751 103e 93f7 75be 288a 32be
000000f0: bc29 133e 590d 67be 1230 393e e030 293e
00000100: 5116 a03e 64e6 3abe 5229 a73d 7083 893e
00000110: b364 ef3d fc41 b7bd ba62 913e 9c52 573e
00000120: 41bf ad3d d2a2 e5bd 3918 4abe 891b 943e
00000130: 572a 6ebb c97e 71bd a28d 17bc 9921 3cbe
00000140: 1112 193e 15ed 933d 746e 953d 017b 70bd
00000150: 2122 d83d 47ef 943e 3ec1 3c3e 63f5 9b3e
00000160: c7fc c53d d95f 283e c60a eabd f789 66be
00000170: 5ed9 293e 8717 1a3d ac9f 84bc 61b5 603d
00000180: 3771 033e 7f13 a9bc f9fd 1f3e ca3d a23e
00000190: c6e9 5dbd 058b cabd 5d79 16be ad22 5f3e
000001a0: dcad cbbd 76ac 8e3d 142d 70be 45c8 c33d
000001b0: 1731 84be a020 393d 3b23 4ebe 3b7a 9fbe
000001c0: 49f4 413c 4567 ce3d 481f 74be d98a 3ebe
000001d0: ee6e 5d3e 8f4f 29bd 027e 523e d73e 39be
000001e0: 4a9f c8bd ec58 2a3e 4920 92be ac06 ba3d
000001f0: 535d 4cbe 7f00 2fbe 9eb1 673d 229b 3c3e

phi.2.weight f4 [64, 128]
-0.05327414 0.00012444737 -0.021118004 -0.06976833 -0.020983618 0.0030255157 -0.048749246 -0.05152102
0.0641399 -0.05960029 -0.014955865 0.05904904 -0.042601798 -0.07418973 -0.05209026 -0.07730297
0.056377515 -0.048085127 0.023452064 0.04086289 -0.027354173 0.03061069 0.067103654 -0.019507939
0.022801166 -0.051093046 0.059492823 -0.09073612 -0.028038934 0.0013863079 -0.07619532 -0.07339971
0.03841303 -0.08182263 -0.008543352 0.072345115 -0.08057742 0.08040272 0.06405796 -0.031473316
0.021520015 -0.031260356 -0.051978324 0.047201976 0.0058739386 0.024966408 0.07301784 -0.016753033
-0.017960956 -0.083797045 -0.085527845 -0.05514231 -0.061845176 0.060487654 -0.043579098 -0.021581851
0.056408517 -0.048992224 -0.0025082936 -0.08493837 0.058318585 -0.0928209 0.04587509 -0.014530827
-0.046104055 -0.026572078 -0.07562335 -0.035382155 0.055114254 0.06519509 0.044661056 -0.03950972
-0.029454662 0.02794281 -0.092464864 -0.08646822 -0.089907065 0.077084534 0.030973604 -0.0503607
-0.03135879 0.009974242 0.021259844 0.0062112524 0.032706577 0.007819272 -0.030803842 0.017761692
0.047801323 -0.018830018 0.014541795 -0.09509474 -0.0868416 -0.08867745 0.0208971 -0.060571004
0.032252677 -0.002371038 0.025091996 -0.08064827 0.07043935 -0.08331545 -0.03407665 -0.016374713
0.009960306 -0.01978426 -0.092588596 -0.063365355 -0.056292083 0.07936939 0.01639078 0.048984975
-0.042710893 0.04663716 -0.046528243 0.019997224 0.026507406 0.07766241 0.01651501 -0.01338455
0.06494236 0.054840285 -0.06773876 -0.044628125 0.053188324 -0.037454043 -0.045084737 -0.019986572
0.0456306 -0.084742665 0.0429327 0.0018089738 0.035751566 -0.07313555 -0.01572155 0.063387126
-0.04744411 0.0015409649 0.0027530128 -0.058393624 0.07597612 -0.09167715 0.0035984062 -0.025821306
0.07202781 0.04644399 -0.07743974 -0.016759155 0.0739533 -0.00017305234 0.034945693 -0.08046426
-0.030748231 -0.09364012 -0.069559865 -0.071193255 -0.020841923 0.0050399904 -0.09437612 -0.036770474
-0.007917085 0.081037045 -0.033012256 -0.06697491 0.009311857 0.0018735362 -0.005809528 -0.027478876
-0.01100883 0.060303003 -0.07569551 0.030763574 -0.045008704 0.019003324 -0.05216773 -0.07505193
0.02861525 0.01753078 0.034559757 -0.03784641 0.010823139 0.056155715 0.059354223 0.051126424
-0.026727008 -0.05355382 0.0016868297 -0.067493096 -0.033661917 0.004371451 0.02490843 -0.015572211
0.026188722 -0.08163967 0.025878398 -0.06518541 -0.07923203 0.0015203755 0.07136533 0.0044851983
0.02414886 -0.01875555 -0.0037248253 0.0016847166 -0.046025403 0.06320045 -0.0635732 0.03811686
0.051829148 -0.05221303 0.06932725 0.027858118 0.06978495 0.027754383 -0.0580052 0.046277393
0.065610275 0.046734754 0.023296073 0.007814541 -0.00017377178 0.08071247 -0.05159239 0.0139999725
-0.010458378 0.07189934 0.043834932 -0.060667958 0.034435138 -0.034538295 0.0549497 -0.08301356
-0.08588962 0.031605523 -0.03037516 0.014607784 0.065510124 -0.069506176 -0.016907088 -0.03726365
0.04203748 -0.039227564 0.066964634 -0.002893193 0.017400108 -0.05197141 -0.011850517 -0.08513993
-0.047932822 -0.03209198 -0.08282221 -0.007895064 0.037300028 -0.060658436 -0.014377949 0.0581636
00000000: fc35 5abd 167e 0239 aaff acbc b3e2 8ebd
00000010: d6e5 abbc bb47 463b 4aad 47bd b407 53bd
00000020: c85b 833d 6f1f 74bd 7209 75bc 68dd 713d
00000030: 397f 2ebd c9f0 97bd 995c 55bd 0551 9ebd
00000040: 1cec 663d e9f4 44bd 8b1e c03c d95f 273d
00000050: dc15 e0bc 45c3 fa3c a46d 893d 1dcf 9fbc
00000060: 83c9 ba3c f146 51bd bfae 733d dcd3 b9bd
00000070: e8b1 e5bc c6b4 b53a 4b0c 9cbd 9652 96bd
00000080: fb56 1d3d 9f92 a7bd 6af9 0bbc ad29 943d
00000090: c605 a5bd 2eaa a43d d230 833d 2aea 00bd
000000a0: be4a b03c dc0a 00bd 39e7 54bd dc56 413d
000000b0: 2b7a c03b 5a86 cc3c 618a 953d a83d 89bc
000000c0: db22 93bc c99d abbd 3929 afbd e7dc 61bd
000000d0: 5e51 7dbd e7c1 773d ff7f 32bd 6ccc b0bc
000000e0: 9e0c 673d 12ac 48bd 2f62 24bb 2bf4 adbd
000000f0: 78df 6e3d e218 bebd 85e7 3b3d b512 6ebc
00000100: 9bd7 3cbd b0ad d9bc 6ae0 9abd e1ec 10bd
00000110: 7cbf 613d 0185 853d 83ee 363d f2d4 21bd
00000120: e74a f1bc 52e8 e43c 385e bdbd 4016 b1bd
00000130: 3221 b8bd 7fde 9d3d 5bbc fd3c 0547 4ebd
00000140: 1372 00bd 016b 233c 2029 ae3c c387 cb3b
00000150: 55f7 053d 671c 003c 5758 fcbc f880 913c
00000160: 52cb 433d 6941 9abc b540 6e3c 08c1 c2bd
00000170: 02da b1bd 869c b5bd 6530 ab3c 4d19 78bd
00000180: 621b 043d 6b63 1bbb bb8d cd3c ec2a a5bd
00000190: 8242 903d 4aa1 aabd f593 0bbd 4324 86bc
000001a0: 8d30 233c 9a12 a2bc 179f bdbd b2c5 81bd
000001b0: 8792 66bd 6b8c a23d f545 863c 78a4 483d
000001c0: 9ef1 2ebd 9b06 3f3d 6694 3ebd 38d1 a33c
000001d0: 0f26 d93c 780d 9f3d 7c4a 873c df4a 5bbc
000001e0: 8000 853d 35a0 603d 9eba 8abd fbcb 36bd
000001f0: 00dc 593d 6969 19bd c6aa 38bd e1ba a3bc
00000200: 27e7 3a3d 908d adbd 33da 2f3d 171b ed3a
00000210: 3c70 123d 17c8 95bd 7bca 80bc 1cd1 813d
00000220: c154 42bd 34fa c93a e46b 343b 272e 6fbd
00000230: 5e99 9b3d 3bc1 bbbd 3dd3 6b3b 3487 d3bc
00000240: 5183 933d 0e3c 3e3d ba98 9ebd 7f4a 89bc
00000250: d474 973d 6275 35b9 3723 0f3d 72ca a4bd
00000260: b7e3 fbbc 64c6 bfbd 6775 8ebd c5cd 91bd
00000270: aebc aabc 8126 a53b 4448 c1bd a39c 16bd
00000280: a9b6 01bc c0f6 a53d dc37 07bd 242a 89bd
00000290: c290 183c 7191 f53a da5d bebb 611b e1bc
000002a0: 615e 34bc 4800 773d 3f06 9bbd e403 fc3c
000002b0: 0c5b 38bd dcac 9b3c d4ad 55bd d4b4 99bd
000002c0: 876a ea3c b69c 8f3c 888e 0d3d d604 1bbd
000002d0: 8953 313c 8903 663d 6a1d 733d f169 513d
000002e0: 99f2 dabc 405b 5bbd 9d18 dd3a d239 8abd
000002f0: 14e1 09bd 643e 8f3b c40c cc3c 9622 7fbc
00000300: bb89 d63c b332 a7bd effe d33c ee7f 85bd
00000310: 6744 a2bd 5647 c73a fc27 923d 92f8 923b
00000320: d4d3 c53c 3da5 99bc 331c 74bb b5d1 dc3a
00000330: 2285 3cbd 3d6f 813d aa32 82bd 6d20 1c3d
00000340: cd4a 543d 55dd 55bd 72fb 8d3d b536 e43c
00000350: 69eb 8e3d 295d e33c dc96 6dbd 5d8d 3d3d
00000360: ae5e 863d f16c 3f3d 68d7 be3c 9008 003c
00000370: 8236 36b9 944c a53d 8b52 53bd 2460 653c
00000380: 9e59 2bbc f63f 933d 428c 333d f77e 78bd
00000390: dc0b 0d3d 0778 0dbd f012 613d 0303 aabd
000003a0: e6e6 afbd cb74 013d 54d5 f8bc 7d55 6f3c
000003b0: 2c2a 863d 4159 8ebd bc80 8abc c5a1 18bd
000003c0: 7e2f 2c3d 15ad 20bd c124 893d b99b 3dbb
000003d0: ac8a 8e3c f9df 54bd ac28 42bc d85d aebd
000003e0: 3555 44bd e172 03bd b19e a9bd 4c5a 01bc
000003f0: eac7 183d fb74 78bd 7d91 6bbc f43c 6e3d

phi.2.bias f4 [64]
0.07922572 -0.052492265 0.02517734 0.05998966 -0.025239514 -0.060813785 -0.061038107 0.009725056
0.061658587 0.04778377 -0.06163806 -0.07586045 -0.04800512 -0.0416359 0.020198496 -0.04851209
0.020856991 -0.06409792 0.07465283 -0.080086686 -0.011353576 0.030061591 0.06598168 -0.093281925
-0.08410918 0.060270634 -0.011988782 0.027717441 0.05359186 0.062488098 -0.07320321 -0.030486919
-0.074631445 -0.061317537 0.0418617 0.05195406 0.014230761 -0.042547442 -0.054412056 -0.025894325
0.012922403 0.043318786 0.02491061 0.036067136 0.034355916 0.021213602 -0.0070031798 0.014579664
-0.044514466 0.011732165 -0.06993574 -0.07545238 -0.040337678 -0.06818043 -0.018383082 0.07928483
0.04405507 0.0040074033 -0.03457855 -0.045229264 -0.0010469217 -0.025664166 -0.01999534 -0.0786908
00000000: 1841 a23d 2102 57bd b540 ce3c b8b7 753d
00000010: 19c3 cebc e017 79bd 1803 7abd d755 1f3c
00000020: b78d 7c3d eab8 433d 3178 7cbd b95c 9bbd
00000030: 04a1 44bd 688a 2abd 5177 a53c 9db4 46bd
00000040: 48dc aa3c c545 83bd 95e3 983d 7d04 a4bd
00000050: 5904 3abc ba43 f63c 6721 873d 980a bfbd
00000060: 6f41 acbd 57de 763d 996c 44bc b00f e33c
00000070: 2383 5b3d 85f3 7f3d 91eb 95bd b4bf f9bc
00000080: 5fd8 98bd 1928 7bbd 2d77 2b3d c8cd 543d
00000090: 2328 693c 3a46 2ebd 2ddf 5ebd 5620 d4bc
000000a0: 7db8 533c 0a6f 313d 5611 cc3c 22bb 133d
000000b0: cab8 0c3d 26c8 ad3c ee7a e5bb 8bdf 6e3c
000000c0: cd54 36bd 4438 403c 783a 8fbd c786 9abd
000000d0: 1f39 25bd 2ea2 8bbd 1e98 96bc 1660 a23d
000000e0: 1773 343d 8950 833b 3da2 0dbd 5242 39bd
000000f0: dd38 89ba a83d d2bc 44cd a3bc a428 a1bd
