Results/SectionD_DANN_Domain_Adversarial/dann_model_coarse.pt (torch, 51429 bytes, 9 tensors)

feature.0.weight f4 [128, 9]
00000000: 634b 813e fbee 8e3e 3a0f bbbd 43b8 a23e
00000010: 8f19 58bd 0c23 613d 8599 30be 87e6 543e
00000020: c9c7 9c3e 12b2 72be 44fd 953e a47f 613d
00000030: e567 633e c12e 6c3d 1ad7 313e b332 d0bc
00000040: e9a7 833e f4b6 863d 972a 26be 5872 9e3d
00000050: c762 24be f5af e4bc e829 12be 9bc8 5e3e
00000060: 0f11 8dbe ca90 28be cf26 c3bd 4500 5ebe
00000070: cb11 e73c 82d8 acbe 14be 9a3e 9170 91be
00000080: 5c42 8a3e 3ac9 583d 3c8d f6bd fa29 673e
00000090: 0807 183d c0cc 7d3e 2aa4 383d 3e70 f3bd
000000a0: fa55 9c3d 708d babd 757e 073e 451c 953e
000000b0: d1ce 333e 0c6a 0bbe 81c2 283e e8ec 9a3d
000000c0: c0ff 353e 00e4 52be 5f0d adbe 34b7 05be
000000d0: ad1a 89be 0a9f 933e 7024 9b3d 2a7d 0d3e
000000e0: 7ebc e23d d00d 74bb 9725 7e3e 550d 61be
000000f0: 2ae0 263d 8641 59be c3ee f63d 39c9 efbd
00000100: 4d21 a13d 5e7b 5ebd cc11 923e 280b 51be
00000110: f50f 55be c4a4 56be c7da 9e3e c1ea 003e
00000120: 743d a53e 572c 96be 4377 acbe 8eab 8cbe
00000130: 3e7b 69be 1f5f 1e3e 8112 0b3e 53e7 953e
00000140: 6212 40be 0987 53be 7c74 1d3e 1547 10be
00000150: a5b2 403e c025 80bd 88ef 323e a712 83be
00000160: cda3 22be d04a b13d ebe7 5b3d 4bc8 b1bd
00000170: 0f24 3d3e dd6c 543e d40d 64be 2b68 29be
00000180: 0e06 963e 1e4f d3bd e017 edbd dd91 9dbe
00000190: ba72 42be bc64 8b3d 7fc1 7dbd 9788 65be
000001a0: f5e1 d43c 189a 52be f0e5 89be 1ec7 49be
000001b0: 3ca2 94be 40d0 67be bcc0 a43e 7f0a 973d
000001c0: 4f70 bd3d a631 a0be abab 64be 6bec febd
000001d0: 00e7 9f3d 426b 8ebe b9fe 00be 7396 41be
000001e0: 58ec c33c c924 d8bd eb6e 32bd 0010 5cbe
000001f0: fbbf 5bbe 7cb4 3fbe a01f e3bd bf09 8ebe
00000200: c443 913e 21a5 a3bd ed98 913e 8146 fc3d
00000210: a560 90be 28f7 643e 9d2b e0bd fb6d e2bd
00000220: 03ee 86be 4079 a1be b4cd a13d 4f60 8dbd
00000230: 0099 e93d d348 83be 899e 723e 8b5d 6bbe
00000240: 25f8 4ebd dba0 833d f3e4 3a3e ae7a 8c3e
00000250: 4081 a23e 7137 8fbe b445 de3d bf65 25be
00000260: 5ba7 12bc bdb6 87be aa0c 953e adbf 82be
00000270: 8d34 403e 9245 093e 385e 003e 8f15 47be
00000280: b0eb a23e f75e ba3d 8453 2a3d 2687 9dbe
00000290: fcc2 223e 21b1 8cbd c2f7 24be f72a 9a3e
000002a0: ee73 b23d c389 3ebe eb7f 27be b940 19bd
000002b0: cd7f 3f3e 14c4 b9bd 4cac 34be e54d f4bd
000002c0: ca61 82be 4fa1 043e 1837 793e bdc5 97be
000002d0: 6565 913d 4ce2 323e 32f0 883d f981 09be
000002e0: 4dbd 3d3e 7cce 413e 5c29 153e 691c 71bd
000002f0: d38c 8abd 8b46 b73c 5440 33bd 9988 abbd
00000300: 86f9 493e 7163 8a3e 0674 a9bc 74a4 74bd
00000310: b5fd 34bc f485 c1bb 6bc8 b43d a251 863d
00000320: 8294 91be 1770 d2bd 940e 8a3e 4d51 f33d
00000330: 3c75 c8bc a9c9 58be 14ea 4fbe 4d00 91be
00000340: ca35 b9bd bc1e c43d 35f6 473e e1b2 0c3e
00000350: e79c 8ebe 2e13 3dbe d2fc 0fbd 8459 9f3e
00000360: dddf 1b3d bceb e9bd 07aa 1f3e 97d9 0fbe
00000370: 05ac 66be 7577 853e 01f6 24be f9ed a9bd
00000380: a032 b0be 081a 5f3e 0646 803e 14b7 e63d
00000390: 0f52 60be 826c aabe 9502 90be a566 883e
000003a0: 2d69 2b3e b7af 933e a538 123e 8ba7 993d
000003b0: 1186 983c 499c 88be fafd 95be 4854 a5be
000003c0: 1b83 203e a174 2abe 3f00 83bd 5ebc 33be
000003d0: a89b 9ebd e792 5fbe 9b51 4ebe fe24 c33d
000003e0: 57dd a3bd 7b29 423e c880 a7bd bc26 69be
000003f0: 56e6 5ebd de85 17be cf0d b8bd 6dee 98be
0.25252828 0.27916703 -0.091337636 0.31781206 -0.05275875 0.054965064 -0.17246063 0.20791064
0.30621174 -0.23700741 0.2929479 0.05505337 0.22207601 0.057661775 0.17367211 -0.0254148
0.25714043 0.06577864 -0.16227184 0.07736653 -0.16053306 -0.027915934 -0.14273798 0.21756212
-0.27552077 -0.16461483 -0.095288865 -0.2167979 0.028206727 -0.33758932 0.30223143 -0.28406194
0.27003753 0.05292628 -0.12038657 0.22574607 0.03711608 0.24785137 0.045078434 -0.11886643
0.07633586 -0.09109008 0.13231833 0.2912313 0.17559363 -0.13614672 0.16480447 0.075647175
0.17773342 -0.20594788 -0.33799264 -0.13058168 -0.26778165 0.28832275 0.07575309 0.13817278
0.11071108 -0.0037239678 0.24819027 -0.21977742 0.040741123 -0.21216401 0.12057259 -0.11708302
0.0786768 -0.05431687 0.28529203 -0.20414412 -0.20806868 -0.2096129 0.3102629 0.12589552
0.32273448 -0.29330704 -0.3368474 -0.27474636 -0.2280092 0.15465973 0.13581277 0.2927805
-0.18757012 -0.2065698 0.15376467 -0.14089616 0.18818147 -0.062572 0.17474186 -0.25600168
-0.15882798 0.086568475 0.05368797 -0.08680781 0.18470787 0.20744653 -0.222709 -0.16543643
0.29301494 -0.10317825 -0.115768194 -0.30775347 -0.18989077 0.06806323 -0.06195211 -0.22415386
0.025986651 -0.20566595 -0.2693324 -0.19704863 -0.29030025 -0.22638035 0.32178295 0.07375049
0.09249937 -0.3128788 -0.22331111 -0.12447437 0.07807732 -0.27816206 -0.12597169 -0.18905048
0.023916408 -0.10553891 -0.04356281 -0.21490479 -0.21459953 -0.18721193 -0.11090016 -0.2774181
0.28372014 -0.0799048 0.28436986 0.12318135 -0.28198734 0.22359908 -0.109458186 -0.11056133
-0.26353464 -0.3153782 0.07900563 -0.06903135 0.114061356 -0.25641498 0.23693289 -0.22984903
-0.050529618 0.06427165 0.182514 0.27437347 0.31739235 -0.27971986 0.108531386 -0.16152094
-0.008951033 -0.26506606 0.29111224 -0.25536862 0.18770047 0.13405445 0.12535942 -0.19441818
0.3182044 0.09100144 0.041583553 -0.30767173 0.15894693 -0.06869722 -0.16110137 0.30110905
0.08713518 -0.1860724 -0.1635739 -0.03741524 0.18701096 -0.09070602 -0.17643851 -0.1192892
-0.25465232 0.1295216 0.24337423 -0.2964305 0.070994176 0.17469138 0.066864386 -0.13428487
0.18529244 0.18926424 0.14566559 -0.058864985 -0.06765141 0.022372505 -0.04376252 -0.08375663
0.19724092 0.27028993 -0.020685207 -0.059727147 -0.011046817 -0.005905861 0.08827289 0.06558539
-0.28433615 -0.10275286 0.26964247 0.11880741 -0.024469964 -0.21170677 -0.20304137 -0.28320542
-0.090434626 0.095761746 0.19527514 0.13740112 -0.27854082 -0.18464348 -0.035153218 0.31122983
0.03805529 -0.11421916 0.15592204 -0.14047848 -0.22526558 0.260677 -0.16109468 -0.08297343
-0.34413624 0.21787274 0.25053424 0.11265388 -0.21906303 -0.3328591 -0.2812697 0.26640812
0.1673934 0.28844997 0.1427942 0.075026594 0.018618615 -0.26681736 -0.2929533 -0.32290864
0.15675013 -0.16646053 -0.06396531 -0.17552325 -0.07744533 -0.21833383 -0.20148318 0.0952854
-0.080012016 0.18961136 -0.0817886 -0.22768682 -0.054418884 -0.1479716 -0.08987009 -0.29869404

feature.0.bias f4 [128]
00000000: a4f1 e73d 268a 623d 4844 3fbe 6c01 823d
00000010: e02b 9c3e 40e3 713e f44d 8cbe 5445 a23e
00000020: 92eb 243d aeca 0d3e 1df6 793e ea82 8a3e
00000030: e866 84be a979 8d3e 5ba9 61be 93db 1d3c
00000040: 9483 60be 2097 6dbd fab7 8aba ee26 65bd
00000050: 5695 22bd 3fd3 2c3c 22af a43e 1976 363e
00000060: ca24 4c3e d306 143e da9e 8b3e 8700 00bd
00000070: 696f 593c 572a 5b3d 615d 9bbe 0a35 83be
00000080: 0086 5f3d 020f fabd f742 b7bc 4fa7 80bd
00000090: 463e 8a3d de32 4e3e 75a0 01be 6ccc 833e
000000a0: 5296 8e3e b2fe 7bbe 7c31 8cbe 08e6 83be
000000b0: 746f 47be f32d 15be e938 39bc ef7d 8dbd
000000c0: ed50 22be 428d eabd 15b8 06be 9c31 ae3e
000000d0: 340b e2bd 804d 75be 7daf ff3d 2ad3 00bd
000000e0: 878c 893e 22f7 643e 5444 943e 3e0b 6cbe
000000f0: d600 6b3e 696d 8e3e c0ce 20be f399 a33e
00000100: ead4 863e 1635 9a3c ebc6 2e3e c2f3 04be
00000110: 4126 9dbe b8b2 b53d b9da e83d 766c 6fbe
00000120: 3226 153e 25cc 94be 3870 8a3e 5b7d ac3e
00000130: f0e1 d43d 2937 66be 5365 343e a83d 353d
00000140: d0b0 d53d 7566 f93d bbd1 883e 7328 22be
00000150: 524f b7bd ba51 af3d 8ac2 e23c 831c 913e
00000160: c513 26be 7271 f6bc 3ba3 9c3d a49b dabd
00000170: 2f5b 543e fea8 483d c358 9abe 8893 bfbc
00000180: b0ce 1fbe 9a81 373d 0b28 35bd e276 afbe
00000190: 606a 9ebd 8566 9fbc 0637 adbd 4ecd 943e
000001a0: 979d b2bd dbe2 593e aa30 c33d 4f75 8abe
000001b0: 6e53 9f3d 1b04 853e 7f32 6dbe 0d51 58be
000001c0: 4c46 a73e ef79 813e 9327 33be 4f4c 5b3e
000001d0: 7af8 eebc aeff a1be f740 ae3b b6e4 b63d
000001e0: 69c1 d9bd ef38 073e 08ae 8cbe e392 5d3e
000001f0: 3362 983e 91e8 483e d81d 2d3d 63f7 bd3d
0.11325386 0.05530753 -0.18678391 0.063479275 0.30502224 0.23621845 -0.27403224 0.31693518
0.04026372 0.13846847 0.24410291 0.27053005 -0.2585976 0.27631882 -0.2203726 0.00963487
-0.21925193 -0.058005452 -0.0010583394 -0.05594533 -0.0396932 0.010548412 0.32164866 0.17818488
0.19935909 0.14455728 0.27269632 -0.031250503 0.013271191 0.053507175 -0.3034468 -0.25626403
0.05457115 -0.12209894 -0.022370799 -0.062819116 0.06750159 0.20136592 -0.12658866 0.257419
0.2784906 -0.24608877 -0.27381504 -0.25761437 -0.1947611 -0.1456831 -0.011305072 -0.069087856
-0.15851183 -0.11452724 -0.13156159 0.34022224 -0.11037293 -0.23955345 0.124846436 -0.03145138
0.26865026 0.22359899 0.2895838 -0.23051164 0.22949538 0.27817848 -0.15703869 0.3195339
0.26334316 0.018824141 0.17068069 -0.12983611 -0.30693248 0.088719785 0.11369843 -0.23381218
0.14565352 -0.29062 0.2703874 0.3368939 0.10394657 -0.2248198 0.17616777 0.044248253
0.10434115 0.12177745 0.26722512 -0.15835743 -0.08950676 0.0856051 0.027680654 0.28342065
-0.16218479 -0.030083392 0.07648321 -0.10674217 0.20737909 0.04898929 -0.30145845 -0.023385778
-0.15606189 0.044801332 -0.04422764 -0.34270388 -0.07735133 -0.019458065 -0.084577605 0.29062885
-0.08721464 0.21277945 0.09530766 -0.27042624 0.07779585 0.25979695 -0.23163794 -0.21124668
0.3267082 0.2528834 -0.17495565 0.21415828 -0.029171217 -0.3164038 0.005317803 0.08930342
-0.10632593 0.13205312 -0.27476525 0.21638064 0.2976242 0.19619967 0.04226479 0.09275701

feature.2.weight f4 [64, 128]
00000000: 86bc 9cbd 4e3f 0cbd 7518 9fbc e709 73bd
00000010: 86ff a0bd ca97 443d 5a6d 443d 3c91 bdbd
00000020: d3e3 6f3c 28b9 d63c 24b2 913d 25c7 1f3d
00000030: 0ea7 8d3d 0430 25bd b264 463d ce4b 743d
00000040: d1e4 c3bd 6b8b a7bd 7abe 9a3b ab9b 0f3d
00000050: b07d 6abd 0993 68ba 34d9 48bc 6e6c 353c
00000060: e219 78bd e984 163d 7dff 3b3d 8c2d 96bd
00000070: 0fc7 46bc b8df 35bc 496a 823c f142 943d
00000080: 2417 553c 5420 f9bc 856e 8d3d e307 40bd
00000090: a01f 1ebd d10f a1bb 4853 9ebd 72a9 48bb
000000a0: 9244 92bd f5a8 5abb 706f b1bb a746 20ba
000000b0: 9910 b2bd 92bb c4bd 4429 e63c 4f59 803d
000000c0: f5c2 b5bd 6cac 9f3c 2010 9ebd d236 d4bb
000000d0: 4a5d 8d3d e2be 623d 96ac 9ebd 98cb 2c3d
000000e0: f13d 0a3d 03ee 38bc bc3c 943d 9165 3ebd
000000f0: 218f 06bd ba01 6cbd 86c7 083a ed53 2b3c
00000100: bf9f c4bb d49f 80bd 769e 59bd d622 8b3c
00000110: 1553 b9bd 70c5 d4bc ef0c 65bc b89a 3fbd
00000120: 10da 973c d0ce fdbb 7cb7 463d 79d2 abbc
00000130: 253a 8cbd e24d 493d f370 61ba 9cb5 16bd
00000140: b712 90bd cc26 0c3c cf9e c5bd 1b4d 283c
00000150: ad61 073d fa90 b8bd 2474 8abd 7c68 9bbd
00000160: 6c26 783d 2b58 7c3d cef3 f8bb 9e5b 8e3d
00000170: 9f86 2ebd 8683 c7bd 5418 973c 343d 933c
00000180: 2a6e 973d 7367 4abc 6249 633d 9d91 393d
00000190: 265e 513d 2f91 cbbd 4161 783d c89a b3bd
000001a0: 5729 893d 8440 89bc 5839 bbbd 8b53 483c
000001b0: 5251 01bd eb90 bdbd 3a8a 36bd f148 9aba
000001c0: 6ce2 633d 32f4 24bd 5d07 233d 5544 f6ba
000001d0: fb5d 25bc 3b86 c63b 3376 91bd 03a9 b0bd
000001e0: 07cc 27bd bce1 c0bd 4672 5ebd c59f 10bc
000001f0: d7f0 8fbd 3b58 4bbd 1429 e8bc ef24 b3bc
00000200: 56ce 7cbd 9112 1dbc a4ca d2bc 0876 503c
00000210: 6c92 34bc 926f 6ebd 5ed3 36bd 47f4 7cbc
00000220: 0fc7 8cbd e3ee d0bb 4e68 a9bc 81cb a03c
00000230: 5d2b bc3b 596c 543d 6265 95bc e5f2 a1bd
00000240: e096 ca3c 2726 96bd 250d dbbc a4b2 30bd
00000250: da24 44bd ca67 40bd b180 893d 00f1 113d
00000260: 2d3a 223c 0515 8c3d 175b c1bd 5124 c6b9
00000270: ecbd 273d aa1d 363d cb8f adbd eb6e 903c
00000280: fe5e 83bd fe25 8ebc f002 06bd 1302 b6bd
00000290: efe5 cabd d9d8 94bd ed8d cc3c 4d41 d63c
000002a0: dac8 babd da1a 41bd fa75 59bc bb77 b7bd
000002b0: 7ae9 103d a890 843d 1617 1f3b 7339 a2bd
000002c0: 378e 133c 7711 933c b151 643d a119 7bbd
000002d0: f487 bebd d671 ca3c 8d0f 10bc 734b 32bd
000002e0: 6c8a 4ebd cf7e 72bd 21cc 663d e3bd f3bc
000002f0: 452c 463d 53d8 813d 47ed 15bb 3f9e 813b
00000300: 0150 aebc ca63 3d3d 6299 c2bd 069b af3c
00000310: e71c edbc 433e da3c b9fa 75bc cd32 3ebd
00000320: a865 cfbc d0e2 003d 817f 9cbd 4f92 8fbd
00000330: f01f 0bbd 539d 3dbd 6ea5 9d3c 4d1e 3e3d
00000340: 2d0e bebc 224d 8e3d 1543 50bd 584f 85bd
00000350: 0f03 54bd ef88 99bd a80b 9bbd 5985 bebd
00000360: 14e0 bfbd bb1e 033c 6635 1d3d 1b11 8c3d
00000370: 4cff 773d eef2 99bc fd1b 583b 6378 88bd
00000380: 7a2c 9e3c e7ec c8bd 09ed e43c 8cd6 643b
00000390: dfd8 5a3c 74b2 903c 9d2c 59bd 53e2 7d3d
000003a0: c979 e53c 4c06 303d bcae 45bb e277 263d
000003b0: cf94 353d a961 c93c 4e98 563d 6d41 f8bc
000003c0: e29f 2f3d c2f9 b13b 093b 1c3d ff04 943d
000003d0: a778 933b 156c 3bbd 3974 afbc b795 273c
000003e0: f0a1 e939 851d 20bd e43a 6b3d 546d 1d3d
000003f0: ac15 8ebd 8d8d b8bc a04e b0bc 2fb0 8dbd
-0.076531455 -0.03424006 -0.019420842 -0.059335615 -0.07861237 0.04799632 0.04795585 -0.09256217
0.01464172 0.026211336 0.07114056 0.03900828 0.06916629 -0.040328994 0.048435874 0.059642605
-0.09565128 -0.08180889 0.0047224136 0.035060566 -0.05724877 -0.00088720076 -0.0122588165 0.011073215
-0.06057156 0.036747847 0.04589795 -0.07332906 -0.01213242 -0.011100702 0.015919821 0.072393306
0.013006005 -0.030410923 0.069058456 -0.04688252 -0.03860438 -0.0049152155 -0.077307284 -0.0030618575
-0.07141985 -0.0033364866 -0.0054148957 -0.00061140436 -0.08694572 -0.09606089 0.028095849 0.06267034
-0.08875076 0.019491397 -0.07717919 -0.0064762617 0.06902559 0.05535782 -0.07747762 0.04218635
0.03375048 -0.011287215 0.07238147 -0.04648358 -0.032851342 -0.057618834 0.00052177196 0.010457021
-0.0060004885 -0.06280485 -0.053129636 0.016984385 -0.0904905 -0.025973052 -0.013980134 -0.04677841
0.018536597 -0.0077456012 0.048514828 -0.020974385 -0.06847028 0.04914654 -0.00085998996 -0.03679429
-0.070348196 0.008554172 -0.09649431 0.01027229 0.033052135 -0.09012027 -0.06760433 -0.07588288
0.060583517 0.06160752 -0.007597423 0.06951068 -0.042608853 -0.09741883 0.018444218 0.01797352
0.07394059 -0.012353766 0.055489905 0.045304883 0.051115178 -0.09939801 0.060639624 -0.087697566
0.06697338 -0.016754396 -0.09141797 0.012226949 -0.031571694 -0.092561565 -0.044565417 -0.0011771006
0.055635855 -0.040271945 0.039801944 -0.0018788675 -0.0100932075 0.006058482 -0.07102623 -0.086259864
-0.04096606 -0.094180554 -0.0543082 -0.0088271545 -0.070283584 -0.04964469 -0.0283399 -0.021868197
-0.061720215 -0.009586946 -0.025731392 0.012723453 -0.011021238 -0.05821187 -0.04463517 -0.0154391
-0.06873905 -0.0063761338 -0.02067962 0.019628288 0.005742474 0.05186114 -0.01823682 -0.079076566
0.024730146 -0.07331496 -0.026739666 -0.043139115 -0.047886707 -0.04697398 0.06713999 0.035630226
0.0099015655 0.06839947 -0.09441202 -0.0003779256 0.040952608 0.044461884 -0.08474692 0.017631015
-0.06414603 -0.0173521 -0.032717645 -0.088871144 -0.099071376 -0.07267923 0.02497002 0.026154185
-0.09120341 -0.04714475 -0.013272757 -0.08958384 0.03537891 0.064729035 0.0024275235 -0.07921114
0.009006075 0.017952664 0.05574197 -0.06130374 -0.09303275 0.024712484 -0.00879277 -0.043528985
-0.050424978 -0.059202965 0.056347016 -0.029753631 0.048382062 0.06340089 -0.0022877024 0.003955632
-0.021278383 0.046237744 -0.09501912 0.021436226 -0.028944446 0.026641017 -0.01501339 -0.046435166
-0.025317028 0.031466305 -0.07641507 -0.07010328 -0.033966005 -0.046292614 0.019243922 0.046415616
-0.023200119 0.06948306 -0.050845224 -0.06509274 -0.05176073 -0.07496821 -0.07570583 -0.09302778
-0.093689114 0.008002932 0.038381003 0.068392 0.060546204 -0.018792596 0.0032975667 -0.06663587
0.019308317 -0.098108105 0.027945058 0.003491792 0.01335737 0.017663218 -0.053021062 0.061983418
0.028012173 0.042974755 -0.0030163964 0.040641673 0.044331368 0.0245827 0.052391343 -0.030304635
0.042877086 0.005431385 0.038142238 0.072275154 0.004500467 -0.045757372 -0.021417724 0.010228566
0.00044561876 -0.039090652 0.05742921 0.03843434 -0.06937727 -0.022528434 -0.021521866 -0.0691837

feature.2.bias f4 [64]
00000000: c4e5 90bd 678d 953d 627f bdbc 4367 9d3c
00000010: c93c 883d bc48 d93b 9faa 81bd 9c47 9bbd
00000020: 73dd cf3d b31a 8cbd 290d 33bd 339e 3b3d
00000030: 23d6 5ebd 230f c53d 99e7 5dbb a8e4 883c
00000040: 1419 e03c e6a3 29bb 29e3 173d 8506 b8bd
00000050: a9f7 b43b d1de cfbc 7827 903d 993a 713d
00000060: 6867 c2bc bd34 813d cc3f efbc 2a96 083d
00000070: 239c 30bc cf9f 89bd b107 bf3c c08e 6d3d
00000080: dc52 853d dcbc 503c 2b39 d7bc 050e 183d
00000090: bed9 983c 68f0 b93d e4f5 be3c 73f2 7c3d
000000a0: 8695 ad3c 0218 a6bd ce0a 8dbd 4716 bd3d
000000b0: 1a58 c03d e218 293d e276 47bd c093 4f3d
000000c0: d1bb 533d 51d3 73bd 0949 1d3d 03c9 cb3d
000000d0: bb6a 38bd f66f debb f096 233d 2ebe 38bd
000000e0: 6e45 953d 2169 bf3d b26f c93d 33a3 87bd
000000f0: 6ebc 9d3c e889 6a3d 0f45 7e3d cce6 07bd
-0.07075074 0.07302361 -0.02313203 0.019214278 0.06652219 0.006630985 -0.063313715 -0.07582018
0.1014966 -0.0684103 -0.043713722 0.045805167 -0.054403435 0.09622028 -0.0033859967 0.016710594
0.027355708 -0.0025885045 0.03708187 -0.089856185 0.0055226875 -0.025374802 0.07038778 0.058893774
-0.023730949 0.06308887 -0.029205225 0.033346333 -0.010779413 -0.06719934 0.023319097 0.057997465
0.06509945 0.01274034 -0.026272377 0.037122745 0.018658515 0.09079057 0.02331061 0.061754655
0.021189462 -0.08110048 -0.068868265 0.09232765 0.09391804 0.041283496 -0.04869736 0.050678015
0.051692788 -0.0595277 0.03839973 0.09950449 -0.04502366 -0.006788249 0.039938867 -0.045103244
0.07288633 0.093462236 0.09835757 -0.06622925 0.01925489 0.057260424 0.06207758 -0.03317909

label_head.weight f4 [1, 64]
00000000: 643c 903d 26b1 a33d 72e9 8bbc 71f8 943d
00000010: 0179 723d 8799 cdbc a580 81bd 6ab7 8bbd
00000020: cdd4 debd 1f33 a9bd e760 b83c 0c9f ff3c
00000030: 6247 3abd a095 b8bc 094e 9a3d b45e 033c
00000040: c6ab bebd b522 c13d 83df 823d f5ca ac3a
00000050: 2612 403d 39d2 efbd 72e0 793d a59f 8c3c
00000060: 6617 7ebc c860 4cbd e79e b33d 1a7d 6f3c
00000070: 7712 a1bd a178 2c3d 0ad0 123c 58d7 5dbd
00000080: f1eb 993d 9639 e33d 82af 7fbc aae7 80bd
00000090: 00a7 95bd 2e7b 97bd d23f 553d 775b 883d
000000a0: e641 b1bd 326c 673d 5691 11bc ed74 85bc
000000b0: 9da0 53bd aba8 00be 7b77 edbd 97d5 a13d
000000c0: 7153 00bd 9e78 6dbc f151 a8bd 0655 0cbd
000000d0: f078 67bd 3a2a b5ba 2d61 05be bc26 acba
000000e0: efc6 f4bd d673 ccbd 15a7 62bc d083 adbc
000000f0: 3a0f 3abd ef7f 713d 8eb6 93bb 8471 813c
0.070427686 0.07992773 -0.017079089 0.07273949 0.05919743 -0.025097622 -0.06323365 -0.06822093
-0.10880432 -0.08261704 0.022507144 0.03120377 -0.045478232 -0.022532284 0.07534415 0.008018184
-0.09310107 0.09430448 0.06390288 0.0013183045 0.046892308 -0.11710019 0.061005063 0.017165968
-0.015508508 -0.049896985 0.087705426 0.014617229 -0.0786485 0.04210723 0.008960733 -0.054160446
0.075157054 0.11094968 -0.015605809 -0.062941864 -0.07307243 -0.073965415 0.052062817 0.066580705
-0.08655147 0.056499667 -0.008884748 -0.016291106 -0.051666845 -0.12564342 -0.11595055 0.07902067
-0.031329576 -0.014494089 -0.08218754 -0.034260772 -0.05651182 -0.0013821789 -0.13025351 -0.0013134102
-0.11952006 -0.099830315 -0.013833781 -0.021181017 -0.045424677 0.058959898 -0.004507846 0.015801199

domain_head.0.weight f4 [32, 64]
00000000: b576 6d3c 6330 c8bd c9fb 0dbd 35c4 b13d
00000010: 33ec a43d 4002 303d 672f f23d 7a82 8abd
00000020: b315 04bd 4fa5 3abc accc a5bc bc98 fb3d
00000030: 48b9 f9bd 5477 1d3d 201d 033e ef52 80bd
00000040: cec8 c23d 9a78 d5bd bddb e93c fa52 7abd
00000050: 7dd8 4b3d 9f84 fd3c 6dd6 1f3d 98e9 82bc
00000060: c242 12bd a5be f3bd c15f e93c 1211 063e
00000070: 344d cabd 01bc 10bd c1c5 453d 0781 873d
00000080: 0ab6 793d 72e8 c03d 84b4 9c3c 235c cbbc
00000090: be41 d9bd c5c0 f8bd 97a6 a0bd 9fbf 973d
000000a0: e78e ec3d 3022 093e 018a e33d 6769 853c
000000b0: 4e60 ba3d 700a 803d c307 9dbd 36c0 70bc
000000c0: a7b7 ecbd 5686 ea3d bb4e d43c 0406 033e
000000d0: a7e3 25bb b8fb c73d 464c 883d c71d 51bb
000000e0: 9625 763a 5140 c23d ef50 8bbb 9148 d03d
000000f0: 38e7 123d e936 13bd b821 33bd e1e8 3cbd
00000100: 9a92 933d 33e3 ad3d b9ce 90bd ada3 fcbd
00000110: b8fb 7b3d 933a 2cbd 29a1 00be d529 a13c
00000120: fb99 bfbc be0d a23d 9036 9a3c cb30 b1bd
00000130: d651 08bd faed ccbd b3bd 573d f176 e13c
00000140: b043 7c3d 61cd cfbd 4812 9dbd 949e afbd
00000150: 1fca e5bd 19a9 02be 2b64 e1bd 542a 9f3d
00000160: 7f25 56bd c334 0ebd 8caf ec3c b11d ba3c
00000170: cb1f 3b3d 64b1 c6bd c7f1 cf3d fbdc a4bc
00000180: 5c6f 8abd 65d4 913d 087e edbd 829f afbd
00000190: 099c 7d3d ec65 1d3d 70e5 30bd 5fbc 8ebc
000001a0: ce3e 08bd 26d7 263d 0cd4 7a3c 4424 0f3d
000001b0: 4ad4 bc3d 61ba c4bd 4cd8 d6bd f173 1bbd
000001c0: ac5f 8abd b3a1 cabd f1db f23d 35bc be3d
000001d0: 4e1d bc3d c2f7 aebd 027b d0bc 1403 dbbd
000001e0: 55cc 5dbd 0aed be3d c186 a83b 2639 193d
000001f0: ca59 0abe 6f2d 2a3d 9857 993d 8fc7 64bd
00000200: 1840 ad3d d651 3b3d c016 dabd 8c14 d4bd
00000210: 9966 08bc 4f21 0bbe d0ed cdbd 569b 093d
00000220: 698d 68bd 7b48 9cbc 194e 76bd 4968 8f3d
00000230: 9514 b43d a8ea 9b3d fbf3 f6bd 644f 30bd
00000240: 809b 3d3d 0992 853d 8681 1bbd 26ff 663d
00000250: a625 71bc a056 9eb9 dba3 983d 07b9 953d
00000260: f56c c6bd 2990 b9bd b1e3 073d 7ba3 823d
00000270: ed96 32bd 3d90 c93d 71e7 ccbc 8b9c 9ebd
00000280: 6ec5 c1bc 614e f0bd 8e58 c43c 3583 04be
00000290: cde9 ce3d dca4 debd 5ce9 903d bc12 d5bd
000002a0: 062d 05bd 58b4 a2bd f062 553d 1ac5 6d3d
000002b0: faef 05be 140b f9bd a029 103b b98d 65bc
000002c0: e5e6 5ebc 7c4d cc3c 8b9f 19bd 36e7 ba3d
000002d0: 3276 c2bb 95a9 8bbd ec5f ed3c c96d dbbd
000002e0: a115 99bd bff0 b33c ec1c 88bd b877 09be
000002f0: 9948 453d 8cd2 a43c 1d5a c73c b677 133d
00000300: 729e 08be c565 88bd 6850 97bd 7ac1 e13d
00000310: 9e30 7ebd e7d7 a5bd 938a 5abd 3c0f 673c
00000320: 916b 353d a8cc a93d 5a6c a43d 8d10 82ba
00000330: 7a41 df3d 7573 503d eb73 723d b7c6 ecbd
00000340: ca2c 593c eba8 05bd 616e 01be f05c 95bd
00000350: 8f41 ad3d a914 263d abf4 d53d 4897 953d
00000360: 069b 9fbb eb4c e03d 36a1 883c 9405 f3bc
00000370: 84e8 4dbd e9c2 8b3d 1c6d 2c3d 15b8 aa3d
00000380: 9453 10bd b951 03be a17d 913c 563e c73b
00000390: c33f a5bd f20e db3c 4102 edbc 1103 c53d
000003a0: d4dc 853a bad8 9abd fb24 ae3d 6c68 fcbb
000003b0: a225 e3bc fdd2 323d 510f e43d 4698 3f3d
000003c0: ad03 b13a 8f73 bf3d f6b0 59bd 8594 c43d
000003d0: ef08 aebd f0d8 4a39 98e0 d43d 568d 1a3d
000003e0: fdd2 07bd d90c 8e3d 3e7d 773d fca8 f2bd
000003f0: e882 c4bc 2d4e e3bd 7ef5 23bd cfa7 e4bc
0.014493634 -0.09774854 -0.03466395 0.08680002 0.08052864 0.042970896 0.118254475 -0.06763168
-0.032247256 -0.011391952 -0.020239197 0.12284991 -0.12193543 0.03844388 0.12804079 -0.06265818
0.09510957 -0.104233935 0.028547162 -0.06111429 0.049767006 0.030947028 0.03902285 -0.015980527
-0.035708196 -0.11901597 0.028488042 0.1309245 -0.098780066 -0.035335544 0.048284296 0.06616407
0.06096462 0.094193354 0.019129045 -0.024824208 -0.106082425 -0.12146143 -0.078442745 0.07409596
0.11550694 0.13391948 0.111103065 0.016285611 0.091004 0.06251991 -0.07667496 -0.014694264
-0.115584664 0.11451404 0.025916448 0.12795264 -0.0025312693 0.097648084 0.06655173 -0.0031908618
0.0009389756 0.09484924 -0.0042515914 0.10170091 0.03586504 -0.03594104 -0.04373333 -0.046120528
0.072056964 0.084906004 -0.07070679 -0.12335906 0.061519355 -0.04204805 -0.12561478 0.019673267
-0.023388853 0.07912777 0.018824846 -0.08651885 -0.03328117 -0.10006328 0.052671146 0.027522536
0.06158799 -0.10146595 -0.076695025 -0.08575168 -0.11220192 -0.12759818 -0.11005434 0.07771745
-0.052281853 -0.034718286 0.028892301 0.022719236 0.045684617 -0.09701803 0.10153537 -0.020124903
-0.06759521 0.07120589 -0.11596304 -0.085753456 0.061916385 0.03842728 -0.04318756 -0.017423807
-0.03326302 0.040732525 0.015309345 0.034946695 0.092201784 -0.096058615 -0.10490474 -0.037952367
-0.06756529 -0.09894123 0.11858357 0.093132414 0.09185277 -0.0854335 -0.02544928 -0.106939465
-0.054149944 0.09322555 0.005143017 0.037408017 -0.13510814 0.041547235 0.0748741 -0.055854376
0.084594905 0.04573234 -0.106488705 -0.103554815 -0.008325242 -0.13586925 -0.10055125 0.033595406
-0.056775484 -0.01907753 -0.060133073 0.07002313 0.08792988 0.076131165 -0.12058254 -0.043044463
0.046290874 0.065219946 -0.03796532 0.056395672 -0.014718449 -0.0003020065 0.07453128 0.07310682
-0.09688751 -0.090606995 0.033176128 0.06378838 -0.043600965 0.098419644 -0.025012704 -0.07744702
-0.023653712 -0.117336996 0.023968007 -0.12940677 0.10103188 -0.10871288 0.0707576 -0.10403964
-0.03251364 -0.07944554 0.052096307 0.0580493 -0.13079825 -0.12160316 0.0021997467 -0.01401084
-0.013604854 0.024939291 -0.037505668 0.09126131 -0.0059345 -0.068194546 0.028976403 -0.10714299
-0.074748285 0.021965383 -0.066461414 -0.13424575 0.048164938 0.020119928 0.024334962 0.036002837
-0.13341692 -0.06660036 -0.07388383 0.11023231 -0.062058084 -0.08097821 -0.05335481 0.014102753
0.044292036 0.08290988 0.08028479 -0.0009923145 0.109011605 0.05089136 0.05919258 -0.11561339
0.013255307 -0.032631796 -0.12639762 -0.07293117 0.0845977 0.040547047 0.10447057 0.07304245
-0.004870775 0.10952171 0.016678434 -0.029665746 -0.050270572 0.068242855 0.042096242 0.08335892
-0.035235956 -0.12824143 0.0177601 0.006080429 -0.08068802 0.026740525 -0.028931739 0.096197255
0.0010212907 -0.075608686 0.08503147 -0.0077028777 -0.027727906 0.043658245 0.11135734 0.04677608
0.0013505124 0.09348213 -0.05314728 0.0959864 -0.08497798 0.00019345037 0.103944 0.037732445
-0.0331602 0.06936044 0.060422175 -0.118486375 -0.023988202 -0.11098895 -0.04002904 -0.027912049

domain_head.0.bias f4 [32]
00000000: 2318 bbbc a0de 8ebc 4276 343d 6e9c cbbd
00000010: d820 f3bd ea19 ddbd 630c 2c3d 818b db3a
00000020: d6e9 febd cf98 e13d 2893 783d 497a ddbd
00000030: 4a28 7a3d 83d8 1abc 54ef 343a 2329 bc3d
00000040: 27e0 dc3d f13c 7e3c bf06 92bd 1897 a53d
00000050: e31c ec3d f5d7 febc 8e36 b5bd b977 013e
00000060: eeb9 84bd bc34 9dbd 71cd 00be ef7e 6f3d
00000070: 463c 0b3d 5dfd 34bd 2dfd 01be e550 993d
-0.022838658 -0.01744014 0.044058092 -0.09941946 -0.11871499 -0.10795958 0.042004 0.001674995
-0.124469444 0.11015474 0.060687214 -0.1081434 0.06107358 -0.0094510345 0.0006902118 0.09187534
0.10784941 0.015517459 -0.07130193 0.080854595 0.11528947 -0.031108836 -0.08848296 0.12643327
-0.06480776 -0.07676074 -0.1257837 0.058470663 0.033993028 -0.04418694 -0.12694235 0.074861325

domain_head.2.weight f4 [2, 32]
00000000: b2c6 a5ba 452c 173e 891f e9bc 769f 143e
00000010: a91c 3fbd 6a56 c2bd 1671 ba3d 09fd f73c
00000020: f5dd 153e f514 273c 013f 15be ad97 ffbd
00000030: cd07 5fbd b977 7ebc e6b4 d9bd ab7c 153e
00000040: da67 dabd 4f3c bc3b 27a1 a93d 4db5 b53c
00000050: 7e1a 803b 0f5f 733d f467 c9bd 544a 3abe
00000060: cf8d 2a3d e82c 0fbe 4b67 12be 62d6 01be
00000070: 9970 013e a275 f6bd 2652 0a3e d4a1 d53d
00000080: 829b 2e3d 937b c1bd b0e6 17be 04b4 fabd
00000090: ca5e ed3d 199f d4bd 5968 2fbc be22 2e3d
000000a0: 884c 14bc e3bd 2e3d 4351 04be 032d 143e
000000b0: 62f3 e6bd ac0b eabd 863d 0dbe bdc6 f33d
000000c0: f377 9ebd f99c 49bd 8050 e33d 8c91 88bb
000000d0: a09e 1a3e 561e 823d 0bda 08bc 15fd e4bd
000000e0: e7e4 21be e083 6d3d 2862 9d3b 2b37 223e
000000f0: 6154 15be f479 183d b01b 8c3d 06ad e23d
-0.0012647717 0.14762981 -0.02845742 0.14513955 -0.04665819 -0.094891384 0.09103601 0.030272024
0.14635451 0.010197868 -0.14574815 -0.12480102 -0.0544508 -0.015531474 -0.10630207 0.14598338
-0.10664339 0.005744494 0.082826905 0.022181178 0.003909408 0.059416827 -0.098342806 -0.18192416
0.041639145 -0.13981974 -0.14297216 -0.12679437 0.12640609 -0.120341554 0.135079 0.10431257
0.042628773 -0.09447398 -0.14834094 -0.122413665 0.11590345 -0.10381908 -0.010706031 0.0425136
-0.00905145 0.04266156 -0.12921624 0.14470296 -0.1127689 -0.114280075 -0.13793 0.11903141
-0.07737722 -0.049221966 0.110993385 -0.004167741 0.15099573 0.06353442 -0.008352767 -0.11181084
-0.15809976 0.057987094 0.004802961 0.15841357 -0.14582969 0.03722568 0.068412185 0.11068158

domain_head.2.bias f4 [2]
00000000: 28e4 973d 8cd8 62ba
0.07416564 -0.0008653484
