Results/SectionD_DANN_Domain_Adversarial/dann_model_medium.pt (torch, 52197 bytes, 9 tensors)

feature.0.weight f4 [128, 9]
000000 1a 7f a9 be 6d 8a 9a bd c1 93 b7 3e 8a f8 8f be
       -0.33104783 -0.07545934 0.35854915 -0.28119308
000010 0b ef 68 be 19 ec 96 3e b2 49 eb 3b 05 7e 10 be
       -0.22747438 0.29477003 0.007180416 -0.14110573
000020 34 98 87 3d 8a 4f e3 3d b2 b5 bd 3b 64 f8 75 3e
       0.06620827 0.11099155 0.005789482 0.24020535
000030 d0 92 48 bc 08 aa eb bd 23 6f 0a be 05 e3 f7 bc
       -0.012242034 -0.1150704 -0.13518958 -0.030259619
000040 8d 57 5b bd 81 7b 56 3e 4a ca 1a 3e dd 10 86 3e
       -0.05355029 0.2094555 0.1511623 0.2618474
000050 6e bf 8a 3e d3 62 9f 3e 08 e2 a9 be f7 ef 6c bd
       0.27099174 0.31130084 -0.3318026 -0.057846036
000060 aa 97 46 bd 14 c1 80 3e 91 3a 34 bc 7f c3 e1 3d
       -0.048484482 0.25147307 -0.011000291 0.11023616
000070 7e b9 f2 bc 84 e0 a5 be 2e 70 f9 3c ce 55 3b bb
       -0.029629465 -0.32397854 0.030449 -0.002858508
000080 df 57 4a be 7b df a3 3e e5 61 87 be 90 39 90 be
       -0.19760083 0.3200644 -0.26441875 -0.28168917
000090 26 c9 63 be d7 78 a0 be 91 c4 1c bd 9c 8f 21 be
       -0.22244701 -0.31342193 -0.038273398 -0.15777439
0000a0 8e 2f 83 3e ca b9 4f 3e c5 07 1e 3e 78 95 8c 3e
       0.2562222 0.20285717 0.15432651 0.27457786
0000b0 11 0e 88 be e8 09 42 be e0 e3 89 3e d2 27 6a 3e
       -0.26573232 -0.18949091 0.26931667 0.22866753
0000c0 f9 1a 28 3d 6c 16 32 3e 75 3e 72 3d 3f 6d 1d bd
       0.041041348 0.17391366 0.059141595 -0.038434263
0000d0 5b 89 cf bd d1 2b cd 3d e2 7f 77 be ad 50 9b 3e
       -0.1013362 0.10018123 -0.24169877 0.30334988
0000e0 f5 83 89 be ca 00 6c be ef bd 62 3e c9 0f 28 be
       -0.26858488 -0.23047176 0.22142766 -0.16412272
0000f0 a9 b6 0a be 57 41 56 bd 3f 61 86 be 5c 9e 06 bd
       -0.13546242 -0.052308407 -0.26246068 -0.032865867
000100 c8 b8 6e bd a2 fc c1 bd 39 ed 63 3b 17 f2 67 be
       -0.05828169 -0.09472014 0.0034778847 -0.22650944
000110 4b 30 17 bd a7 95 7c bd c5 1b ae be 4a bb 79 be
       -0.03691129 -0.061666157 -0.3400556 -0.24387851
000120 95 2e 6b 3e 9a b3 95 be ae 32 70 bd 5a c4 36 be
       0.22966988 -0.29238588 -0.058642082 -0.1784834
000130 76 e4 9c 3e 7e 97 5e 3e 80 9a 09 3e 56 3f 0f be
       0.30643052 0.21737477 0.13437843 -0.13989004
000140 80 45 8a be 29 e5 60 bd 94 db 3b 3e 1b f3 b4 3c
       -0.2700615 -0.054906044 0.18345481 0.022088578
000150 f9 e0 28 be 6d 34 8d be 1b cd 86 3e 0d c2 87 3d
       -0.1649207 -0.2757906 0.26328358 0.06628809
000160 9b 7c 5d 3e e1 e3 8b be b1 07 59 3d c2 ef 91 3e
       0.21629564 -0.27322295 0.05298585 0.28503233
000170 0a 4f 9f be eb 6c 9a be 88 8c 94 be a6 b4 2a be
       -0.3111499 -0.30161223 -0.29013467 -0.16670474
000180 92 c6 55 bc 9b 07 15 3e 6c 66 df bd 27 14 80 3e
       -0.013047831 0.14553683 -0.10908207 0.25015375
000190 10 04 81 3e 9a 45 49 3e 6e 28 7f be 2c 98 cc 3d
       0.25198412 0.19655457 -0.24917766 0.09989962
0001a0 0b 6b 28 3e 4f 01 5b 3e 15 b8 8b be 54 07 70 bd
       0.16447084 0.21387218 -0.2728888 -0.05860074
0001b0 77 7a 3d be 1a c9 14 be 83 e8 d5 3d f1 38 a3 bc
       -0.18503748 -0.14529839 0.10444739 -0.019924613
0001c0 06 f3 25 3e 46 00 7f be d6 bb eb bd d8 e3 e8 3d
       0.16205987 -0.24902448 -0.11510436 0.11371583
0001d0 cb 0a 08 be dd fd 95 3c 91 dc 6a be 2a 57 94 3e
       -0.13285367 0.018309528 -0.22935702 0.2897275
0001e0 53 53 60 3b cd 02 09 3e d3 10 32 3d 99 67 b7 3c
       0.0034229353 0.13379975 0.043473076 0.022388266
0001f0 f8 30 a2 3e a0 3f 1a be 5e 50 85 3e f6 1b 08 be
       0.31677985 -0.15063334 0.26037878 -0.13291916
000200 84 f7 a1 3a 3d 07 4e be 10 64 b0 3d c3 e9 9f be
       0.0012357091 -0.20119949 0.086128354 -0.31233034
000210 8c ea ae 3d 2e 15 25 be 97 e2 87 3e 68 ad a9 3e
       0.0854083 -0.1612136 0.26540062 0.3314011
000220 24 1a 6f 3e ba 40 a1 be 22 52 36 3e 56 f0 84 be
       0.23349816 -0.31494695 0.17804769 -0.25964612
000230 ca 2c 1f 3d 08 86 4d be 36 72 6b 3e a2 46 00 bd
       0.038861074 -0.2007066 0.22992787 -0.03131736
000240 38 0c ea 3d f9 4d c0 3d 7f 88 70 3e 34 83 60 3e
       0.11428112 0.09389872 0.23489569 0.2192505
000250 7f e1 b6 3b 17 e5 6e be 57 80 c8 3d 1b 89 20 be
       0.0055810804 -0.23329578 0.09790104 -0.15677302
000260 9f 70 6b bd cc 96 1f 3d f5 1f 99 3e 3f 8c 81 3e
       -0.05748045 0.03896217 0.29907194 0.25302312
000270 2a b4 20 bd 20 4d 27 be 93 7b a8 3e d4 ca 41 3e
       -0.039234318 -0.16338015 0.3290678 0.18925029
000280 a2 b9 95 be e8 23 0c bd 66 32 82 be 63 25 9a bd
       -0.2924319 -0.03421393 -0.25429076 -0.07526662
000290 52 ff 8b be fe 9d 92 be 08 47 6d be 2d 15 72 bd
       -0.2734323 -0.28636163 -0.23171628 -0.059102226
0002a0 81 97 d2 3d 3c aa 9a be 7d 17 f8 bd 68 ec 92 3d
       0.10282803 -0.30208004 -0.12113855 0.07173997
0002b0 19 55 b8 3d 6a 54 d1 3b 55 e9 8e be e0 7e 7d b8
       0.09000606 0.006388237 -0.27912393 -6.0438062e-05
0002c0 3f ae c0 3d e9 e3 93 be 13 09 65 be 33 36 a7 3d
       0.09408235 -0.2888482 -0.22366743 0.081646346
0002d0 af de 7f 3b b1 13 85 3e 43 95 a4 3d fd d4 39 3e
       0.0039042642 0.25991586 0.08036282 0.18147655
0002e0 af 48 8e be 57 2e 9b bd 7b f2 4c bd 8d b1 db bd
       -0.27789828 -0.07577198 -0.050035935 -0.107272245
0002f0 60 a8 a6 bd 2a bf 1e 3e e1 ab 48 be 3b 7f d0 bd
       -0.08137584 0.15502611 -0.19596817 -0.10180517
000300 72 d0 d5 bd 6b bb 1f 3d 05 2a 83 3d b6 58 cb bc
       -0.104401484 0.038997095 0.06404499 -0.024822574
000310 0f 14 27 3e 95 f4 85 be 4a 96 60 3e 80 ff b4 3d
       0.16316245 -0.26163164 0.2193233 0.08837795
000320 5f 66 62 3e 36 ff 99 be 03 25 62 3e e5 7c 2e 3e
       0.22109364 -0.30077523 0.22084431 0.17039831
000330 df 19 48 3e 33 59 28 3e 50 46 02 be 59 eb 88 bd
       0.19541119 0.16440277 -0.12722135 -0.06685514
000340 fb c5 8c 3c 52 09 88 3d ab a4 9c be e6 58 9e bd
       0.017184248 0.06642403 -0.30594382 -0.077318
000350 19 2d 9e be 22 45 6c be f5 27 d7 bd 82 e5 a9 bd
       -0.30893782 -0.23073247 -0.10505668 -0.08295728
000360 e5 be 90 3d 54 76 72 3e b7 86 e2 bd 77 5f 83 bd
       0.0706766 0.23677951 -0.11060851 -0.06414693
000370 1e 14 f7 3d ce 35 d8 3d 89 a9 a7 3e 30 cb 4b 3d
       0.12064384 0.105571374 0.32746533 0.04975432
000380 5e 9f 05 3d 5d c1 7d be 15 89 d1 3d e8 dd b8 3d
       0.032622688 -0.24780793 0.102312244 0.090267
000390 7c 98 0d 3e 06 3e 43 bc 41 f2 cb bc 79 e2 2e 3d
       0.138277 -0.011916643 -0.02489579 0.04269645
0003a0 c1 c5 53 bc 19 46 83 bd bd b5 9b be 66 1d 2c 3e
       -0.012925566 -0.064098544 -0.30412093 0.1680809
0003b0 e8 35 4c be ac 3e e0 3d fb b1 0f 3e 1d fa 2f 3e
       -0.19942439 0.10949454 0.14032738 0.17185254
0003c0 21 bc 78 bd 1e 43 06 bd 3e 87 61 3e 59 16 31 be
       -0.06072629 -0.03277885 0.22024247 -0.17293681
0003d0 8f 4c 52 be 25 95 4c 3e 72 d4 95 3e 01 e1 64 3e
       -0.20537017 0.19978769 0.29263645 0.22351457
0003e0 25 c9 3b 3e df ed 18 be 50 7b 37 3e 32 34 10 be
       0.1833845 -0.1493449 0.17918134 -0.14082411
0003f0 93 f5 fa 3d 4a b4 99 3e ec e0 c1 bd 55 6f 78 be
       0.12253871 0.30020362 -0.094667286 -0.2426122

feature.0.bias f4 [128]
000000 7b 7a cd 3d 05 76 15 be 2b 72 19 3e 4a 83 54 be
       0.10033127 -0.14595802 0.14984958 -0.20753208
000010 87 35 35 be e6 5e 6f be 2b 76 af bd f6 81 af 3e
       -0.176962 -0.23376045 -0.085674606 0.3427884
000020 40 04 2b 3e 59 5b 90 be 81 65 1f 3e de 86 8d 3e
       0.1670084 -0.28194693 0.15566064 0.27641958
000030 4b 7f b3 3e f2 4a 1c 3d c0 28 90 3d 4e 1f 80 3e
       0.35058054 0.03815741 0.070390224 0.25023884
000040 e2 0c af 3e db 69 d1 3c ad 21 6a bd dc c3 8b 3e
       0.34189516 0.025563171 -0.057161022 0.27297866
000050 2d e2 8a bd dd 12 86 3e cf f9 86 3e 39 a4 a7 3d
       -0.06781421 0.26186267 0.26362464 0.0818562
000060 54 e0 87 be 86 8c 81 3e d9 27 28 3e 32 05 67 3d
       -0.26538336 0.25302523 0.1642145 0.05640144
000070 74 5e 8f 3d 4a 60 2d 3e e8 db 53 3e 89 d1 66 be
       0.070004374 0.16931263 0.20689356 -0.22540869
000080 82 f6 93 be 0a fe 35 3e f9 29 22 be 6b ef 92 be
       -0.28899008 0.1777269 -0.15836324 -0.28698286
000090 68 02 9f 3e de f6 8b be 4a 36 00 be 1e f7 6a be
       0.31056523 -0.27336782 -0.1252071 -0.2294583
0000a0 47 0f 88 3e 35 aa 1b bd fc 03 21 be d7 93 88 3e
       0.26574156 -0.03800412 -0.15724176 0.26675293
0000b0 b5 9f 95 3e 2e f0 1d 3e 2d 51 85 3e 01 2e 97 be
       0.2922341 0.15423653 0.26038495 -0.29527286
0000c0 71 5d 9a be da 18 26 3e a4 dc 90 bd 72 a6 11 3e
       -0.30149415 0.16220418 -0.07073334 0.1422365
0000d0 8b 8d 8e 3e 12 9f 91 bd 87 a6 3d be 1c 6c 8f 3e
       0.27842364 -0.071104184 -0.18520556 0.28012168
0000e0 6e ca 40 be 52 31 3b be e4 57 87 3e 4b ec cf bb
       -0.18827221 -0.18280533 0.26434243 -0.006345307
0000f0 90 4a 2b be 62 3d 05 3e c2 44 32 be b9 f0 0f 3d
       -0.16727662 0.13011697 -0.17409042 0.03514168
000100 26 9c 78 be c2 ed b6 bd 79 3d 7a 3e 32 f4 a0 3c
       -0.24278316 -0.089320675 0.24437512 0.019647691
000110 7d 66 45 bd 21 56 6e 3e 8c 5d 28 3e 4d 0d 40 3e
       -0.048193444 0.23275043 0.16441935 0.18755074
000120 43 e4 1c 3e 45 22 f5 bd 8b ad 93 be e8 eb 47 be
       0.1532145 -0.11969427 -0.2884334 -0.19523585
000130 70 1e 56 be bc be c1 3d e6 68 8e 3e 41 87 99 3e
       -0.20910048 0.09460208 0.27814406 0.29986003
000140 d6 e0 86 3e 72 4d 31 3d 31 7e 4d 3e 1c da fb 3c
       0.2634341 0.04328675 0.2006767 0.030743651
000150 0d 26 31 3e e3 10 64 be c6 b7 a5 3e 9d cc 1d 3e
       0.17299671 -0.22272067 0.3236677 0.15410085
000160 67 2e c2 bc 27 cb 13 be 71 dd 1b 3d c4 c6 8e bd
       -0.023703767 -0.14432965 0.03805298 -0.06971505
000170 53 c1 5c be ac 96 70 be 77 c0 da bd 63 37 4f 3d
       -0.21558122 -0.23494977 -0.10681241 0.05058993
000180 a6 aa 5e be 08 72 44 3e 64 a0 52 be bc a9 5c 3e
       -0.21744785 0.19184124 -0.20568997 0.21549124
000190 76 95 0f bc 80 ff f7 bc d8 a1 42 3d 23 a2 ce 3c
       -0.008763662 -0.0302732 0.047517627 0.025223797
0001a0 a2 b6 2d 3e b2 15 66 bd 7d e0 09 be 70 86 3a 3d
       0.169642 -0.056173034 -0.13464542 0.045538366
0001b0 fc 39 56 be ff 7d 02 3e 87 1a e4 3c 5f af 32 3e
       -0.20920557 0.12743376 0.02784468 0.17449711
0001c0 b3 34 8c bd 56 29 fb bb 28 a8 2d be 41 6d 19 be
       -0.06845989 -0.0076648397 -0.16958678 -0.14983083
0001d0 5e 83 93 3c 9a 7e 0e 3e 25 93 00 be 27 54 6d 3e
       0.018006977 0.13915482 -0.12556131 0.23176633
0001e0 65 1e f0 bd b9 4f c6 bd a6 d7 84 3e 4e e9 7e bd
       -0.11724547 -0.09683175 0.25945777 -0.062234215
0001f0 12 5c 47 3e a4 43 34 bd 1e 38 4e 3e 18 d8 7f 3c
       0.19468716 -0.04400982 0.20138595 0.015615486

feature.2.weight f4 [64, 128]
000000 e1 7a 18 bd 28 9f 6d bd 8c 74 50 3d d6 10 a6 3c
       -0.03722656 -0.05801311 0.050892398 0.0202717
000010 b6 72 1f bc f5 c1 73 bc ab b8 0c bd 8e 3a 6b bd
       -0.009731939 -0.014877786 -0.0343558 -0.05742889
000020 3d aa c7 3c 0d 8c 99 bd ec 6d d9 b9 24 b7 86 3d
       0.024373168 -0.07497416 -0.00041471364 0.065779
000030 d6 9c 34 3d 3b 13 4e 3d e7 eb 89 3c 21 d2 48 bd
       0.044094883 0.05031131 0.01683612 -0.04902852
000040 93 e3 39 3d 5b 36 91 3d 78 ac 20 3d f7 16 89 3d
       0.045383047 0.070904456 0.03922698 0.06693833
000050 42 f4 95 bd d9 41 96 bd d5 ff 90 bc a5 1b de 3c
       -0.07321979 -0.07336778 -0.017700115 0.027112791
000060 78 6a 5d 3d 27 a5 c0 bc e3 6e 16 bd 5f 3d 7f 3d
       0.054056615 -0.02351625 -0.036726844 0.062314387
000070 4c 17 81 bb 50 cd e5 3b c4 5b a9 bd ce 9c bc bb
       -0.003939545 0.0070130005 -0.08269456 -0.0057559973
000080 c5 1c 39 3d 4d 7e b6 3d f0 c6 0d 3c b8 a7 7e 3d
       0.045193452 0.08910809 0.008653387 0.062171668
000090 aa 02 3d 3c a2 c9 8d bd 33 bd 6b 3b 73 d6 d2 bc
       0.01153628 -0.06923224 0.0035970926 -0.025737023
0000a0 be 7f e1 bb e3 e1 06 bd 8a 73 85 3d b9 e8 87 bd
       -0.006881683 -0.032930266 0.06516178 -0.06636185
0000b0 7c 5a 4b bd a2 9f b6 bc 98 55 a0 3d 36 32 9f bc
       -0.04964684 -0.022292916 0.07828826 -0.019433122
0000c0 c0 a7 21 3d ae 50 3d 3d de 9f 95 3d 30 98 92 bc
       0.03946662 0.04621952 0.07305883 -0.017894834
0000d0 f8 31 bd 3c 24 6c 39 bd 5a 08 6b bb c5 46 91 bd
       0.023095116 -0.045269147 -0.0035863132 -0.07093576
0000e0 99 88 93 bd 53 bc de 3c 97 fe 82 bd f1 82 3e 3d
       -0.07203788 0.02718941 -0.063962154 0.046511594
0000f0 cc 63 8d 3d 52 45 0a 3d 13 c0 07 3d 67 88 a4 bd
       0.069038 0.033757515 0.03314216 -0.08033829
000100 60 9d 28 bd ba 9d 76 bd 31 17 aa bd 48 6f 16 3d
       -0.04116571 -0.060209014 -0.08305205 0.03672722
000110 9d fa c1 3c fe 93 b0 3d 3c 31 b7 bc 4f 77 6e bd
       0.023679072 0.08621977 -0.022362344 -0.05821925
000120 ce bd 9a bd 1b e9 dd 3b a3 dd 4a bd a3 d3 88 3c
       -0.075557336 0.006772173 -0.049527775 0.016702479
000130 5b af 6d 3d 12 ce 9d 3d 6f 3c 41 bc e6 b4 6d bd
       0.05802856 0.077053204 -0.011794194 -0.058033846
000140 8b d9 3a bd be 60 6d 3d f4 a5 c9 3c 23 51 cb 3b
       -0.04561762 0.05795359 0.024615265 0.0062047406
000150 1b e6 aa bd 4e aa 4d 3d aa 9a 70 3d 7d 01 5a 3c
       -0.083446704 0.050211243 0.05874125 0.013306019
000160 d3 4a 84 bc d7 11 20 bd 56 19 12 3b cc cd f2 3b
       -0.01614896 -0.039079513 0.0022292933 0.007409787
000170 fe 16 cd 3c 38 34 90 ba 2e 37 b3 3d 73 29 6f 3d
       0.025035378 -0.001100189 0.08750759 0.05838914
000180 a1 97 c4 3c 94 4e 9e bd e8 f6 28 bd 1c 54 14 3d
       0.023998084 -0.07729831 -0.041251093 0.036213025
000190 a4 c3 6b bd 3e dd d9 3c 99 2d e2 3c d7 55 5e bd
       -0.057559624 0.026594754 0.027609633 -0.054281082
0001a0 3e dc b2 3c 04 c1 02 bc c8 9e 83 3d 6a 3c b3 bc
       0.021833535 -0.007980589 0.064267695 -0.021879394
0001b0 cd 69 a3 3d 2a ef a2 3d 95 b6 d6 bc c8 3a 81 3c
       0.07979164 0.07955773 -0.026210109 0.0157751
0001c0 10 95 cb bc ac 42 97 3d 2c 6f 36 3d 3c fb 70 3b
       -0.024851352 0.073857635 0.044539616 0.003677084
0001d0 ea 82 6d 3d ff 8b 8e bd 8d 4f ac bc 7b 4e ae 3c
       0.057986178 -0.06960296 -0.021034027 0.021277657
0001e0 d7 cb a5 bd 0e 50 a6 3d 6b d7 1c 3c 74 c3 a1 3d
       -0.0809552 0.08120738 0.009572844 0.07898608
0001f0 af aa ce bc 88 80 ee 3b 70 51 bd bc 28 ad 0b bd
       -0.025227873 0.0072785057 -0.023110121 -0.03410068
000200 97 47 3b bd 6d ff 41 3d a6 59 86 3d b4 e4 7d 3c
       -0.04572257 0.047362734 0.06560068 0.015496422
000210 5c 01 20 3d b5 2f c9 3c 72 1c 3a bc 53 e3 9f bd
       0.039063796 0.024558881 -0.011359321 -0.078070305
000220 ed 33 2f 3c c9 d1 2d bd 65 eb b1 3c 52 de 8f bd
       0.010693532 -0.042436395 0.02171869 -0.07024826
000230 45 93 8e bc f9 1a 3b bd 4e 92 bf bd 91 14 c2 bd
       -0.017404208 -0.04568002 -0.09354077 -0.09476579
000240 22 e3 8b 3d d2 33 61 bc d3 0d b1 bd 56 60 b2 3a
       0.068304315 -0.013745265 -0.08645215 0.0013609033
000250 4a 8b a0 bc ea 09 7d 3d be 16 92 3d 0f f1 0d bd
       -0.019597668 0.061777033 0.07133244 -0.03465372
000260 a5 ac 86 bd 07 90 82 bd f1 33 17 bd be 81 78 bd
       -0.06575898 -0.06375127 -0.03691477 -0.060670607
000270 20 02 89 3d bf b0 36 bd a9 44 07 3d e2 2a e5 3c
       0.066898584 -0.044602152 0.033024464 0.02797455
000280 eb 9c f6 3b d7 f2 f0 3c c6 0e 7c 3d d9 39 d4 3c
       0.0075260303 0.02941267 0.061537527 0.02590649
000290 72 c0 d1 3c 55 13 af bd 6b cc 8f bc 70 67 43 bc
       0.02560446 -0.08548609 -0.017553529 -0.011926517
0002a0 44 a1 66 3d 70 21 c4 3c 88 1a 6a 3d 28 79 62 3d
       0.05630614 0.023941725 0.05715421 0.055291325
0002b0 98 7a 5c bd d4 a8 d0 b9 f4 59 93 3d 54 f8 a9 3c
       -0.053827852 -0.00039798638 0.071948916 0.020748295
0002c0 6c b0 14 3d 3e 67 b6 3c 9f 3e 25 bd c8 83 07 3c
       0.03630106 0.022266027 -0.040342923 0.008271165
0002d0 2e 74 97 bd 54 63 8b 3d 9f 86 07 bc 0b 29 6c 3d
       -0.073952064 0.06806055 -0.008271842 0.05765633
0002e0 76 e6 98 bd 18 e0 bf bd 54 36 df ba 04 3a b0 bc
       -0.07465832 -0.09368914 -0.0017029741 -0.021512039
0002f0 83 38 42 bd 54 6e 07 3d fc 5d 8f bd d1 d1 83 3d
       -0.047417175 0.0330642 -0.07000348 0.06436504
000300 34 dc c9 bd ad 6a de 3b 4a 69 83 bd 7b 23 d5 3b
       -0.098564535 0.006787619 -0.06416567 0.0065044737
000310 7a ca 95 3d 8b d1 bb bc 23 c8 04 3c 9d 6b 3f bd
       0.0731401 -0.022927066 0.008104357 -0.046733487
000320 04 24 71 bd af 51 b1 bd e3 b8 1f 3d 20 e6 3e bc
       -0.058872238 -0.08658158 0.03899468 -0.011651546
000330 87 ee 9d 3c 52 6b 9f bd 37 e4 b0 bd 49 ec bd bd
       0.019278778 -0.077841416 -0.086372785 -0.092735834
000340 00 dc 83 bd 15 38 be bc 08 af ce bc 59 0b d5 3c
       -0.06438446 -0.023220101 -0.025229946 0.026006388
000350 20 18 63 bd 90 10 93 3d ee 0e 56 bd 0c 75 bf bd
       -0.05544293 0.071808934 -0.05226033 -0.09348497
000360 ea 75 5b 3d 3d ea 8d bd f6 d0 ac bb 11 e7 ad bc
       0.05357925 -0.06929443 -0.0052739335 -0.021228345
000370 06 f1 02 bd e5 e6 59 bc 98 f8 c7 bd c0 ff 89 3d
       -0.03196814 -0.013299678 -0.09764212 0.067382336
000380 7b 24 8a bd 54 52 2d 3d be a0 85 bd 80 ba ff bc
       -0.06745239 0.042314842 -0.065248 -0.03121686
000390 84 b2 78 bc b4 48 3f bd c2 2f 50 bd 5f d9 af bd
       -0.01517928 -0.046700194 -0.050826795 -0.08586382
0003a0 ef 04 96 bd 04 f6 83 bc ed e0 1e bd 7a df c6 bc
       -0.0732516 -0.01610852 -0.038788725 -0.024276484
0003b0 74 d2 41 3c 56 72 c6 bc be 56 c6 bd 8f 01 3b bd
       0.011829961 -0.024224441 -0.096845135 -0.045655783
0003c0 70 cb 56 3c 9c a8 a8 3c ad 03 00 3d 89 9c da bb
       0.013110027 0.020588212 0.031253505 -0.0066714925
0003d0 c3 47 41 3d a5 31 96 bd 00 62 b1 bd 49 72 13 bd
       0.047187578 -0.07333688 -0.0866127 -0.035997663
0003e0 4f ea 52 bc 20 fd 4f 3d fb 5d 79 bd 9f 5d 9a bd
       -0.012873246 0.05077851 -0.060880642 -0.07537388
0003f0 21 5f 83 bc 2b e5 10 3c ad 55 be bd c6 28 40 bd
       -0.016036572 0.0088437 -0.09293685 -0.046913885

feature.2.bias f4 [64]
000000 1e 34 3c 3c 3f d2 1a bd 6f 46 b9 bd 60 b6 86 bc
       0.011487035 -0.037798163 -0.09046637 -0.016444385
000010 1a 6b a6 3c 7c a5 34 3d dd be 77 bd c3 48 95 bd
       0.020314742 0.04410313 -0.060484756 -0.07289269
000020 c3 1f 8f bd 56 a3 21 3d 3e 03 7c bd 92 4e be 3d
       -0.0698848 0.03946241 -0.06152653 0.0929233
000030 7e 5c 01 3d f1 d4 85 3d f0 af 2f bd 61 9c 31 3d
       0.031582348 0.06534756 -0.042892396 0.043362025
000040 75 7d 2a bd d4 85 c0 bc 2c 10 5b 3d 58 71 81 bd
       -0.04162355 -0.023501314 0.05348222 -0.06320447
000050 6a f2 e9 bc 88 cb a3 3c bc ae 40 3d e8 69 12 bd
       -0.028557975 0.019994512 0.04704164 -0.03574553
000060 d0 0c 8f bd 13 cf 06 bd ad ba 8c 3c 9e af 90 bd
       -0.06984866 -0.032912325 0.017178858 -0.07064746
000070 03 09 9c bd b7 b5 19 bd 92 4d 11 3c b4 6d 47 bd
       -0.07618906 -0.037526812 0.008868592 -0.048688605
000080 f7 6d b0 3c c8 11 f8 3b 10 a7 84 3d 98 82 bc bc
       0.02153681 0.007570479 0.06477177 -0.02301149
000090 ac 6e 5f bd bf 7f 14 bd 65 56 a6 bd ba e0 20 bd
       -0.054548904 -0.03625464 -0.08121947 -0.039276816
0000a0 1f 12 78 bd f6 ea ac bd 03 9e b0 bd 5e b7 af bd
       -0.060564157 -0.08443253 -0.08623888 -0.085798964
0000b0 3f 5c 29 3d 7b d1 40 bd 2a 01 8f 3d fc 57 4f bd
       0.04134774 -0.047074776 0.06982644 -0.050621018
0000c0 9f 4c d3 3c 48 d1 86 bd fd e4 a0 3d 0a aa 17 3c
       0.025793372 -0.06582886 0.07856176 0.009256849
0000d0 30 e5 e5 ba 7b 5d 6d 3c 98 ff 2a 3c 71 71 2f bc
       -0.0017539617 0.0144876195 0.010436915 -0.010708199
0000e0 26 2f 0a 3d 1d 4c 80 bd d7 1d bc 3c 0c 2f c8 3d
       0.03373637 -0.062645175 0.022963447 0.097745985
0000f0 2e 6c a5 3d cd 36 e2 bc 33 19 09 bd 99 31 89 3d
       0.08077274 -0.027614022 -0.033471297 0.06698913

label_head.weight f4 [1, 64]
000000 5f 43 c9 bd 36 5e dc 3c 68 0d 8d 3c 3d 8c ce 3d
       -0.09827303 0.026900392 0.017218307 0.10085342
000010 2b e1 83 bd f2 e9 b1 3d e8 4a f2 bc 7d e2 e0 3d
       -0.06439432 0.086872 -0.029576734 0.10980699
000020 7d 59 11 be 85 32 b4 bd fd 54 1f bd 5b 83 0f be
       -0.14194293 -0.08798698 -0.03889941 -0.14014952
000030 88 09 dc bc 40 b4 ea bd 09 3d 87 3d eb db c1 3d
       -0.026860014 -0.11460161 0.066034384 0.09465774
000040 a9 7f cb bc 73 8f 77 3d 5d ee 48 3d d3 c3 18 3d
       -0.024841147 0.06043954 0.049055446 0.037296128
000050 a3 16 f9 3b 29 8b c7 bd e0 6e 04 be 56 34 13 3d
       0.0076015755 -0.097433396 -0.1293292 0.035938583
000060 da 30 cc bd dc f9 ae 3d 90 c3 5b 3c da b9 a1 bd
       -0.09970255 0.08543751 0.013413325 -0.078967765
000070 8a 9a 85 bd 45 b7 9b 3c ee 4b ab bc c4 26 c5 3d
       -0.065236166 0.019008288 -0.02091023 0.096265346
000080 92 47 81 bd 1e d7 b9 bd 31 37 fd bd 50 c7 40 3c
       -0.06312479 -0.090742335 -0.123640426 0.01176627
000090 38 c1 d4 bd 4e a7 dc bc a4 56 e3 3d fb b4 90 bd
       -0.10388416 -0.026935246 0.1110051 -0.07065769
0000a0 39 7e c7 3d 3e 3d 83 3d 39 06 b2 bd 10 56 6a 3d
       0.09740872 0.064081654 -0.08692593 0.05721098
0000b0 2d cc 85 bd fa cf 68 3d d7 c8 b7 bd 5d c3 b1 3c
       -0.06533084 0.056838967 -0.08973854 0.021699602
0000c0 3a bb 72 3d 7f a0 a5 3d 02 10 81 bd fa e4 7d 3d
       0.059260584 0.08087253 -0.063018814 0.061985947
0000d0 79 7e a0 3d 47 7d 44 bd ee fc 9d 3d 34 28 32 bd
       0.07836623 -0.047971036 0.07714258 -0.043495372
0000e0 81 09 b4 bd e2 0b 09 3d 09 9e b4 3c ca af 04 be
       -0.08790875 0.033458598 0.022048013 -0.12957683
0000f0 31 69 8c bd 14 3d 38 bd b0 33 8e 3d 01 77 c5 bc
       -0.06856001 -0.044980124 0.06943452 -0.024104597

domain_head.0.weight f4 [32, 64]
000000 10 68 dc ba 0f c8 b9 3c 06 24 2b 3c 7f 46 b6 3d
       -0.0016815681 0.022678403 0.0104456 0.08900165
000010 a6 17 12 be 6c b3 53 ba f3 b1 b1 bd f2 69 88 bd
       -0.14266834 -0.0008075747 -0.08676519 -0.066608325
000020 fd 48 cb bd c3 59 4a bd c6 56 0d be 4f 1e 0b be
       -0.09926031 -0.04940201 -0.13802633 -0.1358578
000030 04 2e 7c 3d d0 95 65 3d df 55 6e bd 9d 80 53 bd
       0.06156732 0.056051075 -0.05818736 -0.051636327
000040 a9 0d 85 bd e8 fe 93 3c 4b 4d 80 bd bb 3f 1e 3d
       -0.06496746 0.018065885 -0.062647425 0.038634997
000050 53 96 04 bc 3e 83 1a 3c 44 0e a9 bd 7d 67 9c bd
       -0.008092481 0.009430705 -0.08254674 -0.07636926
000060 4a a8 07 3d ba 8f ab 3d cb b7 a2 bd 22 5b 34 3d
       0.033119477 0.08377023 -0.07945212 0.044032224
000070 df f2 f2 bc de ca e6 3d 8a cc 95 bd 00 82 bd 3d
       -0.029656826 0.112691626 -0.07314403 0.09253311
000080 52 75 02 3d b0 22 9c 3d 6a 71 ad bc 3f 41 94 3d
       0.031850167 0.076238036 -0.021172244 0.07239007
000090 86 ec 8d bc 0c 52 8e bc a9 e8 07 bd 5d 0c 81 3c
       -0.017324697 -0.017373107 -0.033180866 0.015752966
0000a0 0b 50 db 3d 10 e5 b4 3d b9 6b b7 bd a7 54 7b bd
       0.10708626 0.08832753 -0.08956093 -0.061360028
0000b0 51 1d 41 3d 9e 6e 6e bd dd bc 71 bd 89 9a 6d 3c
       0.0471471 -0.05821096 -0.059018005 0.014502176
0000c0 e0 11 a9 bd 0c f5 cd bd 4f a7 a5 3d 36 f3 fe bd
       -0.082553625 -0.100565046 0.08088552 -0.124487326
0000d0 0f aa b1 bd 6b 74 1a 3d aa 1d e3 bc 98 1d 21 3d
       -0.08675014 0.03770868 -0.027724106 0.039334863
0000e0 33 4f 16 bd 26 25 2c bc e1 1b 1c bd 52 60 67 3c
       -0.036696624 -0.010506904 -0.038112525 0.014122086
0000f0 ce 2e 78 3c 17 1f 0f bd 5e 96 92 3d 2a d0 c3 bd
       0.015147878 -0.03494176 0.071575865 -0.095611885
000100 26 a4 e2 ba 8a d7 03 3d dc b5 9d 3d 84 d5 aa bc
       -0.0017291352 0.032187976 0.077007025 -0.020853765
000110 2f 5f 00 3d bf 81 ba bd ad e2 b9 3d 39 e7 d8 3d
       0.031340774 -0.09106778 0.09076438 0.10590977
000120 29 82 98 bd b4 16 96 bd 68 3c ce 3c 9d d6 0e 3e
       -0.07446701 -0.07328549 0.025175288 0.13949056
000130 37 2a 88 3d dd fc 00 3e 21 3d c8 bd 4d 9f f2 3d
       0.06648677 0.1259646 -0.097772844 0.118467905
000140 d7 0c 0d 3e bd d0 93 bd 8c 12 5d 3d 5e c0 9a 3b
       0.1377443 -0.07217548 0.053972766 0.004722639
000150 9a f9 fc 3d 0d 30 16 bd 9a 94 b3 bd 5b bb 96 bd
       0.12352295 -0.03666692 -0.08768578 -0.07359954
000160 f0 9a f2 3d cb c3 76 3d 11 0e b4 bd 1d 2b 93 bd
       0.11845958 0.060245316 -0.087917455 -0.071859576
000170 50 20 c6 3d b7 2a 3a bd 3a 5e 68 bd 80 2a e8 bc
       0.09674132 -0.045450892 -0.056730486 -0.028340578
000180 4f 91 97 bc 33 c3 40 bd 42 33 ce bc 4b 2f db 3c
       -0.018501906 -0.047061156 -0.025170926 0.02675595
000190 4a c7 5d 3d c2 be 0a 3e ce e0 e8 bd 30 19 3d bb
       0.054145135 0.13549331 -0.11371003 -0.0028854124
0001a0 05 28 dd bb cc f8 8b bd 75 d7 78 3d 66 8f 71 bd
       -0.0067491555 -0.068345636 0.06075235 -0.058974646
0001b0 c9 c6 a7 bc 3e 09 a6 bd f6 e6 9c bc 94 b7 fb 3c
       -0.02048053 -0.081072316 -0.0191531 0.030727185
0001c0 5c 97 71 bd 20 f1 e4 3b 04 36 2f bd 11 88 36 3d
       -0.05898224 0.006986752 -0.042776123 0.044563357
0001d0 63 12 80 3d f3 ff 37 bd 66 e4 15 bd 43 f4 13 3c
       0.06253507 -0.044921827 -0.03659477 0.0090304045
0001e0 1c ba 12 bd 9f 77 5d bd 5d 82 bb 3d 11 ae 0f 3c
       -0.03582202 -0.054069158 0.09155724 0.008769528
0001f0 68 52 a1 3d 60 47 ff 3c c2 f0 03 3d bf 16 70 bd
       0.07877046 0.031161964 0.032212026 -0.058615442
000200 d6 52 25 3d 4d 77 05 3e 83 b0 03 3e 38 90 d1 3d
       0.0403622 0.13033791 0.12860303 0.10232586
000210 d3 b7 67 bc ae 5a 91 3c 4b 2e 12 3e 87 0a 35 bc
       -0.014142948 0.017743435 0.14275472 -0.011049873
000220 e8 24 7d 3d 8b 95 2c 3d 20 dc e6 3d 8e 2f e3 bc
       0.061802775 0.042134803 0.11272454 -0.027732637
000230 e8 34 5b 3d 7e 52 a2 bd 6d 5f 71 bc da 31 93 3d
       0.053517252 -0.079258904 -0.014732224 0.07187243
000240 5e 0a 30 3d ae 5f 07 3e 6c 31 8e bd b3 97 97 3d
       0.042978637 0.13220093 -0.0694302 0.07401981
000250 d9 63 e5 3a a1 94 17 3e e7 b1 10 3e aa 15 07 3e
       0.001750107 0.14802791 0.14130364 0.13191858
000260 1e f8 53 bd 84 ce 0d 3e 88 7c 7b bd 4d bc e3 bc
       -0.051750295 0.1384831 -0.06139806 -0.02779975
000270 ca cf ce 3d 16 2e 69 3c a2 f9 b0 3d 9f 6d 00 3e
       0.10098226 0.014232179 0.08641364 0.12541817
000280 06 bf 71 3c 26 80 81 3d fe 44 00 3d 38 d9 c7 3d
       0.014755016 0.063232705 0.031315796 0.09758228
000290 e8 6e ba 3d 1b 08 14 3d e2 5a 99 bd 65 8a 85 3d
       0.09103185 0.036140542 -0.07488038 0.06520537
0002a0 c8 d2 c1 3d 70 2b b6 3c d6 a0 b0 3d 45 6d 28 3d
       0.094640315 0.02223751 0.08624427 0.041119833
0002b0 33 9f fb bc 73 19 53 bd 5b 14 09 3c 1c 60 c0 bd
       -0.03071556 -0.051537942 0.0083666695 -0.093933314
0002c0 b8 3d 3a 3c 9d c2 65 bc 29 a0 99 bd be 8a fb 3c
       0.011367254 -0.01402345 -0.07501251 0.030705806
0002d0 1f d5 17 3d 52 d8 9a 3d cb 3c dc 3b d3 eb 48 bc
       0.037068482 0.07560791 0.0067211143 -0.012263256
0002e0 73 0d 3e 3c 56 1f b2 bd bc 3a b9 3c b1 8b ca 3d
       0.011599886 -0.08697383 0.022611015 0.09889925
0002f0 2f 8e 01 3d a5 87 27 3d 9a 5a fa 3d 6e cc 03 3e
       0.031629737 0.040900845 0.12224312 0.12870952
000300 04 9a 13 3e 6a 68 ed 3d ae 1d a5 3d 3d d3 65 3c
       0.14414221 0.11592181 0.080623016 0.014027414
000310 2d 1e bf bd b5 4c 0e 3d 1b 1d ce 3d 97 db cb 3c
       -0.093319274 0.034741122 0.10064145 0.024884982
000320 db ac ca 3d 35 ab 81 bd a0 f4 e8 3c d6 ab 1f 3e
       0.09896251 -0.06331483 0.028436959 0.15592894
000330 b1 53 ad bd 23 e3 60 3c f9 10 97 3d 8d d2 d0 bd
       -0.084632285 0.013726029 0.07376284 -0.101964094
000340 60 75 97 bc 01 78 0f bd 27 74 d4 3d 5e 19 4b 3b
       -0.018488586 -0.035026554 0.10373717 0.0030990462
000350 d6 2c 4c 3c f4 a5 07 3e 2f 44 7c 3d 45 b1 8b bc
       0.012461862 0.132469 0.061588462 -0.017052302
000360 14 87 be 3d 09 d6 15 bd 87 4b 02 3e 1c 4c d4 bb
       0.09303108 -0.036581073 0.12724124 -0.0064787995
000370 9b a3 0f 3e 46 7a 9f bc af 5d c0 3d 6d 81 06 3e
       0.14027254 -0.019467484 0.09392869 0.1313531
000380 34 d9 84 bc 09 cc a7 3c d4 d2 05 bd 21 45 a2 3d
       -0.016216852 0.020483034 -0.032671764 0.079233415
000390 ea f6 85 bc 46 0f fc 3d a5 4b 80 bd 84 01 81 bc
       -0.01635309 0.12307601 -0.06264428 -0.015747793
0003a0 4a 43 0d bc 94 5f f3 3d 63 cf c2 3d 3d ff 8b 3b
       -0.008622 0.118834645 0.09512212 0.00427237
0003b0 9a 11 c0 3d 26 42 bf bd f9 ad a9 3c bb 10 01 3e
       0.09378357 -0.09338789 0.02071284 0.12604038
0003c0 ca dc 63 bc ac 3e 45 bd 8f f6 e4 bc fc 6a eb 3d
       -0.013907621 -0.04815547 -0.0279496 0.11495015
0003d0 d3 9f 07 3d 8f 49 70 3d d9 73 34 bd a9 c8 c2 3d
       0.033111405 0.0586639 -0.044055793 0.09510929
0003e0 1e f0 fe 3c c4 3d 0c 3e 44 50 d0 3d c3 09 9c bd
       0.031120356 0.13695437 0.101715595 -0.076190494
0003f0 9c 69 08 3e db c4 5f bd 57 84 b4 bc 25 9f 3e 3d
       0.13321537 -0.054631095 -0.02203576 0.04653849

domain_head.0.bias f4 [32]
000000 4f 9e 3f 3d 8e cc 25 bb 73 5d ba bd bc 97 14 bd
       0.046781834 -0.0025298926 -0.09099855 -0.036277518
000010 f1 dc 54 3d 56 b3 64 3d 1a aa 93 3d 80 37 14 be
       0.05196852 0.05583509 0.07210179 -0.14474297
000020 1a 6c a2 bc 6f e0 54 3d 72 ca c4 3c 2b 49 00 bd
       -0.019826937 0.05197185 0.024022315 -0.03131978
000030 1e b2 df 3d 34 80 c1 bd 2c b9 5a 3d 81 d4 68 3d
       0.10922645 -0.09448281 0.05339925 0.056843285
000040 07 a2 f5 bd bb de 4d bd 26 41 cd bd 97 4d 9f 3d
       -0.11993795 -0.05026124 -0.10022192 0.07778471
000050 41 76 d0 bd ef 27 70 bc a1 f5 e2 bb e6 49 e7 3a
       -0.10178805 -0.014657958 -0.006926254 0.0017645925
000060 ee ca 2d bd 39 32 9c bd 31 51 ed bd 8b 5f cc bc
       -0.042429857 -0.07626767 -0.11587752 -0.024947902
000070 25 e2 be 3c 81 b4 dc 3b 93 ac 97 3d c5 35 96 bd
       0.023301193 0.006735385 0.07405963 -0.073344745

domain_head.2.weight f4 [8, 32]
000000 2e d8 a5 3d 5c dd 96 3d f5 83 2f be 8f 7d f2 3d
       0.08097874 0.0736644 -0.17140181 0.11840355
000010 da 93 11 bd 28 65 23 bd 44 c5 46 be d7 72 8b 3d
       -0.035541393 -0.039891392 -0.19411188 0.06809013
000020 6f 2f 2d 3d 76 2e 71 3c ba a8 3c 3d ee dc 3f be
       0.042281564 0.01472055 0.046059348 -0.18736622
000030 3b ac 21 3e 4e 82 d0 3d 33 c4 a8 bd 65 36 8d 3d
       0.15788357 0.10181104 -0.08240547 0.068951406
000040 db 52 98 bd 05 cf b1 bd 6e f6 da bc 06 cb c5 3d
       -0.074376784 -0.08682064 -0.026728835 0.09657864
000050 dd 96 b0 3d e3 5a 9a bd 77 57 34 be 60 e2 ea bc
       0.08622525 -0.075368665 -0.1761149 -0.028672397
000060 d7 cc d7 bd e7 d9 28 bd 05 3e 9f 3d f4 b6 da 3d
       -0.10537117 -0.041223433 0.07775501 0.10679427
000070 90 63 10 bb 77 12 43 3d ca 3d 3e 3a 68 e1 c3 bd
       -0.0022032 0.04762503 0.0007257132 -0.09564477
000080 6e d9 b6 3d d7 52 1e be 9b c3 37 bd bd f5 df bd
       0.0892819 -0.15461288 -0.04486428 -0.10935543
000090 3a e4 96 bb d1 b1 ee 3d 65 bc f6 3c 4b 4c 19 bd
       -0.0046048434 0.116550095 0.03011913 -0.037426274
0000a0 58 74 46 be bd 02 20 be cd a6 8b bd 0a 36 ef bd
       -0.19380319 -0.15626045 -0.06818924 -0.11680229
0000b0 e0 f5 8b 3c 95 b1 43 be e9 99 09 3e 85 6d 9f bd
       0.017085016 -0.19110711 0.13437618 -0.07784561
0000c0 d8 61 c0 3d 0f 5d c5 3d de 67 03 3e 70 e7 2b bd
       0.09393662 0.0963689 0.12832591 -0.041968763
0000d0 98 df 9d bb 8a 69 9b 3d 4a 40 25 be 0a c2 30 bd
       -0.004817914 0.07588489 -0.16137806 -0.0431538
0000e0 65 23 35 3d fe 8a 09 bd c6 44 0d be e8 0a 77 3c
       0.044223208 -0.03357982 -0.13795766 0.015078284
0000f0 75 4a 44 bd 66 81 ab 3d 1c a0 1e be 08 61 f2 b9
       -0.04792257 0.0837429 -0.15490764 -0.0004623013
000100 56 16 07 bc f7 3a df 3c 3f 38 44 3e 86 87 0b 3d
       -0.008245071 0.027249796 0.19162081 0.034064792
000110 53 ef 1c 3c a7 93 0c be f2 70 73 bd 92 1b ef bd
       0.009578544 -0.137282 -0.059433885 -0.116751805
000120 cb 83 29 3d b7 00 06 bc 64 08 ab 3d 05 a2 33 3e
       0.041385453 -0.008178881 0.0835121 0.17542274
000130 6d b8 65 3d 84 e4 de bd b4 12 9e bd d0 6d 64 bd
       0.056084085 -0.1088343 -0.07718411 -0.055768788
000140 35 ff b2 bd 7f 86 75 3d 7e fc 1c be c5 82 fb bd
       -0.08740083 0.05994272 -0.15330693 -0.12280802
000150 02 ed a5 bc 73 45 da bd f5 88 10 3e 10 00 b6 3d
       -0.020254616 -0.10657778 0.14114745 0.08886731
000160 cd 56 2b 3e fb 28 e3 3d 14 4a 0f bd be 7a 77 bc
       0.1673233 0.11091801 -0.034982756 -0.015104948
000170 9e 78 c1 3d fc eb 0a be 37 a0 98 3d 60 93 14 be
       0.09446834 -0.13566583 0.074524336 -0.14509344
000180 e7 8b ba 3d a1 5e 87 bd d7 31 84 3d 27 50 98 3d
       0.091087155 -0.06609846 0.06454819 0.07437163
000190 16 c0 ab 3c 4d dc 16 3d 48 0f 41 bd 65 4f a3 3c
       0.020965617 0.03683119 -0.047133714 0.01993532
0001a0 cb 6f de 3d 66 6a 21 3e ab d2 0f bd 64 d3 36 3d
       0.108611666 0.15763244 -0.035113018 0.04463519
0001b0 93 84 68 3d 41 c9 b2 3d 7d b8 a1 3d 9e 0c 97 3d
       0.056767058 0.087297924 0.078965165 0.073754534
0001c0 92 78 ef bd 46 18 a8 bc 59 fa 90 bd bb 62 22 3e
       -0.11692919 -0.020519387 -0.07079 0.15857975
0001d0 dd ab 8d bd 40 6b b6 3d 46 d3 71 3d 7a f1 9b 3d
       -0.06917546 0.08907175 0.059039377 0.076144174
0001e0 69 63 41 3d c5 37 2b ba 3b 35 40 bd d3 dc 3b 3e
       0.047213946 -0.00065314426 -0.046925765 0.18345957
0001f0 06 86 53 3d f0 aa 10 3e bf 1a 95 3d 7d 37 1e 3e
       0.051641487 0.14127707 0.07280492 0.15450855
000200 fb 66 06 3d b8 0f b7 bd 16 1b 04 bb 49 a4 26 be
       0.032813054 -0.08938545 -0.0020157746 -0.16273607
000210 69 99 b5 3d 91 36 1f be da b8 91 3d de cb 14 3d
       0.08867151 -0.15548159 0.07115336 0.036327235
000220 e4 77 51 be 83 fc b9 bd 0b 98 8c bd 9d 8e c2 bd
       -0.20455891 -0.09081366 -0.068649374 -0.094998576
000230 94 6e f3 3c ff db de bd 91 11 f8 3d 88 05 5a bd
       0.029715814 -0.10881805 0.121127255 -0.05322793
000240 dc 97 9b 3d eb 89 e3 bd 43 68 f4 bd c0 02 02 3e
       0.07597324 -0.1111029 -0.11933949 0.12696362
000250 ae c8 30 be 1f 77 af bc c9 90 f7 bd 1b 78 d1 bd
       -0.17264053 -0.021419106 -0.120881625 -0.102279864
000260 9c 87 32 bd 28 80 b6 3c 45 af fb bc b9 79 67 3c
       -0.04358636 0.022277907 -0.030723223 0.014128142
000270 cb 9c 17 3e 4d 20 e2 3b 6c b4 a7 3d a4 de 7d bd
       0.14805906 0.006900823 0.081887096 -0.061979905
000280 fa 43 68 bd 5f da 31 be dd 86 fd bd 2d 53 c7 bd
       -0.056705453 -0.17368458 -0.12379239 -0.097326614
000290 25 df b8 3c 69 0b 8e bd 4f e6 39 be 19 99 b0 bd
       0.022567341 -0.0693577 -0.18154262 -0.08622951
0002a0 b6 e5 01 3e 2e 8e d9 bd 84 ec 22 be 51 52 49 3d
       0.12685284 -0.10622822 -0.15910536 0.04915077
0002b0 55 11 93 bd 41 d6 69 bd b7 e1 33 be 49 8f 21 be
       -0.0718104 -0.057089094 -0.17566572 -0.15777315
0002c0 80 04 d9 3c 0e f6 9f 3d 9a 9e d3 bd c8 45 8e bd
       0.026491404 0.07810603 -0.10332985 -0.069469035
0002d0 fb 48 4d 3d 41 2e 16 3e 74 51 90 bd 17 34 4f be
       0.050118428 0.14666082 -0.07046786 -0.20234714
0002e0 ec c5 bd 3d fa 7d 3e be 5b d7 cf bd cf a5 07 be
       0.09266266 -0.18602744 -0.10148498 -0.13246845
0002f0 c8 63 8e 3d 81 9b 9e 3d c6 3c 08 3e dc b7 d7 b9
       0.069526255 0.07744504 0.13304433 -0.00041144982
000300 f1 9e 09 be 2e 15 cd 3d d2 1b c5 3d ca fb a7 3c
       -0.13439538 0.10013805 0.09624447 0.020505805
000310 03 d8 0e 3d eb 02 28 be a2 b5 85 bd 2c 7b 0f 3e
       0.034873974 -0.16407363 -0.06528784 0.1401183
000320 7f 0e ee ba 09 6a 4f be 18 a2 0d 3e a8 54 ae 3d
       -0.0018162279 -0.20255293 0.13831365 0.08512241
000330 3f b9 d4 3d df 58 a3 3d 4d ee 4e 3d db 6c 10 3e
       0.103868954 0.07975935 0.05052023 0.14104025
000340 4a d0 6b 3d 43 b7 46 be ca 3f da bd db e4 33 3d
       0.057571687 -0.19405846 -0.10656698 0.043919425
000350 ca c6 26 be a8 99 15 be e5 80 27 be 34 c5 13 be
       -0.1628677 -0.14609396 -0.16357763 -0.14430696
000360 5f 7e 2e 3d 4d 0c b7 3d 0f 1c e6 bd aa 65 ca bd
       0.042600986 0.08937893 -0.112358205 -0.09882672
000370 c6 ee 53 bd 9c aa b1 bd 89 e0 a3 bd 12 30 f7 bc
       -0.051741384 -0.08675119 -0.08001811 -0.030174289
000380 44 7a 38 3e 07 c4 1f be c1 68 8c 3d b2 20 21 bd
       0.1801539 -0.15602122 0.06855918 -0.03933782
000390 f4 67 cb bd b7 10 9e 3d 53 36 03 3e 86 51 3c 3e
       -0.09931937 0.07718032 0.12813692 0.18390474
0003a0 74 42 82 bd 8a 9d 79 3c ad 34 da bd f7 78 88 bd
       -0.06360331 0.015235314 -0.10654578 -0.06663697
0003b0 50 73 09 3d 05 85 e0 3d 47 8a b9 bb c7 7b 07 3e
       0.033557236 0.109628715 -0.005662236 0.13230811
0003c0 41 23 35 3c 04 b0 8c bc 4e 55 65 3d b3 70 1f 3e
       0.0110557685 -0.017173775 0.055989556 0.15570335
0003d0 11 60 a8 3d d6 21 57 bd 75 19 53 bd c8 a8 4b 3e
       0.08221448 -0.052522503 -0.05153795 0.19888604
0003e0 bc 6c 2d 3e 34 f5 1c 3e c3 25 c0 bd fd 4c 25 be
       0.1693601 0.15327913 -0.093822025 -0.1614265
0003f0 1b e9 e8 bd 22 5b b1 3d 6b 97 4b 3e 52 0f 8e bd
       -0.11372586 0.0865996 0.1988198 -0.06936516

domain_head.2.bias f4 [8]
000000 71 f7 51 be d4 28 16 be e9 45 c6 3d 1d c9 0d 3e
       -0.20504548 -0.14664012 0.09681303 0.1384625
000010 9e d4 82 bd 3d ac c9 bc 12 b1 21 be 1d 9a 54 bd
       -0.0638821 -0.024618262 -0.15790203 -0.051904786
