Results/SectionD_DANN_Domain_Adversarial/dann_model_full.pt (torch, 54405 bytes, 9 tensors)

feature.0.weight f4 [128, 9]
-0.22377567 0.21680745 -0.04158091 -0.14784631 -0.05203804 0.16106997 -0.15518291 -0.070024475
0.14811663 -0.06322302 0.10561941 -0.22847801 -0.045845143 -0.1766883 0.30477947 -0.33188486
-0.18587321 -0.11273176 0.1373578 -0.12758744 -0.1943572 0.004219744 -0.100932606 0.3039629
0.17522885 0.24493901 -0.26167393 -0.11196736 -0.26341578 0.30062237 0.18643978 -0.2613348
-0.24843694 0.18955265 -0.18333781 0.11592737 -0.27260265 -0.25735742 -0.08381927 -0.241595
0.17508975 -0.2574566 -0.084971696 -0.33927417 0.2882238 0.026917342 -0.2174965 -0.06454903
0.11542628 -0.14062786 0.29189256 -0.06157937 0.33194464 0.20000046 0.23240529 -0.0030576726
-0.09975077 0.1447457 0.21753563 0.053094827 0.09516286 0.29380542 -0.19094822 -0.06345812
0.021987027 -0.043003935 -0.18791002 0.10090578 0.078471884 -0.184378 -0.048667546 0.019708728
-0.048810966 0.10485612 -0.29746655 -0.057477627 0.2360284 0.0103609925 -0.009888535 -0.11427154
-0.05759996 -0.06076102 -0.16770998 -0.22787607 -0.024106972 0.31409281 0.23791614 0.04583614
0.12860186 0.07307748 -0.18813065 0.09270889 0.17362404 -0.046709467 0.20657092 0.14285494
-0.15629987 0.093107246 0.1662563 0.24639738 -0.19575712 -0.280822 -0.10311515 0.016521558
-0.23799592 -0.08087207 -0.21072784 -0.22515106 0.08571369 0.13622323 0.028497776 0.20837049
-0.06666939 0.07165307 0.24473637 0.24688552 0.1058182 -0.30486462 0.06620373 0.2184405
0.1067951 -0.33705148 -0.120915405 -0.17862365 -0.30637872 -0.29427803 0.2210088 -0.23258607
-0.21427482 -0.1662985 -0.030893646 0.21986078 -0.33740732 -0.17258307 -0.06555113 0.076926954
-0.1757464 -0.08525457 -0.19783004 -0.094842725 0.19290172 -0.110128924 -0.06951971 -0.21098614
0.077540785 -0.21953963 0.092156164 -0.33141524 0.13313113 0.12970424 -0.2414323 -0.051779293
-0.17903602 -0.1446578 0.14583613 -0.17216918 0.1674704 0.1629496 0.2840372 -0.13199322
-0.2795574 0.20375623 -0.07434345 -0.14091225 -0.17733702 0.30771062 -0.26562363 0.09457645
0.09644829 -0.15222435 0.19959927 0.16761272 0.20781605 0.07416684 0.08303465 0.07151042
-0.081185766 -0.24437626 -0.00316678 0.01629335 0.21341833 0.026521366 -0.013780846 -0.12370569
0.2956136 0.28545514 0.34056893 -0.022405885 -0.17618068 -0.28475964 -0.34224856 -0.27670506
-0.12797326 0.26601616 -0.31205142 -0.06745328 0.11479552 0.16200545 0.0060715787 -0.055889186
0.026767634 -0.20790748 0.15470292 0.18808569 0.04736464 0.26351646 0.19500789 -0.3245756
-0.1519927 -0.29179987 0.08930732 -0.3118653 0.09428095 -0.26113504 0.16041568 -0.23390855
-0.30688867 -0.1574395 0.10492984 -0.15789825 0.11880475 0.023787446 -0.17038654 -0.0336867
0.21122625 -0.228826 0.29888582 0.08788369 0.17806093 -0.06622638 0.27189586 -0.25878054
-0.15503342 0.23077029 -0.16430832 0.2459299 -0.11828022 -0.28406292 0.29698405 0.26437196
0.12358009 -0.25718775 0.05689649 -0.093708776 0.29940686 0.056854036 -0.041038986 -0.31359994
-0.12700473 0.23207115 -0.24200232 0.043600135 -0.26739419 -0.036359407 -0.08310622 -0.05380454
00000000: 7325 65be c602 5e3e bf50 2abd 0665 17be
00000010: d725 55bd 87ef 243e 45e8 1ebe fe68 8fbd
00000020: e3ab 173e 127b 81bd fd4e d83d 24f6 69be
00000030: 1ec8 3bbd c7ed 34be 0e0c 9c3e d0ec a9be
00000040: 8c55 3ebe e9df e6bd 86a7 0c3e 48a6 02be
00000050: 9305 47be c745 8a3b c1b5 cebd 06a1 9b3e
00000060: 316f 333e 4bd1 7a3e 20fa 85be 254f e5bd
00000070: 6fde 86be 2deb 993e 12ea 3e3e adcd 85be
00000080: 4166 7ebe 171a 423e e8bc 3bbe 546b ed3d
00000090: 9392 8bbe 5ac4 83be 70a9 abbd ae64 77be
000000a0: ba4a 333e 5ad1 83be a405 aebd 58b5 adbe
000000b0: 1292 933e c281 dc3c 67b7 5ebe 4832 84bd
000000c0: 9d64 ec3d c000 10be f172 953e a63a 7cbd
000000d0: a6f4 a93e eccc 4c3e a7fb 6d3e 3c63 48bb
000000e0: 224a ccbd 3738 143e a9c1 5e3e f679 593d
000000f0: bfe4 c23d aa6d 963e ee87 43be 55f6 81bd
00000100: 231e b43c e524 30bd 7c6b 40be b1a7 ce3d
00000110: deb5 a03d 96cd 3cbe 9f57 47bd 3374 a13c
00000120: 02ee 47bd cebe d63d 894d 98be a96d 6bbd
00000130: 6eb1 713e 27c1 293c 8603 22bc 3207 eabd
00000140: f0ed 6bbd 8ce0 78bd 2abc 2bbe 5858 69be
00000150: fc7b c5bc c6d0 a03e 4aa0 733e adbe 3b3d
00000160: 35b0 033e a5a9 953d 52a5 40be 29de bd3d
00000170: 80ca 313e 6d52 3fbd 5487 533e 9148 123e
00000180: 130d 20be 03af be3d 173f 2a3e 984f 7c3e
00000190: 8e74 48be e7c7 8fbe 092e d3bd 3858 873c
000001a0: 34b5 73be 41a0 a5bd 0ac9 57be 008e 66be
000001b0: a98a af3d 1a7e 0b3e 2b74 e93c 135f 553e
000001c0: f689 88bd d8be 923d 2c9c 7a3e 8fcf 7c3e
000001d0: 36b7 d83d 3717 9cbe d295 873d deae 5f3e
000001e0: 64b7 da3d 0392 acbe 7fa2 f7bd 1ee9 36be
000001f0: acdd 9cbe 9cab 96be 2250 623e 0b2b 6ebe
00000200: dc6a 5bbe 274a 2abe ac14 fdbc 2f23 613e
00000210: a7c0 acbe 9eb9 30be ac3f 86bd e18b 9d3d
00000220: ddf6 33be f399 aebd f593 4abe e73c c2bd
00000230: 0788 453e 468b e1bd 5a60 8ebd c00c 58be
00000240: b4cd 9e3d ffce 60be 5fbc bc3d 42af a9be
00000250: 8753 083e 30d1 043e 073a 77be 8616 54bd
00000260: 3855 37be 2d21 14be 1156 153e 1e4d 30be
00000270: 5c7d 2b3e 43dc 263e 536d 913e 3b29 07be
00000280: 2622 8fbe 79a5 503e 6141 98bd 4d4b 10be
00000290: d697 35be 3f8c 9d3e d2ff 87be 4cb1 c13d
000002a0: ae86 c53d b3e0 1bbe c063 4c3e aba2 2b3e
000002b0: bbcd 543e c9e4 973d 120e aa3d 0e74 923d
000002c0: b944 a6bd c53d 7abe c189 4fbb a279 853c
000002d0: 568a 5a3e 5643 d93c 0fc9 61bc 6959 fdbd
000002e0: aa5a 973e 2d27 923e 0d5f ae3e 8c8c b7bc
000002f0: b568 34be 04cc 91be 343b afbe 49ac 8dbe
00000300: 6c0b 03be 4533 883e 34c5 9fbe f224 8abd
00000310: ea19 eb3d c2e4 253e 18f4 c63b 0fec 64bd
00000320: cc47 db3c b3e5 54be 716a 1e3e 8999 403e
00000330: 6d01 423d a1eb 863e 26b0 473e c62e a6be
00000340: f9a3 1bbe cb66 95be c2e6 b63d cfac 9fbe
00000350: 5f16 c13d 7eb3 85be 0244 243e b985 6fbe
00000360: 8320 9dbe d237 21be 75e5 d63d 14b0 21be
00000370: e84f f33d e4dd c23c cf79 2ebe 11fb 09bd
00000380: b24b 583e 5d51 6abe 9007 993e 5dfc b33d
00000390: 9b55 363e b2a1 87bd ef35 8b3e e27e 84be
000003a0: 15c1 1ebe 0c4f 6c3e 7140 28be 0cd5 7b3e
000003b0: e63c f2bd b270 91be 4b0e 983e c35b 873e
000003c0: 8f17 fd3d 1dae 83be 4b0c 693d 63ea bfbd
000003d0: db4b 993e c7df 683d 7f18 28bd 2c90 a0be
000003e0: 870d 02be 0fa4 6d3e 75cf 77be 0e96 323d
000003f0: e4e7 88be 9aed 14bd 9833 aabd 2662 5cbd

feature.0.bias f4 [128]
0.010489033 -0.05145958 -0.1603053 0.2480896 0.19943789 -0.26702124 -0.2923266 -0.18273905
-0.041822787 -0.046653036 0.3201992 -0.022619078 -0.06612902 0.24562721 -0.079741165 0.24985169
-0.0640349 -0.13357037 0.05708314 -0.2689449 0.32039374 0.10143398 0.2943257 0.3411303
0.0357459 0.014237062 -0.050846994 -0.21105595 0.16520223 -0.23674092 0.28243244 0.16034973
-0.016505228 0.2057444 0.05400263 0.2906812 -0.18091536 -0.25094518 -0.11382303 0.18664761
0.21594076 -0.11736601 -0.07132278 0.17178114 -0.34679314 0.1263113 0.01626311 0.07791437
-0.3348223 0.022076067 0.048244875 0.26014563 0.24855232 -0.0343644 0.26962614 -0.31256056
-0.02264569 -0.0023658157 -0.25042722 0.16201998 0.28081554 -0.12469228 -0.2342774 0.03250166
0.27151567 -0.12995133 -0.14613064 0.13652395 0.29989386 0.32575503 0.28967285 0.21225779
0.19140595 -0.3462143 0.33384028 -0.12518877 -0.30008328 -0.20250362 -0.24593376 -0.22391082
-0.009958109 0.16618033 -0.25260085 -0.30425692 0.18072721 0.04924963 0.12178816 -0.18074319
0.16619743 -0.17274699 0.33410862 0.09241385 -0.2378849 0.16315351 0.3229941 -0.21896423
0.08891151 -0.110955074 -0.23843613 0.10644918 0.21959276 0.30936807 0.0458649 0.012012912
-0.045842048 0.19686161 -0.02135914 0.06643227 -0.05812108 -0.13836792 0.23051728 0.15361503
0.12822579 -0.039873865 0.08208927 0.09924019 -0.017370995 -0.11360074 -0.09221033 -0.176361
-0.13376622 -0.31242374 0.047667157 -0.21106376 -0.26302326 0.009523841 -0.22162543 -0.3115616
00000000: 31da 2b3c 48c7 52bd 1327 24be 330b 7e3e
00000010: 7239 4c3e 02b7 88be d5ab 95be f21f 3bbe
00000020: 5f4e 2bbd 4117 3fbd 26f1 a33e a54b b9bc
00000030: a76e 87bd b385 7b3e 564f a3bd 1fd9 7f3e
00000040: bb24 83bd acc6 08be 03d0 693d 25b3 89be
00000050: a60a a43e 9ebc cf3d dcb1 963e a1a8 ae3e
00000060: 4b6a 123d 9142 693c f044 50bd 0d1f 58be
00000070: c62a 293e 366c 72be fc9a 903e b832 243e
00000080: f935 87bc a9ae 523e dd31 5d3d 2bd4 943e
00000090: e041 39be e37b 80be 0c1c e9bd 8d20 3f3e
000000a0: 931f 5d3e 975d f0bd ad11 92bd 65e7 2f3e
000000b0: df8e b1be c057 013e 373a 853c 9291 9f3d
000000c0: d46d abbe ded8 b43c 6b9c 453d cf31 853e
000000d0: 8084 7e3e afc1 0cbd 700c 8a3e f007 a0be
000000e0: 7483 b9bc cd0b 1bbb ff37 80be 91e8 253e
000000f0: 0ec7 8f3e ab5e ffbd 6ae6 6fbe 7620 053d
00000100: 1a04 8b3e f611 05be 45a3 15be efcc 0b3e
00000110: b08b 993e 5dc9 a63e 0050 943e 1b5a 593e
00000120: ecff 433e 0043 b1be 1ded aa3e 7c31 00be
00000130: 84a4 99be 1c5d 4fbe 0fd6 7bbe e148 65be
00000140: 5627 23bc 2d2b 2a3e e654 81be 90c7 9bbe
00000150: 8e10 393e fbb9 493d 126c f93d be14 39be
00000160: a92f 2a3e 96e4 30be 4910 ab3e 7943 bd3d
00000170: 1998 73be b711 273e 7c5f a53e 2938 60be
00000180: 3d17 b63d 6a3c e3bd 9a28 74be 0702 da3d
00000190: eddc 603e 7e65 9e3e d5dc 3b3d ced1 443c
000001a0: dfc4 3bbd 1796 493e 5df9 aebc a40d 883d
000001b0: 5f10 6ebd 52b0 0dbe b90c 6c3e 424d 1d3e
000001c0: 9f4d 033e c752 23bd 6b1e a83d 713e cb3d
000001d0: 9e4d 8ebc 81a7 e8bd c5d8 bcbd fa97 34be
000001e0: 03fa 08be 01f6 9fbe a33e 433d 1921 58be
000001f0: fcaa 86be e209 1c3c c7f1 62be 0185 9fbe

feature.2.weight f4 [64, 128]
0.02583043 0.027581226 -0.03243323 -0.095160365 0.06186487 0.061281938 0.06847929 0.04170809
0.061122067 -0.076565154 -0.09970914 -0.08058195 0.07144436 -0.09254377 -0.037712052 0.07097964
0.07144376 0.015723456 0.0733141 0.004917526 0.04203508 -0.029654447 0.033152223 -0.058631763
0.06964273 -0.09548265 -0.09235413 0.04002026 -0.011898232 0.009215827 -0.061806124 -0.040715832
0.0406495 0.05437479 0.014525944 -0.0011097568 -0.06289979 0.053996775 -0.01027189 -0.0023736132
-0.040141124 0.052224286 0.05397218 -0.08050603 -0.001774299 -0.016213365 -0.07069443 -0.062920116
-0.05461464 0.0290663 -0.04519472 -0.063830785 -0.039182086 -0.09729868 -0.06854014 -0.05051775
0.07203157 -0.076664776 0.028512336 -0.027174184 0.043202173 -0.055130202 -0.013192915 -0.039820272
0.051053632 -0.08301171 0.011109597 0.07055642 0.06664457 -0.019465527 0.0026671437 0.057532527
0.059282016 -0.022014441 -0.027589783 0.034295794 -0.07686555 -0.036077574 -0.018174786 -0.08219801
-0.060811974 -0.09951239 -0.047655795 -0.10030902 0.02529299 -0.03817749 -0.034640208 0.020402547
-0.08146039 -0.034478266 -0.06013135 -0.056965422 0.030686086 0.018928956 -0.06219614 -0.045564745
-0.05507134 -0.023110824 -0.009426554 -0.012600381 -0.029121261 -0.016112974 0.0066828555 -0.024866482
-0.044583566 0.012863144 0.04700826 0.011933271 -0.075444184 -0.04031408 -0.08550479 0.054319654
-0.07800176 -0.060238834 0.03061932 0.04480347 0.02599089 -0.051824883 0.04745609 0.0020907791
-0.096370555 -0.02490041 -0.093153015 -0.048541192 0.0021037937 -0.096329115 -0.019598844 0.04085458
0.0046911687 0.07810256 -0.006425211 0.0051427977 -0.06816016 -0.021755075 0.013944559 0.06259992
0.0836584 -0.007284318 0.07907952 0.013948258 0.06247648 0.057126142 -0.055937245 0.09212012
0.024508784 -0.0473414 -0.08065677 -0.0050950767 -0.02387038 0.077474184 0.035598952 -0.039005056
0.023046955 -0.051283948 0.087406464 0.054510873 0.04603425 0.04230091 -0.0066597247 -0.018806715
0.011841528 -0.081292585 -0.04443234 0.0151723595 0.06197086 -0.001167571 -0.030795928 0.0613841
0.021159582 -0.053368855 0.04070176 0.029826518 -0.068130285 0.023744281 -0.053989295 0.08553102
-0.05028348 -0.00546229 -0.03663672 0.014149385 0.08066213 -0.040232748 0.031133594 -0.02584759
-0.03770455 0.005582683 0.06925391 -0.075822845 -0.033997584 0.07090517 -0.043380704 0.023845429
0.035562985 0.013561741 0.012595586 -0.05258958 -0.013079898 -0.014545558 -0.0006916318 -0.0030419938
-0.0142295025 -0.052243233 0.06736562 0.03035447 0.0311735 0.04712533 0.0017554858 0.056588944
0.031812966 -0.022530135 -0.0022775764 -0.07436933 -0.0445806 0.08106514 0.092547044 -0.061386995
-0.036944777 0.050494075 -0.07646709 -0.006951047 -0.08164293 -0.03359504 -0.046986848 0.0033633478
-0.026416387 -0.05306028 0.045364372 -0.034327365 -0.08468955 0.04809289 0.05814125 -0.013340912
0.0054821856 0.017572975 -0.0031237788 -0.013043672 -0.073223695 0.041765753 0.005331379 0.04557359
0.008016948 -0.03153667 -0.044407018 0.013387352 0.04637839 0.08524407 0.078500375 0.08102878
-0.066542886 0.013400422 0.08183256 0.046015576 0.058994252 0.07916473 -0.027683593 0.045747377
00000000: 579a d33c 06f2 e13c b5d8 04bd 70e3 c2bd
00000010: 0566 7d3d c502 7b3d df3e 8c3d 1ad6 2a3d
00000020: 225b 7a3d 31ce 9cbd 4e34 ccbd 2608 a5bd
00000030: 6c51 923d 9787 bdbd f477 1abd c65d 913d
00000040: 1b51 923d 7ace 803c b425 963d 3323 a13b
00000050: fa2c 2c3d e2ed f2bc a0ca 073d dc27 70bd
00000060: d9a0 8e3d 688c c3bd 2a24 bdbd 49ec 233d
00000070: cdf0 42bc fbfd 163c 6b28 7dbd a5c5 26bd
00000080: 1780 263d 1ab8 5e3d 3afe 6d3c 4275 91ba
00000090: 9bd1 80bd b92b 5d3d 6e4b 28bc 9f8e 1bbb
000000a0: 056b 24bd 22e9 553d ef11 5d3d 58e0 a4bd
000000b0: 988f e8ba e4d1 84bc 3ec8 90bd 43dc 80bd
000000c0: 9ab3 5fbd 731c ee3c 191e 39bd b7b9 82bd
000000d0: 657d 20bd 8844 c7bd c65e 8cbd b3eb 4ebd
000000e0: 4a85 933d 6c02 9dbd b492 e93c 659c debc
000000f0: c3f4 303d 35d0 61bd 1927 58bc 951a 23bd
00000100: 9d1d 513d 0b02 aabd 0705 363c e27f 903d
00000110: f37c 883d 2b76 9fbc 3fcb 2e3b 3aa7 6b3d
00000120: b3d1 723d a157 b4bc f803 e2bc bf79 0c3d
00000130: af6b 9dbd 14c6 13bd 4ae3 94bc 6e57 a8bd
00000140: fa15 79bd 27cd cbbd b932 43bd d16e cdbd
00000150: 3f33 cf3c 0060 1cbd e4e2 0dbd 3e23 a73c
00000160: b4d4 a6bd 1539 0dbd 4a4c 76bd 9354 69bd
00000170: 6361 fb3c e610 9b3c 61c1 7ebd 19a2 3abd
00000180: 7c92 61bd e952 bdbc d571 1abc d471 4ebc
00000190: b68f eebc 5bff 83bc dbfb da3b cbb4 cbbc
000001a0: 429d 36bd f0bf 523c bc8b 403d c483 433c
000001b0: 7b82 9abd 6020 25bd 231d afbd 497e 5e3d
000001c0: 63bf 9fbd ffbc 76bd 5ed5 fa3c d883 373d
000001d0: d9ea d43c 5446 54bd 5161 423d 7405 093b
000001e0: ed5d c5bd f2fb cbbc 02c7 bebd 21d3 46bd
000001f0: cddf 093b 3348 c5bd c18d a0bc 2257 273d
00000200: 60b8 993b 3cf4 9f3d 948a d2bb ea84 a83b
00000210: 8e97 8bbd b337 b2bc b877 643c 6334 803d
00000220: 1855 ab3d 4ab1 eebb 72f4 a13d 3c87 643c
00000230: 56e7 7f3d 1afd 693d 741e 65bd 79a9 bc3d
00000240: a5c6 c83c 0ee9 41bd 602f a5bd 9af4 a6bb
00000250: d18b c3bc c9aa 9e3d 35d0 113d c4c3 1fbd
00000260: f8cc bc3c 1e0f 52bd 2902 b33d cb46 5f3d
00000270: 698e 3c3d b843 2d3d d239 dabb 8a10 9abc
00000280: f802 423c ba7c a6bd affe 35bd 7d95 783c
00000290: 28d5 7d3d 2f09 99ba be47 fcbc e56d 7b3d
000002a0: dc56 ad3c 4d99 5abd e4b6 263d be56 f43c
000002b0: e487 8bbd 5e83 c23c e123 5dbd e32a af3d
000002c0: 0df6 4dbd 02fd b2bb 6310 16bd d2d2 673c
000002d0: 3032 a53d 18cb 24bd e10b ff3c 53be d3bc
000002e0: 1670 1abd f0ee b63b fed4 8d3d 0249 9bbd
000002f0: 0d41 0bbd bb36 913d f7af 31bd 7d57 c33c
00000300: 7eaa 113d 1132 5e3c b75d 4e3c 2c68 57bd
00000310: 124d 56bc 7e50 6ebc a04e 35ba 305c 47bb
00000320: dc22 69bc 00fd 55bd fcf6 893d f0a9 f83c
00000330: 915f ff3c 7d06 413d 5418 e63a cfc9 673d
00000340: 504e 023d 1e91 b8bc 6443 15bb f34e 98bd
00000350: 269a 36bd 7b05 a63d 4e89 bd3d ee70 7bbd
00000360: 6853 17bd e0d2 4e3d c79a 9cbd 9cc5 e3bb
00000370: 6934 a7bd f49a 09bd 4875 40bd 9d6b 5c3b
00000380: 2e67 d8bc bc55 59bd fecf 393d da9a 0cbd
00000390: b771 adbd 0dfd 443d 8525 6e3d d793 5abc
000003a0: e8a3 b33b 33f5 8f3c 50b8 4cbb 20b5 55bc
000003b0: 4ef6 95bd 9112 2b3d d9b2 ae3b 5fab 3a3d
000003c0: 8459 033c 982c 01bd 22e4 35bd a056 5b3c
000003d0: 44f7 3d3d 7194 ae3d cec4 a03d 6bf2 a53d
000003e0: a347 88bd 728d 5b3c d497 a73d d47a 3c3d
000003f0: f5a3 713d 1e21 a23d b4c8 e2bc 9a61 3b3d

feature.2.bias f4 [64]
0.0131338695 -0.061999135 -0.032509554 0.05593384 0.032075863 0.058576472 -0.057002526 -0.035661228
0.02486482 0.031698808 -0.028445778 -0.038625617 -0.08052349 -0.08576493 -0.051283833 0.02053182
-0.04640477 0.026749348 -0.050027493 -0.014396237 -0.064442806 -0.022851773 0.037623953 0.018144311
0.06434008 0.012010849 -0.011601097 0.058487836 -0.058587573 0.05900302 -0.015718067 0.013570326
-0.047323205 -0.008914001 -0.04471995 0.032479744 -0.056885727 -0.022575725 0.064327806 0.008224933
-0.06553432 0.020490894 0.007063144 -0.058992065 -0.090137966 -0.10452475 -0.062423 -0.011611347
-0.06940965 -0.07048698 0.01732028 -0.051537618 -0.014625314 0.0310388 0.10309292 -0.017870782
0.02648126 0.052784674 0.02315661 0.06797998 -0.026701614 0.07195845 -0.027931282 0.060129017
00000000: 712f 573c cef2 7dbd bd28 05bd e21a 653d
00000010: fb61 033d e2ed 6f3d 7b7b 69bd 8211 12bd
00000020: 4fb1 cb3c 9cd6 013d 1f07 e9bc e535 1ebd
00000030: 80e9 a4bd 86a5 afbd ff0e 52bd 5932 a83c
00000040: ee12 3ebd 7321 db3c a1e9 4cbd 32de 6bbc
00000050: 97fa 83bd a433 bbbc 931b 1a3d 61a3 943c
00000060: bbc4 833d 27c9 443c 8712 3ebc f190 6f3d
00000070: 86f9 6fbd 27ad 713d 2dc3 80bc 1356 5e3c
00000080: fad5 41bd 080c 12bc 442c 37bd 7b09 053d
00000090: 0201 69bd baf0 b8bc 4cbe 833d dfc1 063c
000000a0: dc36 86bd 85dc a73c f271 e73b aaa1 71bd
000000b0: 419a b8bd 1211 d6bd 42af 7fbd 853d 3ebc
000000c0: a626 8ebd 7a5b 90bd 43e3 8d3c 1c19 53bd
000000d0: 039f 6fbc 1545 fe3c 6122 d33d bf65 92bc
000000e0: 3aef d83c be34 583d eeb2 bd3c 1639 8b3d
000000f0: 58bd dabc f45e 933d 25d0 e4bc d849 763d

label_head.weight f4 [1, 64]
0.0072055026 -0.02419942 0.10995667 0.044630397 0.0040650163 -0.050278764 0.094546065 -0.0054674856
0.018779358 -0.027026184 -0.063362755 -0.082540244 0.05972154 0.010045881 0.007622502 -0.009229035
-0.06464576 -0.024278007 -0.08154553 0.0021789914 0.04680513 -0.13669662 0.09352472 -0.055901434
0.0879033 0.092549905 0.041883983 0.09915683 -0.13332762 -0.1364831 -0.008452709 -0.07907729
-0.077796094 -0.03339447 -0.10222174 -0.024185386 -0.08524811 0.01886699 0.0031641838 -0.10446615
-0.07452322 -0.02872858 0.057314858 0.09963213 0.03373562 -0.006878795 -0.023593023 0.10317738
-0.090035476 -0.09292779 0.012929153 -0.104314424 0.11132283 -0.09259576 -0.087207064 0.06127668
-0.044327363 0.10562275 -0.07493564 0.05205627 0.0064417273 0.018648712 -0.14083044 -0.03997424
00000000: 231c ec3b dd3d c6bc f630 e13d 5dce 363d
00000010: d433 853b 1bf1 4dbd 5ea1 c13d 9828 b3bb
00000020: 2bd7 993c 0466 ddbc 55c4 81bd dc0a a9bd
00000030: 939e 743d 7b97 243c 2ec6 f93b 6135 17bc
00000040: ff64 84bd ace2 c6bc 5801 a7bd 69cd 0e3b
00000050: bcb6 3f3d 33fa 0bbe e389 bf3d e7f8 64bd
00000060: a506 b43d ce8a bd3d 8a8e 2b3d bc12 cb3d
00000070: 0987 08be 3ac2 0bbe 3b7d 0abc 46f3 a1bd
00000080: 8f53 9fbd a4c8 08bd a259 d1bd 6e20 c6bc
00000090: 9096 aebd f28e 9a3c 325e 4f3b 59f2 d5bd
000000a0: a19f 98bd 3358 ebbc fcc2 6a3d ee0b cc3d
000000b0: 5d2e 0a3d 8467 e1bb 2846 c1bc aa4e d33d
000000c0: 8564 b8bd ed50 bebd ccd4 533c cda2 d5bd
000000d0: 39fd e33d d9a2 bdbd 9e99 b2bd 42fd 7a3d
000000e0: 9c90 35bd be50 d83d db77 99bd f538 553d
000000f0: 2015 d33b 2fc5 983c db35 10be 07bc 23bd

domain_head.0.weight f4 [32, 64]
-0.067324676 0.09607953 0.114775464 0.14155217 0.10760165 -0.007972442 -0.05757023 0.09574843
0.09569339 -0.022220815 0.10380443 -0.03669677 -0.04783258 0.10576045 0.12660342 -0.09277381
0.0914746 0.13153824 0.049632855 0.04745799 0.051126756 0.031029304 0.09487026 -0.058899462
-0.018551664 -0.025403079 0.067923255 -0.07585001 0.07728328 -0.029915726 0.11414773 0.021065395
0.042309187 0.06940768 0.06786165 0.07740513 0.10323109 -0.027055254 -0.03802573 0.06726298
-0.09717248 0.050674826 0.06511502 0.11237494 0.10333712 -0.06097581 -0.07419944 -0.025051767
-0.075808205 0.038509537 0.08624943 0.093553424 -0.10966771 0.071572915 -0.03634649 -0.043472257
-0.06491453 -0.019904407 -0.026209865 -0.06696399 0.11154561 -0.0014552758 0.07014749 -0.004146572
0.09400833 -0.06251696 -0.018082244 -0.050681457 -0.050086815 -0.01161591 -0.09934368 0.024539098
-0.10379006 0.04361787 0.053995207 0.11217425 -0.081110395 -0.005547815 0.0009711083 -0.088573314
0.09991382 0.09495045 0.08334818 -0.001992935 0.02963987 0.10370126 -0.03291966 0.075948276
0.06371112 -0.10319294 -0.03701355 -0.053787246 -0.06713207 0.12543999 -0.015568799 -0.009399008
-0.08643054 0.13164264 0.0136153 0.12489582 0.12901299 -0.037108682 0.022693697 0.09335907
0.14468239 0.007914349 -0.026133122 0.14533208 0.0920134 -0.053569958 0.07254067 -0.0874108
0.06612206 0.069144204 -0.025648478 -0.026192533 0.09168722 0.032952685 -0.072659716 0.076219134
0.08071552 -0.0416966 0.12010107 -0.07872866 0.04406047 -0.05386704 -0.07940004 0.10221202
0.08568501 -0.12229055 -0.089992225 -0.06612567 -0.11164569 -0.003712846 0.09456803 0.028794691
-0.0680491 -0.05424148 0.006523283 -0.089654975 -0.11612362 -0.0065499227 -0.005647805 -0.084838815
-0.09396002 0.107205935 0.0032058284 -0.027387947 -0.061251663 0.062402602 0.0027410781 0.08430356
-0.03806157 -0.08012577 0.07392035 -0.059024822 0.091254406 -0.014024725 0.008091752 -0.07751081
-0.13387066 -0.08262234 0.032197595 -0.11603516 -0.032247256 -0.016873123 0.014827842 -0.13626346
-0.04392646 -0.02278659 0.005717604 -0.044193357 0.11228751 -0.02852422 0.100882016 0.10282934
0.048069637 0.049929455 0.1041406 -0.109875865 -0.09945439 0.022734782 -0.043551132 -0.0688014
-0.1142363 0.022680946 0.08254217 -0.053057987 0.04822831 0.04167611 -0.007476489 -0.08153736
0.08999351 0.087594405 -0.03622119 0.11606893 0.11321152 -0.03229168 -0.08979181 0.066055216
0.08664388 0.0198749 0.14076836 0.0155194085 0.007553106 0.1006994 0.0013863295 0.11495837
0.04756095 0.07420692 0.013718807 0.0054444694 0.06257105 -0.047807656 -0.034106154 0.04746907
-0.015537152 -0.047425885 -0.06972545 -0.013799125 0.1507479 -0.033708822 0.06536163 0.14043102
0.12645493 0.027181322 0.0007844514 0.13441521 0.066982634 -0.095038116 -0.045593478 -0.0072189653
0.013676867 -0.031840783 0.04273243 0.07203301 -0.08049751 -0.07302642 0.07864602 -0.10660077
0.07408906 0.060651504 -0.09900841 0.027658802 0.11254789 0.024408853 0.01123825 -0.07473918
0.032226443 -0.10264659 0.12246648 -0.095119305 -0.010638332 0.064952455 0.022570878 0.055168707
00000000: 85e1 89bd 58c5 c43d 660f eb3d 0df3 103e
00000010: 415e dc3d d89e 02bc c3ce 6bbd c117 c43d
00000020: e5fa c33d 6d08 b6bc 6b97 d43d 5a4f 16bd
00000030: 18ec 43bd ef98 d83d 54a4 013e 3200 bebd
00000040: 0957 bb3d f6b1 063e d24b 4b3d 4f63 423d
00000050: 4a6a 513d 2b31 fe3c 574b c23d 9040 71bd
00000060: a9f9 97bc 1e1a d0bc 591b 8b3d 4057 9bbd
00000070: b246 9e3d d311 f5bc 49c6 e93d 5691 ac3c
00000080: 664c 2d3d 9d25 8e3d 0cfb 8a3d 9586 9e3d
00000090: d26a d33d fba2 ddbc dec0 1bbd 2cc1 893d
000000a0: 5d02 c7bd 6890 4f3d 065b 853d d524 e63d
000000b0: 69a2 d33d c5c1 79bd e0f5 97bd 5d39 cdbc
000000c0: 5541 9bbd 2dbc 1d3d 8ba3 b03d f098 bf3d
000000d0: 7799 e0bd d294 923d 0fe0 14bd f70f 32bd
000000e0: e9f1 84bd 910e a3bc 12b6 d6bc 6b24 89bd
000000f0: 0672 e43d f4be beba 7da9 8f3d f8df 87bb
00000100: 7087 c03d e408 80bd 3721 94bc 5c97 4fbd
00000110: d527 4dbd a850 3ebc b374 cbbd 3806 c93c
00000120: e28f d4bd a7a8 323d 142a 5d3d 9dbb e53d
00000130: 351d a6bd 72ca b5bb fa91 7e3a ed65 b5bd
00000140: 9e9f cc3d 6275 c23d 73b2 aa3d e79b 02bb
00000150: 50cf f23c 5461 d43d c4d6 06bd c58a 9b3d
00000160: fa7a 823d d256 d3bd 859b 17bd 0450 5cbd
00000170: 8a7c 89bd 5773 003e 4714 7fbc 4cfe 19bc
00000180: 7f02 b1bd 54cd 063e b512 5f3c 61c9 ff3d
00000190: fb1b 043e 46ff 17bd 22e8 b93c 0a33 bf3d
000001a0: 9f27 143e 30ab 013c 2115 d6bc efd1 143e
000001b0: 8571 bc3d 2c6c 5bbd 3490 943d 6f04 b3bd
000001c0: 016b 873d 7a9b 8d3d c21c d2bc b991 d6bc
000001d0: 82c6 bb3d 65f9 063d 9ece 94bd c718 9c3d
000001e0: 2e4e a53d 0eca 2abd 8df7 f53d 7e3c a1bd
000001f0: c078 343d afa3 5cbd 7d9c a2bd 8954 d13d
00000200: 9f7b af3d 7873 fabd d84d b8bd e56c 87bd
00000210: 7fa6 e4bd 3853 73bb e2ac c13d d8e2 eb3c
00000220: 545d 8bbd 502c 5ebd 44c1 d53b 079d b7bd
00000230: 38d2 edbd bca0 d6bb 3911 b9bb f9bf adbd
00000240: 1c6e c0bd c98e db3d e018 523b b05c e0bc
00000250: 06e3 7abd df99 7f3d a9a3 333b 58a7 ac3d
00000260: 73e6 1bbd fb18 a4bd 8d63 973d 03c4 71bd
00000270: 97e3 ba3d f6c7 65bc 4593 043c fdbd 9ebd
00000280: 6415 09be e735 a9bd a0e1 033d d8a3 edbd
00000290: b315 04bd 8139 8abc 7af0 723c a688 0bbe
000002a0: 3bec 33bd f1aa babc bd5a bb3b 1804 35bd
000002b0: fef6 e53d a0ab e9bc 3b9b ce3d 3098 d23d
000002c0: abe4 443d d482 4c3d ab47 d53d 9906 e1bd
000002d0: beae cbbd 4b3e ba3c ac62 32bd c0e7 8cbd
000002e0: b9f4 e9bd 64cd b93c df0b a93d 5553 59bd
000002f0: 0c8b 453d 92b4 2a3d 56fd f4bb 0ffd a6bd
00000300: 844e b83d b264 b33d ac5c 14bd 8cb5 ed3d
00000310: 71db e73d 4844 04bd c5e4 b7bd f547 873d
00000320: 5972 b13d b0d0 a23c 9525 103e 1e45 7e3c
00000330: 0c80 f73b 7d3b ce3d 80b5 b53a 4b6f eb3d
00000340: 45cf 423d ccf9 973d d9c4 603c 8567 b23b
00000350: 4025 803d f6d1 43bd e5b2 0bbd ed6e 423d
00000360: 8a8f 7ebc a541 42bd 37cc 8ebd ba15 62bc
00000370: a85d 1a3e 4312 0abd 51dc 853d 26cd 0f3e
00000380: 677d 013e 5dab de3c a4a3 4d3a 24a4 093e
00000390: 312e 893d 58a3 c2bd 3ac0 3abd 128d ecbb
000003a0: f014 603c 7b6b 02bd 3308 2f3d 0b86 933d
000003b0: e1db a4bd e08e 95bd 2a11 a13d 8151 dabd
000003c0: 01bc 973d b66d 783d ecc4 cabd b694 e23c
000003d0: 827f e63d 13f5 c73c a320 383c db10 99bd
000003e0: e0ff 033d 6038 d2bd b5cf fa3d e9cd c2bd
000003f0: 664c 2ebc cb05 853d 90e6 b83c 95f8 613d

domain_head.0.bias f4 [32]
0.14688988 -0.07643406 -0.008146683 -0.00027652876 0.14617059 0.048330612 -0.010320811 0.105773166
0.00075326546 0.03300217 -0.12957808 0.03719383 0.11951052 0.12210202 0.11700878 -0.042084944
-0.010644507 0.07563514 0.08596855 0.090537116 -0.08536225 0.14913933 0.0304216 0.06904824
0.068415485 0.017823875 0.0054199933 -0.05823182 -0.036914065 -0.0691701 -0.035160486 -0.11035181
00000000: 4d6a 163e 7689 9cbd aa79 05bc 10fb 90b9
00000010: bead 153e 52f6 453d 9e18 29bc 9a9f d83d
00000020: ca76 453a 492d 073d 1eb0 04be 8f58 183d
00000030: eec1 f43d a010 fa3d 4da2 ef3d 4361 2cbd
00000040: 4c66 2ebc 99e6 9a3d 4710 b03d 866b b93d
00000050: 67d2 aebd fbb7 183e b836 f93c 2a69 8d3d
00000060: 6b1d 8c3d 6003 923c 339a b13b 7d84 6ebd
00000070: 3433 17bd 0ea9 8dbd 7104 10bd 2100 e2bd

domain_head.2.weight f4 [25, 32]
0.12027723 -0.08368643 -0.025044834 0.092588335 0.06578775 -0.15842003 -0.0061089657 -0.12674734
-0.081996985 0.038306285 0.0028435742 0.141518 0.07352818 -0.16677633 -0.15407893 -0.15874848
-0.067205876 0.07224416 0.032332648 0.14587876 0.14929746 0.120288275 0.049068693 -0.107816875
0.12796757 0.11912798 0.14658561 0.12513122 0.15013397 0.038382847 -0.07457712 0.0019500593
-0.1441765 -0.046969462 -0.05407553 0.15183203 0.045391206 0.18326405 -0.11564416 -0.038942046
-0.13233891 0.19756564 -0.09413042 -0.06442165 0.07213701 0.13938603 -0.03966482 0.19606085
-0.04417825 -0.1490587 -0.0490894 -0.009582244 0.047877893 -0.037666608 -0.010109784 0.20802967
-0.026224706 0.18725154 0.018124232 0.12158052 -0.11779276 0.07846293 0.014957315 -0.09407012
0.09153852 0.10232241 -0.064979084 -0.030624567 -0.18810412 0.0070400587 0.13896255 0.08976877
0.013859526 0.029958928 0.08580785 0.1257073 -0.16844608 -0.10423576 0.028483713 -0.07405656
-0.15079387 0.1340806 -0.10487247 0.02275767 -0.17523888 -0.10399176 0.020371879 0.11754285
-0.0044171354 -0.09101719 -0.103118345 -0.13685684 -0.049784087 0.06675889 0.06336449 -0.028551022
0.14267701 0.12506019 -0.049284533 0.1869805 0.02678532 0.03469555 0.111147724 -0.020442424
-0.018615568 0.11101456 -0.12584077 -0.09465278 0.10982706 0.1766936 -0.02152842 -0.09756926
-0.0033528632 -0.036726188 -0.0052946554 0.11528579 -0.060394656 0.13196073 -0.12102557 0.07300449
-0.118747264 0.03526438 -0.021913184 -0.007202927 -0.09690423 0.0879825 0.16201022 -0.13402055
-0.1631712 -0.085657604 -0.1252967 -0.104899965 0.1520196 -0.041028947 -0.16053933 -0.11227713
0.10473903 0.028979484 0.015046502 0.0155339595 -0.13963915 0.069455154 -0.008095165 0.08985875
0.17616038 0.10833669 -0.021756908 -0.14955449 -0.018203223 -0.081938356 0.03494816 -0.0025628414
-0.03491884 -0.02363237 0.1616231 0.0556028 0.054428965 0.082471 -0.12670131 -0.0920741
0.0011936642 0.03479819 0.10254031 0.024343288 -0.064683385 0.11860305 -0.13257526 -0.06960784
-0.08312255 -0.15273112 -0.04102874 -0.14591245 -0.06059535 -0.07066594 -0.15117568 0.08080736
-0.09405864 0.030891681 0.08490969 -0.009357409 0.09033544 -0.079655975 -0.0020204997 0.05331118
0.10473424 -0.15260358 0.028265968 0.14124541 0.05775971 -0.12482219 0.040661674 0.10587877
-0.00057942665 -0.025057064 -0.07160006 -0.06394398 -0.18393055 0.11089346 0.0259857 0.033911306
-0.07575514 0.029015178 -0.012175038 -0.17237066 0.13568169 -0.18322547 0.07589036 0.13012709
-0.12614799 0.012254078 0.0018983692 -0.055278204 0.011926635 -0.098135754 0.0343084 0.09509011
0.08885828 -0.06500593 0.095754355 0.06556203 -0.19449763 -0.08217628 0.105036385 0.0007452616
-0.038804546 0.1103327 0.037593484 0.10011939 0.20190023 0.03745013 0.044473045 -0.13011591
0.029502647 0.18687326 0.10801262 -0.12064747 0.11143768 -0.0032296572 -0.06632342 -0.03640174
0.13623257 0.19027361 -0.040512763 0.124977455 0.15211698 -0.0011669365 -0.12531239 -0.11474793
0.010150428 0.06530872 -0.06170692 0.017396048 -0.03997642 0.1776582 0.03673298 -0.04431366
00000000: e953 f63d ca63 abbd d32a cdbc f49e bd3d
00000010: babb 863d dc38 22be b82d c8bb 0eca 01be
00000020: 09ee a7bd 0de7 1c3d 425b 3a3b 18ea 103e
00000030: f195 963d 6ac7 2abe dec6 1dbe f68e 22be
00000040: 3ca3 89bd bff4 933d 3d6f 043d 3e61 153e
00000050: 6fe1 183e b359 f63d 41fc 483d 18cf dcbd
00000060: ee09 033e 5ff9 f33d 8a1a 163e 6622 003e
00000070: b8bc 193e 5537 1d3d e4bb 98bd 2299 ff3a
00000080: 01a3 13be 0d63 40bd 4e7e 5dbd db79 1b3e
00000090: 21ec 393d 92a9 3b3e d8d6 ecbd b281 1fbd
000000a0: da83 07be a64e 4a3e 73c7 c0bd 7fef 83bd
000000b0: 92bc 933d 36bb 0e3e 9477 22bd 2dc4 483e
000000c0: 41f4 34bd d8a2 18be f711 49bd d8fe 1cbc
000000d0: 9c1b 443d 4d48 1abd 82a3 25bc bb05 553e
000000e0: 32d5 d6bc debe 3f3e 4579 943c 35ff f83d
000000f0: 553d f1bd 2cb1 a03d 870f 753c d6a7 c0bd
00000100: 8c78 bb3d 698e d13d c113 85bd 5fe0 fabc
00000110: 5e9e 40be 4bb0 e63b 334c 0e3e b0d8 b73d
00000120: 1113 633c 6d6c f53c 07bc af3d 6ab9 003e
00000130: 217d 2cbe 8f79 d5bd ad56 e93c f7aa 97bd
00000140: b569 1abe 6d4c 093e 61c7 d6bd 4b6e ba3c
00000150: d271 33be a2f9 d4bd ede2 a63c 4eba f03d
00000160: 9ebd 90bb 3867 babd b62f d3bd 3324 0cbe
00000170: 66ea 4bbd e3b8 883d 3ec5 813d d5e3 e9bc
00000180: ec19 123e c70f 003e 94de 49bd d177 3f3e
00000190: e36c db3c ec1c 0e3d 6ba1 e33d df76 a7bc
000001a0: ad7f 98bc 9a5b e33d 67dc 00be 51d9 c1bd
000001b0: 02ed e03d 2bef 343e 5e5c b0bc 64d2 c7bd
000001c0: b6bb 5bbb 336e 16bd ca7e adbb f51a ec3d
000001d0: 6360 77bd b720 073e 41dc f7bd 6183 953d
000001e0: c431 f3bd 6271 103d 4783 b3bc 8806 ecbb
000001f0: ba75 c6bd 2b30 b43d 02e6 253e af3c 09be
00000200: 5a16 27be 416d afbd c74d 00be cbd5 d6bd
00000210: 07ab 1b3e f80d 28bd 6c64 24be 8df1 e5bd
00000220: 6b81 d63d 6266 ed3c 9b85 763c 2682 7e3c
00000230: 91fd 0ebe 813e 8e3d 95a1 04bc dd07 b83d
00000240: 6363 343e a0df dd3d 8b3b b2bc d024 19be
00000250: ed1e 95bc 4ccf a7bd cd25 0f3d 58f5 27bb
00000260: 0f07 0fbd ac98 c1bc 8780 253e c3bf 633d
00000270: e8f0 5e3d 8ee6 a83d fdbd 01be 5991 bcbd
00000280: b974 9c3a 8c88 0e3d a700 d23d 936b c73c
00000290: b978 84bd 28e6 f23d cfc1 07be 8e8e 8ebd
000002a0: 283c aabd 8c65 1cbe c10d 28bd 136a 15be
000002b0: d432 78bd 4eb9 90bd cccd 1abe 547e a53d
000002c0: d1a1 c0bd 8d10 fd3c 22e5 ad3d d14f 19bc
000002d0: ca01 b93d ac22 a3bd 5c6a 04bb d35c 5a3d
000002e0: e87e d63d 1d44 1cbe 088e e73c a3a2 103e
000002f0: 7295 6c3d c7a2 ffbd db8c 263d f8d6 d83d
00000300: aae4 17ba 7944 cdbc 0da3 92bd 10f5 82bd
00000310: 4a58 3cbe 1c1c e33d f6df d43c 95e6 0a3d
00000320: 8325 9bbd 3db1 ed3c d079 47bc ef81 30be
00000330: 24f0 0a3e 759f 3bbe 686c 9b3d 0940 053e
00000340: f02c 01be 54c5 483c b3d2 f83a 666b 62bd
00000350: ef67 433c 66fb c8bd f786 0c3d 9bbe c23d
00000360: 54fb b53d d421 85bd dc1a c43d 6345 863d
00000370: 632a 47be 0a4c a8bd 511d d73d a95d 433a
00000380: 84f1 1ebd 1cf6 e13d a0fb 193d 650b cd3d
00000390: efbe 4e3e 4f65 193d 5e29 363d 1b3d 05be
000003a0: 89af f13c b45b 3f3e b835 dd3d 0516 f7bd
000003b0: 7039 e43d a8a8 53bb 93d4 87bd fe19 15bd
000003c0: 8d80 0b3e 16d7 423e b6f0 25bd 2ef4 ff3d
000003d0: 8ec4 1b3e e4f3 98ba e451 00be f600 ebbd
000003e0: fb4d 263c 94c0 853d 65c0 7cbd 2882 8e3c
000003f0: 51be 23bd 08ec 353e 5275 163d 3e82 35bd

domain_head.2.bias f4 [25]
-0.07394482 -0.011766032 0.01563962 -0.02638181 0.062102195 -0.054632537 -0.18472674 0.06332774
-0.15734565 0.11949467 -0.056983434 0.10710673 -0.0841938 -0.09354651 -0.13450806 -0.19110169
0.097862095 -0.059145875 -0.19058152 -0.17533019 -0.08054873 -0.05965877 0.030952908 -0.03138233
-0.0547588
00000000: 6270 97bd 51c6 40bc a91e 803c aa1e d8bc
00000010: df5e 7e3d 5ec6 5fbd 0229 3dbe f9b1 813d
00000020: 381f 21be 9fb9 f43d 7667 69bd c65a db3d
00000030: cd6d acbd 5095 bfbd 7bbc 09be 29b0 43be
00000040: ec6b c83d f242 72bd cd27 43be c289 33be
00000050: bcf6 a4bd c15c 74bd f490 fd3c c28a 00bd
00000060: c34a 60bd
